pre-trained/dqn_dnn10000.pth (torch, 800231 bytes, 44 tensors)

feature.0.weight f4 [128, 81]
000000 d3 13 83 bd ba a6 1a 3b 1d 6f 2a 3c ed e0 81 3d
       -0.064002655 0.0023597912 0.010402468 0.06341729
000010 3c 21 ec 3c 79 a9 c8 3c 60 6f 07 3d 5d 24 c6 3a
       0.028824441 0.024494873 0.0330652 0.0015117038
000020 19 32 2a bd dc e4 30 bd ef 30 14 bc 6d 22 11 3d
       -0.041551683 -0.043187007 -0.00904487 0.03543322
000030 7f 87 29 3d a6 03 c5 3c 14 35 d6 bc d5 25 c6 bb
       0.041388985 0.024049591 -0.026148356 -0.0060469904
000040 b4 88 6e bc 6e 27 0c bd 85 21 b7 bc 42 a3 69 3c
       -0.01455896 -0.03421729 -0.02235485 0.014260115
000050 80 da 81 3c 9f 2f 98 3c e8 34 61 3d db 0e 21 b9
       0.01585126 0.018577395 0.054982096 -0.0001535969
000060 3c e4 68 3c 39 df 2d 3d fc 3b eb bc 93 ae 26 bd
       0.014214572 0.04244921 -0.028715126 -0.04069383
000070 b0 24 3c 3d ac 19 40 bd d1 39 31 bd 69 11 1e bd
       0.045933425 -0.046899483 -0.04326803 -0.038590822
000080 ca bc ea bc 03 c4 d8 bb b7 c8 54 3e 77 5a 00 3e
       -0.028654475 -0.0066151633 0.20779692 0.1253451
000090 8c 9f 1b bc b2 c0 e8 3c 10 ba 0e 3c bf e1 46 bd
       -0.009498488 0.028412197 0.008711353 -0.048555132
0000a0 43 eb 76 3c 8f 94 7a 3d 88 64 f3 bc 0b 51 29 be
       0.015070739 0.061176833 -0.029711023 -0.16534822
0000b0 20 f3 d8 bc 94 4a d9 bc 90 68 4d ba d9 41 3a 3d
       -0.026483119 -0.02652482 -0.00078357104 0.045472953
0000c0 6a 77 d2 3c 41 2c e6 3c c1 3c ee 3d 21 8f c6 bd
       0.025691707 0.028097274 0.11632682 -0.096952684
0000d0 32 da 6d be 81 03 d6 bd 1f af 63 bd f7 c1 66 bc
       -0.23227766 -0.10449887 -0.05558693 -0.014084331
0000e0 83 98 05 3d b2 44 97 bc 49 83 27 3d e9 93 fd 3e
       0.03261615 -0.018465374 0.040896688 0.4952691
0000f0 6a 1a d8 be 56 85 42 bf e4 6a ea 3f 32 cb 95 bc
       -0.42207652 -0.75984704 1.831387 -0.018285368
000100 d9 12 0a 3d 83 3f 56 3d 92 f0 1e 3c 84 6c 33 be
       0.03370938 0.052306663 0.009700911 -0.17521864
000110 79 f5 a5 3d 34 06 b8 be ca e5 e0 be 4d 66 a4 be
       0.08103461 -0.35942233 -0.43925315 -0.321093
000120 7a 29 b3 bc 2a e0 f5 3a 15 b3 eb bc 88 63 9b bb
       -0.021870364 0.0018758823 -0.028771916 -0.0047420897
000130 47 6b 82 3e 7b ee d1 bd 0c ec 6a 3c 3b 14 dc be
       0.2547247 -0.10250565 0.0143385045 -0.42984185
000140 ae b1 4d bd 6f 81 da 3d 83 c5 01 3e 4c 9f 59 3e
       -0.050218277 0.10669219 0.12673001 0.21252173
000150 1a 1e 70 3e 0a 07 2e 3e d6 36 2f 3c e1 99 c2 3d
       0.23448983 0.16994873 0.010694226 0.09502006
000160 96 cd 0f 3e ab d1 51 3e 54 9a 4f 3e 3f 55 1d bc
       0.14043269 0.20490138 0.20273715 -0.009602844
000170 bb 8b ec bc f6 db 91 bd 75 ef c5 3d 2e ed 86 3e
       -0.028875222 -0.07122032 0.096648134 0.2635283
000180 b1 39 ed bc c3 f6 83 3d ea 57 1d 3e 87 22 23 3e
       -0.028958173 0.064435504 0.15365568 0.1593114
000190 07 87 92 bd 4d 0a 86 be fe 14 b4 be f3 ae 91 be
       -0.07154661 -0.26179734 -0.35172266 -0.28453788
0001a0 99 66 b0 bd 16 e0 81 3e 31 f0 f1 bc 70 2b 48 bd
       -0.08613319 0.25366277 -0.029533478 -0.04886955
0001b0 13 7d 82 3e 76 9d ab 3c 6a a0 dd be 8b 87 41 bf
       0.2548605 0.020949107 -0.4328645 -0.7559745
0001c0 04 3d fe be 12 c0 b5 3e 52 93 58 bc bc b9 be bd
       -0.49655926 0.354981 -0.013218718 -0.0931277
0001d0 9c ad 4c 3e 3f 4e 9d 3e f0 67 f0 bc 6e ed 18 be
       0.19988102 0.3072376 -0.029346436 -0.14934322
0001e0 00 a4 9b be e6 fb cc be 14 d2 60 be cf 0d 02 3e
       -0.3039856 -0.40035933 -0.21955138 0.1270058
0001f0 eb 4b 5f 3d 6b cf 8e 3c 6e c9 a8 3e f6 94 87 3d
       0.05451576 0.017432889 0.3296618 0.06620209
000200 d5 d2 f5 bd 2a 47 48 3e c3 40 69 3e 5c 91 17 be
       -0.12003104 0.19558397 0.22778611 -0.14801544
000210 1b 4f 8c 3d b5 06 b7 3d 39 4f 61 3d bd ea 71 3d
       0.06851026 0.08936826 0.055007193 0.059061754
000220 66 fe 4c 3d 89 97 50 3d a7 68 3c 3e da d3 26 3e
       0.0500473 0.050925765 0.18399297 0.16291752
000230 24 77 9e 3d 6e 77 34 3d 14 7e 5c 3d ed c8 80 bd
       0.07737568 0.04405921 0.053831175 -0.062883236
000240 b3 0c fc bd 4a 7f 26 3e c7 f3 c3 3d 45 ee 4b 3d
       -0.1230711 0.16259494 0.09567981 0.04978778
000250 93 32 ed bd 58 d3 a8 3d c8 23 b7 3d 1c ae 83 3d
       -0.11581912 0.082434356 0.089423716 0.06429693
000260 e5 da 0e bc d2 0b 8e 3e 98 03 09 3d 29 02 5c 3d
       -0.008719181 0.27743393 0.033450693 0.053712998
000270 e4 a9 a3 bd 04 31 70 3b e5 58 73 3c ca 10 45 3d
       -0.079913884 0.003665031 0.014852737 0.048111714
000280 68 4c 8f bc bf e2 99 3c 30 09 82 be 2b 5a a5 bd
       -0.017492488 0.018784879 -0.25397635 -0.08073839
000290 e9 42 b1 3c ec 2c a4 bd 7d 77 7a bd 31 f9 fe bc
       0.02163835 -0.08016381 -0.06114911 -0.031124683
0002a0 d9 07 80 3d 9a b3 6b bb 0c 8c 8f 3c 7e ad 46 3c
       0.06251497 -0.0035965205 0.017522834 0.012126325
0002b0 35 0a 3e bd 38 03 03 3e 4c d4 6d 3d c6 45 3c 3d
       -0.046396453 0.12794197 0.05806379 0.04596498
0002c0 7a 8d 17 bd 68 ad 52 bd 6c 3c a2 bc 8c ff 67 bd
       -0.037000157 -0.051434904 -0.019804202 -0.056640193
0002d0 d2 1b db 3d 03 4a 89 3d c4 67 3b 3d 90 79 c0 3d
       0.10698666 0.0670357 0.045753255 0.09398186
0002e0 fd 87 fc bc ac 2f 65 bd e3 72 43 3d f6 da 6d bd
       -0.030826563 -0.055953667 0.047716986 -0.058070146
0002f0 be fc f4 bd 33 41 24 3c aa 73 84 3d c5 4b e0 3d
       -0.11962269 0.01002531 0.06467374 0.10951952
000300 8d 7f 10 3d e4 83 d3 bc a2 51 4e 3b 6c 63 3a 3d
       0.035277892 -0.025819726 0.0031481762 0.045504972
000310 ae 24 2d 3d 66 5b 7a bd b7 0e 24 bd 70 d4 1e 3e
       0.04227131 -0.06112232 -0.040053096 0.15510726
000320 15 b1 89 3c d6 ae a0 3d 88 30 5c 3d 3c 75 7e bc
       0.016808072 0.07845847 0.05375722 -0.015530881
000330 42 46 05 3d bf 52 ce 3b ff 50 b9 3c 62 81 c1 bd
       0.032537706 0.006296485 0.02262163 -0.09448506
000340 14 e0 d8 3d d2 56 a9 3d 4d e7 b4 bc 3f b4 84 3d
       0.105896145 0.08268513 -0.022082949 0.06479692
000350 94 38 0d bd 86 ce 67 3d 81 41 05 bd 11 f7 0f 3d
       -0.034477785 0.05659344 -0.032533173 0.03514773
000360 18 39 ec bd 52 21 6e 3e 46 78 3e 3e 54 a2 cc bd
       -0.11534327 0.23254898 0.18600568 -0.09991899
000370 ac 60 49 bc 30 a9 c8 3d 75 fd 89 3c ba b3 5e 3d
       -0.012291115 0.09797895 0.01684449 0.05437062
000380 d6 ad bc 3c e1 1f 24 bf ac 9d 5d 3f dc 78 b8 3e
       0.02303211 -0.64111143 0.86568713 0.36029708
000390 ad 2b b5 bd 70 60 3c 3c 2e a7 74 3e f0 dc 17 3e
       -0.08846221 0.011497602 0.23891899 0.14830375
0003a0 84 57 6b 3a e0 2a de bc 72 9b b1 bf d0 c0 c8 3e
       0.00089775794 -0.027120054 -1.3875563 0.39209604
0003b0 b4 f8 60 be dc 62 8f bd 4e 9f 1b be be 97 76 3d
       -0.21969873 -0.07001278 -0.15197489 0.060203306
0003c0 71 71 07 3e 0f 1c 3b bd 90 33 bb bd 70 2c 1f be
       0.13226868 -0.045681056 -0.09140694 -0.15544295
0003d0 65 5b b9 bd ec e2 28 3c c4 da aa 3c 22 e4 8d bb
       -0.09050635 0.010308009 0.020856269 -0.004330174
0003e0 5b 8a a1 bd 85 ca 4d bd 57 74 3b 3d ad f2 5b bd
       -0.07887717 -0.050241966 0.045765247 -0.05369823
0003f0 44 3f 9d bc 7a d1 75 3c b6 93 b6 3b a4 a1 ef bc
       -0.019195206 0.015003556 0.0055718077 -0.029251881

feature.0.bias f4 [128]
000000 2b 80 04 be 74 50 43 3e 14 15 2f be f0 cc 54 bc
       -0.12939517 0.19073659 -0.17097884 -0.012988314
000010 bf 0b e1 bd 8e dc 18 be 2e 4a f4 38 70 b8 23 bd
       -0.109885685 -0.14927885 0.00011648644 -0.039970815
000020 4c d2 b5 bd ea 43 3c be 95 e7 30 be 8a c0 cc bd
       -0.088780016 -0.18385282 -0.17275842 -0.099976614
000030 66 bf e6 3c 16 35 19 bd db 16 c2 bd 0e a0 0e bd
       0.028167438 -0.037404142 -0.094770156 -0.03482061
000040 55 25 4e 3e 5a a6 65 bd 10 97 2c 3d 8d 0b 9a ba
       0.20131429 -0.05606685 0.042136252 -0.001175271
000050 91 c1 96 bc db 69 4e be 96 00 0d 3d b4 c6 cc bd
       -0.018402847 -0.20157568 0.034424387 -0.09998837
000060 5f 48 cf 3c 47 1d ae 3b 5c 03 83 bd 5f 8f 4b bd
       0.025303064 0.0053135487 -0.06397125 -0.049697276
000070 1a bb 33 be c5 32 8a be dd 23 00 3b 87 0c b6 bd
       -0.17551842 -0.2699186 0.0019552626 -0.08889108
000080 d3 73 dc bd 47 88 ab bb d5 3e 86 bd 55 0a 92 bd
       -0.10764279 -0.0052347514 -0.06554953 -0.07130877
000090 c5 aa 75 3d 2d 94 01 be 9d ee 21 3d 38 7e 0d be
       0.05997731 -0.12654181 0.0395342 -0.1381768
0000a0 54 a5 33 be 16 b0 b7 bc fa 2a b5 bc b4 13 72 3d
       -0.17543536 -0.022422832 -0.02211522 0.05910082
0000b0 ad a2 3b 3d 38 de fe bd cf 6a 0d be 75 13 af be
       0.045809437 -0.124447286 -0.13810275 -0.34194532
0000c0 19 94 d0 bc 6b 59 25 3e 8f b0 c7 bd 14 c5 45 be
       -0.025461243 0.16147391 -0.09750473 -0.1931346
0000d0 3f f1 f9 bd 1c 43 8a 3d d6 ba 35 be d1 06 78 bd
       -0.12204217 0.06751081 -0.17747054 -0.060553376
0000e0 c1 99 8b be f9 3c 1a bc 68 ed 63 be 01 ce 5a 3e
       -0.27265742 -0.009413951 -0.22258532 0.21367647
0000f0 de eb 46 3c 50 b1 88 bd eb 61 eb bd f6 04 93 bd
       0.012141196 -0.06674445 -0.11493286 -0.071786806
000100 2e 25 0b be 76 66 a1 bd c3 00 41 bd 9c a7 04 bd
       -0.13588402 -0.07880871 -0.047119867 -0.032386407
000110 5f ea 9e bd c5 4a 2e be 47 1b 36 be 01 a1 1a bd
       -0.077595465 -0.1702071 -0.17783843 -0.0377512
000120 e0 79 a1 3c 7a 5b 0e be b6 b7 f3 bd 5e 2c b3 3d
       0.019711435 -0.13902083 -0.119002745 0.08748697
000130 8f 04 9b bd 50 f6 37 be 8d 8f 50 be 2b 8a ad bd
       -0.07569229 -0.17965055 -0.2036726 -0.08473619
000140 70 a3 1a bd 95 22 da bd 8a 15 20 3e df ec ad 3d
       -0.037753522 -0.10651127 0.15633217 0.08492445
000150 7b f3 2e be 9c a4 ce bd 8e 19 b5 3d 2f 4a 6d be
       -0.17085068 -0.100899905 0.08842765 -0.2317283
000160 87 8d 05 be 44 cf be b2 19 63 26 bc da cd ac bd
       -0.1304227 -2.2213165e-08 -0.010155463 -0.084377006
000170 12 68 81 bc 52 59 cd bd 90 ff 10 be 96 6b 37 be
       -0.015796695 -0.10026802 -0.1415999 -0.17912135
000180 4e 90 e6 3d d2 fd 02 be 7f ce 86 bd 00 af 01 be
       0.11257993 -0.12792137 -0.06582355 -0.12664413
000190 23 dc fc bd 9c 81 88 3c ff 66 b6 be 20 20 af bd
       -0.12346675 0.016663365 -0.35625455 -0.08551049
0001a0 4e 55 4d be 5a 25 dc bb 6f 39 73 bd 2c 73 67 3d
       -0.20052072 -0.00671832 -0.059380945 0.05650632
0001b0 61 b1 d4 ad 9d 74 d3 bd a9 b4 4b bd 11 6b ce bd
       -2.4180382e-11 -0.103249766 -0.049732838 -0.10079015
0001c0 10 01 7c bd 86 83 f5 bc 78 00 13 bc eb 2f 7e bd
       -0.06152445 -0.029969942 -0.00897228 -0.062057417
0001d0 37 07 1c bd 26 8b 29 3d f7 7d 92 bb 2c 3d a0 bd
       -0.038092818 0.041392468 -0.0044705826 -0.078241676
0001e0 47 bb b7 bd ad 54 8e 3d d1 e9 00 3c 75 3f 82 bd
       -0.08971267 0.069497444 0.007868246 -0.0635976
0001f0 a3 02 4d be a9 18 88 bd b5 2f 79 bd a6 50 17 be
       -0.20020537 -0.066453286 -0.060836513 -0.14776859

feature.2.weight f4 [128, 128]
000000 c8 78 37 3e 22 8a 2a bc 3b 0e 55 3e 1c 04 4a bd
       0.17917168 -0.01040891 0.2080621 -0.049320325
000010 1f ac 63 3d f6 ae 4b 3d 36 33 ff 3c 57 6f b2 3a
       0.05558407 0.049727403 0.031152349 0.0013613504
000020 e1 37 ce 3d 02 7c a5 be f5 ac b3 bc e7 e4 80 3e
       0.10069252 -0.32321173 -0.021933058 0.2517464
000030 53 f8 56 be 89 6d 71 3d b5 fc 95 3e a1 c5 7f bd
       -0.20993166 0.05894235 0.29294363 -0.062444333
000040 8d 4c 54 3d 71 b3 f4 3d ad 53 c9 bc 95 f6 3e 3d
       0.051830817 0.11948288 -0.024576033 0.046621878
000050 40 2f 84 3c 6f d9 b0 3e de e1 25 3e 2a b7 10 be
       0.016135812 0.3454089 0.16199443 -0.14132372
000060 2e 50 e3 3c 88 08 9d 3c bd 21 9e 3d b2 af d7 bc
       0.027748194 0.019169107 0.07721279 -0.026328895
000070 83 2b 9e 3c f6 f6 a2 bd fb 25 29 3c 53 1f a9 3d
       0.019307857 -0.0795726 0.010323997 0.08257928
000080 da 14 1b 3c e3 4b 21 3c 42 4e ae 28 f1 6c 49 3d
       0.009465421 0.009844753 1.935182e-14 0.04917616
000090 d9 0e e6 3d 24 eb b7 3d e4 2c 2b 3e b6 f4 41 3e
       0.11233301 0.089803964 0.16716343 0.18941006
0000a0 95 c5 57 3d 7f 6d 32 3e 29 03 72 3d 7d 83 10 3d
       0.052678663 0.17424582 0.059085045 0.035281647
0000b0 c6 f3 4f 3e f3 83 3b 3e 24 c6 1f 3d cd 4a ee 3c
       0.20307836 0.18312053 0.03900732 0.029088402
0000c0 0f 8d fa bc 78 83 db bc cc 7d 44 3e a5 53 c3 bc
       -0.03058484 -0.026796088 0.19188613 -0.023843596
0000d0 a5 61 1f 3e 27 d6 31 3e 4c 51 9b bc 6e c3 c7 bc
       0.15564592 0.17366849 -0.018959664 -0.02438518
0000e0 84 54 6f bd 44 ee ec 3d d0 07 42 bd 4a ba c6 bd
       -0.05843021 0.11568883 -0.04737073 -0.097035006
0000f0 77 70 1a be 80 f7 48 3e 60 63 97 bd 02 d0 fb 3d
       -0.15081964 0.19625664 -0.07392001 0.12295534
000100 38 23 1c 3e 22 19 0a 3e fd 06 6c 3d 88 e6 9c 3e
       0.1524781 0.1348615 0.057623852 0.3064463
000110 11 7b 32 3e c7 9e 34 3e e2 f2 39 3e 48 61 6b 3e
       0.17429759 0.17638694 0.18159059 0.22986329
000120 f0 d4 b3 3d 34 a4 cc 3d b5 c4 48 39 26 98 4c 3e
       0.08780849 0.09992257 0.00019146765 0.19979915
000130 65 bc 54 3e d1 77 50 3d a3 b7 5f 3d 74 10 10 3e
       0.20774992 0.050895516 0.05461849 0.14068776
000140 31 30 d9 3d 82 43 8d 3e dd 2f c6 3d c6 2c d5 bb
       0.10604895 0.27590567 0.09677098 -0.0065055816
000150 57 ea c0 bd 7e 6f ae 3d cf dd af 3d 51 03 b9 3b
       -0.09419697 0.08517359 0.085872285 0.0056461473
000160 6b 8f 60 3d 99 f9 05 80 11 a3 fe bd 9e bf 93 3e
       0.054824274 -5.48716e-40 -0.12433446 0.2885713
000170 f8 18 43 3d 3d f1 03 3e 0b 27 2c 3e cd 36 ce bc
       0.047631234 0.12884994 0.16811769 -0.025172615
000180 50 ca f7 3d 23 ae 0d 3e c4 0f 6d 3d 97 23 a1 3c
       0.12099135 0.13835959 0.057876363 0.01967029
000190 7d 0d 75 3e 3c bd 1b 3e df da 2b bd 79 95 93 3d
       0.23930927 0.15208906 -0.04195678 0.07206244
0001a0 72 7d b1 3e 0d 71 74 be e2 33 21 3e 2b 23 b0 3c
       0.3466602 -0.2387125 0.15742448 0.021501144
0001b0 8e c2 04 80 78 ad 8b 3d d1 e3 5d 3e 08 96 64 3e
       -4.37135e-40 0.06820196 0.21668936 0.22322857
0001c0 79 3e c8 3e 67 f1 a2 3e 08 38 b7 3d a7 67 88 3d
       0.39110163 0.318248 0.08946234 0.06660395
0001d0 2f b3 8c 3e e0 f2 65 3d 70 88 90 3d 43 0c 30 3e
       0.27480456 0.056139827 0.070572734 0.17192177
0001e0 42 65 89 3e c9 63 d0 3d 56 1c 83 3e aa a5 95 3d
       0.26835066 0.101752825 0.25607556 0.073069885
0001f0 ef 59 85 3e f6 97 c6 3e 3f aa f5 3c b8 18 1d 3e
       0.26045176 0.38787812 0.029988406 0.1534146
000200 90 78 01 00 1e 43 04 80 74 31 04 80 28 a6 04 00
       1.35085e-40 -3.91419e-40 -3.85082e-40 4.26948e-40
000210 96 f3 06 00 8e b9 07 80 dd 87 07 80 e6 62 05 00
       6.38395e-40 -7.09413e-40 -6.91587e-40 4.94656e-40
000220 6d db 01 00 83 00 03 80 bc 78 05 80 fa 71 07 00
       1.7055e-40 -2.7569e-40 -5.02489e-40 6.83736e-40
000230 9e 10 74 91 a1 5e 06 80 7f 52 00 80 d7 e9 03 80
       -1.9253327e-28 -5.8496e-40 -2.9594e-41 -3.59392e-40
000240 b1 b5 02 80 8c 31 01 00 a7 5f 01 00 6f 55 00 80
       -2.4885e-40 1.0961e-40 1.26149e-40 -3.0648e-41
000250 14 23 01 00 04 e3 05 80 d9 41 02 80 57 60 00 00
       1.04419e-40 -5.40615e-40 -2.07293e-40 3.456e-41
000260 9d 47 08 00 1d 28 02 00 9a d4 05 00 57 54 01 80
       7.60374e-40 1.98061e-40 5.35445e-40 -1.22091e-40
000270 c0 45 06 80 76 b7 04 00 3b e7 79 06 af bf 06 00
       -5.76035e-40 4.33155e-40 4.7001576e-35 6.19776e-40
000280 e2 ce 02 80 72 f5 03 00 39 0e 04 80 38 b8 07 00
       -2.57887e-40 3.63556e-40 -3.72444e-40 7.08934e-40
000290 9f 7d 05 80 22 0e 03 80 70 7c 08 80 5a f2 02 00
       -5.04242e-40 -2.80576e-40 -7.79324e-40 2.7061e-40
0002a0 cf c6 07 80 bd 42 01 00 f7 9f 01 00 41 d0 02 80
       -7.14168e-40 1.15777e-40 1.4922e-40 -2.58378e-40
0002b0 44 8e 07 00 17 67 09 00 5f 6d 02 80 1c 7a 03 80
       6.93884e-40 8.63501e-40 -2.22906e-40 -3.19311e-40
0002c0 27 0e 03 80 f5 e5 06 00 26 e2 03 80 02 d9 05 00
       -2.80583e-40 6.33506e-40 -3.56633e-40 5.37025e-40
0002d0 a6 9a 03 80 5d 1d 04 80 00 f3 01 80 68 f0 07 80
       -3.30984e-40 -3.77876e-40 -1.79007e-40 -7.2909e-40
0002e0 35 cf 03 00 04 d0 05 80 2a da 06 00 08 0a 07 00
       3.49838e-40 -5.338e-40 6.29275e-40 6.46447e-40
0002f0 f8 7c 02 80 52 33 07 00 52 82 00 80 36 31 02 00
       -2.28501e-40 6.61259e-40 -4.675e-41 2.01325e-40
000300 28 c0 01 00 eb 41 0a 00 52 56 00 00 15 bd 00 80
       1.60768e-40 9.42002e-40 3.0966e-41 -6.783e-41
000310 c5 71 08 80 4b 81 05 80 d2 45 14 00 e1 d3 05 80
       -7.75497e-40 -5.05559e-40 1.861757e-39 -5.35185e-40
000320 96 69 04 00 33 cc 05 00 84 63 14 80 46 11 08 80
       4.05219e-40 5.3243e-40 -1.87241e-39 -7.4088e-40
000330 df 96 05 00 26 d2 31 80 f3 34 08 00 1e 9d 03 80
       5.133e-40 -4.575326e-39 7.53679e-40 -3.3187e-40
000340 1a 77 02 00 32 86 07 80 44 45 07 00 77 be 04 80
       2.26397e-40 -6.90989e-40 6.67696e-40 -4.35668e-40
000350 d9 fb 04 00 88 6e 04 00 5f 2d 06 00 24 f4 00 80
       4.57688e-40 4.06993e-40 5.67289e-40 -8.7581e-41
000360 a4 ca 03 80 f9 fb 19 00 23 f2 01 00 b6 81 07 00
       -3.482e-40 2.386278e-39 1.78698e-40 6.8938e-40
000370 bf c7 03 00 ea 9a 02 00 ff 15 06 80 e5 26 08 00
       3.47162e-40 2.39244e-40 -5.58904e-40 7.48637e-40
000380 c7 dd 07 00 c4 e8 03 00 e6 6b 08 80 b9 db 03 00
       7.22407e-40 3.59007e-40 -7.7339e-40 3.54328e-40
000390 f3 77 04 80 61 8c 01 00 61 e8 06 00 8d 8f 01 80
       -4.10372e-40 1.42194e-40 6.34375e-40 -1.43332e-40
0003a0 bb b0 00 00 b5 c7 03 00 44 39 06 80 fb 3c 07 80
       6.3399e-41 3.47148e-40 -5.71556e-40 -6.64724e-40
0003b0 20 8f 0e 80 b2 59 05 00 73 8d 06 00 f3 b6 07 80
       -1.33704e-39 4.91354e-40 6.01755e-40 -7.08478e-40
0003c0 71 22 02 00 c3 3f 02 80 d8 e8 09 00 0f b2 03 80
       1.96026e-40 -2.06544e-40 9.10048e-40 -3.39382e-40
0003d0 09 2d 05 80 c9 55 00 00 93 a7 04 00 11 4f 03 00
       -4.75333e-40 3.0774e-41 4.27456e-40 3.0387e-40
0003e0 e3 86 08 80 d0 2e 04 80 9f d1 07 00 5a a7 05 00
       -7.83072e-40 -3.84135e-40 7.18046e-40 5.19212e-40
0003f0 fc 68 09 00 d8 70 05 00 63 a3 06 80 5e a3 08 00
       8.64181e-40 4.99658e-40 -6.09625e-40 7.93289e-40

feature.2.bias f4 [128]
000000 58 15 0b bf cc 8b ba ae f5 a1 76 be 9c 12 94 bd
       -0.5432944 -8.4831336e-11 -0.24085219 -0.07230112
000010 0b 01 ff 3d 27 9f 87 bd 11 76 97 bd 6e 84 03 3f
       0.12451371 -0.06622153 -0.07395566 0.51373947
000020 88 aa a9 bd 6e e5 7e 3c 75 10 29 bf 14 84 11 bd
       -0.082844794 0.01555763 -0.66040736 -0.03552635
000030 1f 8b 98 be 07 35 90 3c f0 4a 9e bd 10 ff c0 3d
       -0.2979364 0.01760341 -0.07729137 0.09423649
000040 af f4 d8 bd b4 c0 3b 3e 46 4e ca 3e 7f 0a a6 3d
       -0.10593545 0.18335229 0.39512843 0.08107471
000050 5a 9c 51 9c 77 32 3a be ae e1 85 bd 0a 9e db 94
       -6.935438e-22 -0.18183313 -0.065371856 -2.2175684e-26
000060 fb 0d ed ba 60 48 12 bf 29 d9 db ba 02 89 d0 bc
       -0.0018085832 -0.57141685 -0.0016773093 -0.025455955
000070 55 cc 36 be 25 78 21 bd 13 7c 47 bd 13 10 fd bd
       -0.17851384 -0.03942122 -0.04870231 -0.123565815
000080 82 ec 84 3e 06 f6 88 be b3 3d 08 3e bc 6b 39 bd
       0.2596169 -0.267502 0.13304786 -0.04526876
000090 31 8a a5 bd 54 df 98 be 1f a2 0f bf 47 26 8f b9
       -0.080829985 -0.29857886 -0.5610675 -0.00027303604
0000a0 2f 19 f9 be 15 cd 15 3e b6 39 0a 3f a3 6a d5 3d
       -0.48652026 0.14629014 0.5399431 0.1042073
0000b0 d9 63 45 3e 98 89 77 bd 74 5a 00 aa 1d 83 9e bc
       0.1927637 -0.060433954 -1.1400066e-13 -0.019349629
0000c0 0a b4 9f bd 89 dd 16 be 0e d6 99 be 76 d3 10 be
       -0.077980116 -0.14732946 -0.30046123 -0.14143166
0000d0 3e 2d b4 97 22 27 88 be f8 f1 a2 be d7 12 15 bd
       -1.1643648e-24 -0.26592356 -0.31825233 -0.03639492
0000e0 07 6f 7f 3d 71 d0 8f 3c f1 43 1e 3e 28 5a 05 be
       0.062361743 0.017555447 0.15455605 -0.13022673
0000f0 ca 7c 8a bb 51 05 47 3d 4c 66 2d bf 76 16 d3 3d
       -0.004226302 0.048589054 -0.6773422 0.103070185
000100 a8 01 c4 b1 92 ff ac b4 3d 8b 9f bd cb af 24 bd
       -5.704539e-09 -3.2223448e-07 -0.077902295 -0.04020671
000110 89 7f 92 bd dd ef c5 3d fd 5d 93 3e 0e 6f 09 3e
       -0.07153232 0.09664891 0.28782645 0.1342127
000120 3c 42 09 bf 4a a8 4c b5 7b 6b 64 bc 1c 92 c8 3c
       -0.5361669 -7.6240815e-07 -0.013941641 0.024483733
000130 62 1e 35 be 86 74 b5 3e a0 0f 54 be b2 54 01 3c
       -0.17687371 0.35440463 -0.20709085 0.007893728
000140 a4 d4 ce bd c8 04 ca b3 1f 2d 78 3e c5 43 1b be
       -0.10099152 -9.407228e-08 0.24235962 -0.15162571
000150 af c1 b6 bd 0d 0b 50 be 1e cb c0 be 14 e8 74 3c
       -0.08923661 -0.20316716 -0.37654966 0.01494791
000160 d4 28 e5 be 58 d4 1f be 5f 92 13 3f 5a 71 7f be
       -0.44757712 -0.15608346 0.5764522 -0.24945584
000170 04 cc c7 bd 66 82 bb 3c f0 2a 2d be 6a 1c 20 3f
       -0.0975571 0.022889327 -0.1691091 0.62543356
000180 32 5a 76 3e 93 65 56 3e 16 f2 03 3e 5c 89 b3 3e
       0.24057844 0.20937185 0.12885317 0.35065734
000190 b1 c8 96 be 50 3c a6 3d f4 61 58 bd e1 db a6 3e
       -0.2944999 0.081169724 -0.05282779 0.3258963
0001a0 9c 79 79 bc 0a aa 19 a8 11 93 89 be 8e 43 a2 bd
       -0.015226748 -8.5300775e-15 -0.26870015 -0.07923041
0001b0 60 35 5a bc e6 37 e3 3e 3b ec 0b 3d c9 ec 68 3d
       -0.01331839 0.44378585 0.034160834 0.05686644
0001c0 eb 3f 86 be 89 94 8a ba eb 6f 3e ae b6 d7 33 be
       -0.2622064 -0.0010572831 -4.33004e-11 -0.17562756
0001d0 60 dd 3e bd c8 27 15 b0 cc 93 43 3e 4a 58 4e bc
       -0.04659784 -5.4262417e-10 0.19099349 -0.012594292
0001e0 40 83 00 3f 26 ac c3 3e 7d 11 84 3e df 20 eb be
       0.5020027 0.38217276 0.25794592 -0.45923516
0001f0 41 28 24 bd ad a3 8f bd fc 16 46 bd f8 c0 c3 be
       -0.04007745 -0.070136406 -0.048361763 -0.3823316

advantage.0.weight f4 [64, 128]
000000 63 86 06 00 ef 27 0a 80 19 b4 00 00 dc e3 01 00
       5.99222e-40 -9.3268e-40 6.4607e-41 1.73576e-40
000010 c2 e9 03 00 41 bf 04 00 6f 78 05 00 07 91 cf 10
       3.59363e-40 4.35951e-40 5.02381e-40 8.1870554e-29
000020 b9 f2 01 80 a7 08 03 00 d2 5d 65 81 39 c6 07 00
       -1.78908e-40 2.7861e-40 -4.212797e-38 7.13957e-40
000030 74 24 04 80 30 12 02 80 a1 de 02 80 10 71 02 00
       -3.80419e-40 -1.90195e-40 -2.63535e-40 2.2423e-40
000040 60 7e 02 80 aa ff 04 80 09 ed 06 00 81 bc 03 00
       -2.29006e-40 -4.59057e-40 6.36045e-40 3.43129e-40
000050 13 a0 0f 00 66 63 03 00 c4 e3 0e 00 18 7e 09 80
       1.434956e-39 3.11164e-40 1.367404e-39 -8.71753e-40
000060 1e 3b 01 00 40 8c 04 00 8f aa 11 00 38 25 03 80
       1.13043e-40 4.17654e-40 1.622388e-39 -2.88858e-40
000070 30 2d 01 00 9b e4 16 00 20 83 03 80 06 34 00 80
       1.08046e-40 2.102389e-39 -3.22545e-40 -1.8662e-41
000080 13 9f 04 80 37 a2 03 00 09 ca 02 00 54 d7 07 80
       -4.24407e-40 3.33698e-40 2.56148e-40 -7.20094e-40
000090 b1 cf 00 00 55 75 07 00 95 47 06 00 4b c7 0e 80
       7.4506e-41 6.84939e-40 5.76692e-40 -1.35719e-39
0000a0 58 2a 04 80 cd b2 06 80 16 bf 04 00 97 77 07 80
       -3.82532e-40 -6.15155e-40 4.35891e-40 -6.85749e-40
0000b0 be e4 05 00 d4 56 07 80 34 63 03 00 87 3e 23 80
       5.41235e-40 -6.73997e-40 3.11094e-40 -3.236673e-39
0000c0 f6 0d 06 80 40 07 06 80 3c 61 00 00 86 f6 04 00
       -5.56021e-40 -5.53614e-40 3.4881e-41 4.55778e-40
0000d0 33 6c 11 80 17 a9 02 00 0b 46 05 80 de 57 01 00
       -1.600018e-39 2.44329e-40 -4.84304e-40 1.23356e-40
0000e0 e1 c4 05 00 64 ad 01 00 4a 49 04 80 69 31 07 80
       5.29804e-40 1.54036e-40 -3.93633e-40 -6.60573e-40
0000f0 33 3e 04 80 cc 90 f8 8e 2a 3a 05 00 2b 3a 08 00
       -3.89655e-40 -6.1276154e-30 4.80043e-40 7.55551e-40
000100 ed 37 0d 00 74 f5 19 80 70 3c 04 00 a3 dc 09 00
       1.213924e-39 -2.38394e-39 3.89023e-40 9.05669e-40
000110 72 d2 05 80 af 2e 00 80 55 e2 05 00 b2 96 08 00
       -5.34671e-40 -1.6747e-41 5.4037e-40 7.88743e-40
000120 9c 77 02 00 f8 d8 12 00 17 e5 05 00 4b a9 07 00
       2.26579e-40 1.730873e-39 5.4136e-40 7.0358e-40
000130 47 e3 00 80 e8 72 08 00 36 91 05 00 e5 1b 00 80
       -8.1532e-41 7.75905e-40 5.1127e-40 -1.0007e-41
000140 da 85 07 00 84 18 03 80 12 56 06 00 1a 0f 05 00
       6.90865e-40 -2.84301e-40 5.81889e-40 4.64595e-40
000150 06 af 07 80 7e 4e 07 80 a8 71 03 80 c6 ed 03 80
       -7.05635e-40 -6.71006e-40 -3.16279e-40 -3.60804e-40
000160 17 41 05 80 23 fb 03 80 3d 2f 02 80 49 23 06 80
       -4.82527e-40 -3.65597e-40 -2.00617e-40 -5.63671e-40
000170 51 25 04 80 64 67 04 00 d2 c7 07 00 f3 1b 01 80
       -3.80729e-40 4.04432e-40 7.1453e-40 -1.01862e-40
000180 dd 3b 08 00 30 7d 03 00 c8 37 01 00 a1 e8 05 00
       7.56159e-40 3.20415e-40 1.11846e-40 5.42629e-40
000190 9d 81 02 00 f8 78 08 00 3d 86 00 80 ff 8a 01 00
       2.30167e-40 7.7808e-40 -4.8156e-41 1.41698e-40
0001a0 04 2f 00 00 b9 72 05 80 b1 41 00 80 0a 6c 04 00
       1.6866e-41 -5.00332e-40 -2.3566e-41 4.06099e-40
0001b0 f5 49 04 80 52 87 06 80 db 20 08 80 c2 7c 03 80
       -3.93873e-40 -5.99557e-40 -7.4647e-40 -3.20261e-40
0001c0 1f ed 07 80 23 08 16 80 6d e2 17 00 3c 1e 08 80
       -7.27911e-40 -2.0233e-39 2.193443e-39 -7.4553e-40
0001d0 0d 71 03 00 4b 40 10 80 32 48 01 80 69 05 03 00
       3.16061e-40 -1.492432e-39 -1.17734e-40 2.77447e-40
0001e0 9e 28 01 80 cd 5f 05 80 1d b8 00 80 40 dd 04 00
       -1.06406e-40 -4.93544e-40 -6.6047e-41 4.46712e-40
0001f0 34 d7 20 80 80 b6 03 00 63 b2 03 80 72 02 05 00
       -3.015936e-39 3.40975e-40 -3.395e-40 4.60055e-40
000200 89 a3 ac 3e dc ae 01 80 e3 f5 47 3e 02 1b 11 3e
       0.33718517 -1.54563e-40 0.19527392 0.14170459
000210 98 f1 19 be 4d 37 1d 3e 2d d9 9d 3b ab 77 32 3e
       -0.15033567 0.15353127 0.004817149 0.17428462
000220 b9 a8 7a 3d 0f 17 fa 3d ec 4e be 3e 55 42 fb bd
       0.061196063 0.12211429 0.37169588 -0.12268511
000230 2a 1f 07 3e bf f0 2a 3c f8 58 6b bd 4e 31 ae bd
       0.13195482 0.010433375 -0.057457894 -0.08505498
000240 f0 8b 39 3d 34 56 56 be e1 70 51 be 71 a4 bd 3c
       0.04529947 -0.20931321 -0.20453216 0.0231497
000250 e3 db 0e 9b b3 73 c4 3d 06 76 88 bb 3d da 01 00
       -1.1817014e-22 0.095923804 -0.00416446 1.70125e-40
000260 51 94 9b bd 9d d6 bf 3e eb 5d ba b2 0a aa 43 3e
       -0.075966485 0.37468424 -2.1695959e-08 0.19107834
000270 20 e3 bf 3e 26 a3 92 bc 39 c7 2e 3e a4 1d f4 be
       0.3747797 -0.01790006 0.17068185 -0.47678864
000280 e3 43 16 be 35 23 0a bf 33 e5 1c be a7 c3 21 3e
       -0.14674334 -0.5395997 -0.15321808 0.15797292
000290 e5 c3 4b 3e 84 93 a7 3e e9 97 10 3e cc c3 97 35
       0.19898947 0.32729733 0.14120449 1.1307361e-06
0002a0 ba e4 3a 3e ca e5 ce be 47 6c 22 3e dc 41 f0 3d
       0.18251315 -0.4040969 0.15861617 0.11731312
0002b0 c8 2d 0c be 24 c6 09 3d 77 2c 03 80 f8 ec 66 bb
       -0.13689339 0.033636227 -2.91457e-40 -0.003523646
0002c0 43 66 b5 3d fd fc b6 ba 6c 60 36 3d af d1 1c 3d
       0.088573955 -0.0013960894 0.04452555 0.038285907
0002d0 ad 18 08 80 22 1f bc bd 6a 4a 27 bf ab ee cb bd
       -7.43536e-40 -0.091856256 -0.6534792 -0.09957632
0002e0 53 91 06 3d 9f 6d 13 3c 68 4b 7f 3c 27 28 89 3c
       0.032853436 0.008998304 0.015581943 0.016742779
0002f0 53 1a 0a 2e 5e 5b 8f 3d 65 78 17 3f 02 a9 96 3e
       3.1400948e-11 0.06999849 0.5916808 0.29425818
000300 2a d6 f9 a4 64 ad 8d 0d 04 03 b7 bd aa b6 45 bc
       -1.08349344e-16 8.731538e-31 -0.08936122 -0.012067476
000310 5d 4a 15 3f e6 a4 38 be c6 49 7c 3e 76 dc 55 be
       0.58316594 -0.18031654 0.24637517 -0.2088488
000320 d6 1f 7f 3e 9c b1 d0 a4 bc 2a c5 ba 80 57 bd 3b
       0.24914488 -9.05065e-17 -0.0015042643 0.005778253
000330 50 79 62 be a9 10 83 be a3 05 3c be 0f 4f 35 3d
       -0.2211659 -0.25598648 -0.18361525 0.04426485
000340 7c 1b 1b 3e 45 08 15 94 52 37 d9 bd 42 fe fd 3d
       0.15147203 -7.5242085e-27 -0.10606255 0.124020115
000350 ff 34 a7 3d 2f 36 cf 3e 0b 83 44 3e 84 8e ca 3d
       0.08164405 0.40471026 0.19190614 0.09890464
000360 18 17 a2 be 4b 0f 2f 3d d8 17 ed bd bd da 04 bd
       -0.31658244 0.042739194 -0.115768135 -0.032435168
000370 3b 00 a9 bc 21 9a 1f bf 01 17 c5 3c 49 71 5e bd
       -0.020629993 -0.6234456 0.02405882 -0.054307256
000380 56 3f f0 bd 2a 95 2a be eb 30 16 3d 92 3b 8d be
       -0.1173083 -0.16658464 0.036667746 -0.2758451
000390 35 78 22 3e 84 92 83 3d 4c f0 8c 3d 8e de 12 bd
       0.15866168 0.0642443 0.068817705 -0.035856776
0003a0 32 ca 90 3c 11 2d e9 a6 7f 44 48 be 26 f1 d0 3c
       0.01767454 -1.6179838e-15 -0.19557379 0.025505614
0003b0 a7 05 dd bc b5 5d 34 3c 24 ed d9 bd 70 31 ac 3e
       -0.026980234 0.01100867 -0.10640934 0.33631468
0003c0 3b 6b bc 3d 5b 4b 58 b6 96 77 05 80 28 b1 23 3e
       0.0920014 -3.223037e-06 -5.02077e-40 0.15985548
0003d0 38 e0 f0 3d b8 c2 07 00 ef eb 05 bf 80 b1 48 be
       0.11761516 7.127e-40 -0.5231313 -0.19598961
0003e0 d2 3c 29 be 7a 95 10 3d 4d 44 4f be 05 a3 09 3e
       -0.16527107 0.035298802 -0.20240898 0.13441093
0003f0 78 01 78 38 f0 5c 37 be 53 dd 26 3c 06 eb 13 3e
       5.9129175e-05 -0.17906547 0.010184604 0.14445123

advantage.0.bias f4 [64]
000000 eb 22 7d a7 62 1e 40 be 24 2c 34 b3 dd 8a c5 9e
       -3.5129732e-15 -0.1876159 -4.194966e-08 -2.0915619e-20
000010 68 7d 9f 3e 72 15 1f ba f9 7e 8d bb a8 6c be 3c
       0.31150365 -0.0006068564 -0.004318115 0.02324517
000020 fb 24 9a 3d b4 93 0d bc 0d 16 3e 3d 7a 88 ff bc
       0.07526585 -0.008641172 0.046407748 -0.031193007
000030 07 df cb 3c ef b9 31 bb f4 3f 95 3d 8f 90 0d 3e
       0.024886621 -0.0027118882 0.07287589 0.13824676
000040 77 15 8d 3d 21 58 b0 bb b6 f6 fb bb 61 eb 1d 3e
       0.0688886 -0.0053815995 -0.0076893223 0.15421821
000050 67 29 5e be 10 bc 83 bb 9d a4 73 3e 01 81 1e 3e
       -0.21695481 -0.0040202215 0.23793264 0.15478899
000060 fc f3 f7 bb 00 12 51 b9 2a fe f3 98 09 ba ae be
       -0.007566927 -0.00019938499 -6.3070668e-24 -0.3412631
000070 f0 a6 9e bc 17 56 73 3e f2 49 63 3e 65 c4 49 b9
       -0.019366711 0.2376331 0.22196177 -0.00019242016
000080 e0 ab 8c 3d ea 11 c1 be 40 60 a8 3c 7c f2 26 3d
       0.0686872 -0.3770898 0.020553708 0.040758595
000090 e6 23 95 3c 5b 2d b8 bb 73 9c 73 3d 1f 67 9a ab
       0.018205594 -0.005620641 0.059475373 -1.097098e-12
0000a0 81 c8 4a bd 8f c0 49 bd 53 66 8e 3e 9f 2f 60 bc
       -0.04950762 -0.049255904 0.27812442 -0.013683229
0000b0 a4 7f f0 bc 94 00 c3 3d a5 df 66 3b 58 b3 29 ab
       -0.029357739 0.09521595 0.0035228517 -6.028975e-13
0000c0 d7 0f a1 be 34 aa b4 3e 4e cf 3f be 59 56 1b b9
       -0.31457397 0.35286105 -0.18731424 -0.00014814119
0000d0 4b 87 2b 3e 79 f1 bd 3d ea de 2e b4 a8 59 2c 3d
       0.16750829 0.09274573 -1.6286108e-07 0.04207769
0000e0 5d 16 ac be 81 14 ff bd 39 8e d1 3d e9 0e 07 3e
       -0.33610812 -0.12455083 0.10232205 0.13189282
0000f0 a2 6e 9b 3d fb 00 30 b8 c3 78 dc 3d a3 49 20 3e
       0.07589461 -4.1962583e-05 0.10765221 0.1565309

advantage.2.weight f4 [81, 64]
000000 16 ed e9 2c ee 87 c6 3e 1f 56 1b b1 d4 bf 8e 26
       6.64858e-12 0.3877558 -2.2604423e-09 9.905224e-16
000010 27 fa 8e bd 98 86 8b 3a c7 49 99 3a ab 9e c4 3d
       -0.069813065 0.001064497 0.0011694961 0.09600576
000020 fd 50 10 3e 1c 92 f0 3c ee 7b ea 3d 81 fc d5 bb
       0.14093395 0.029366545 0.11449419 -0.006530345
000030 1a da ae bd 90 50 89 bc 7f 2a 1c 3e 81 fa fd 3d
       -0.08537693 -0.016762048 0.15250586 0.124012955
000040 59 52 15 3e 23 c3 45 3b e5 04 d2 3d 9c 49 38 3d
       0.14582194 0.0030176125 0.1025484 0.044992074
000050 54 8c 2d 3e cf 3f 24 3e 33 9e f1 be 57 42 52 be
       0.16948062 0.16039966 -0.4719101 -0.20533119
000060 74 fa 3f 3e ab df e1 b9 52 54 06 80 1e 8a b4 3e
       0.18747884 -0.0004308199 -5.81261e-40 0.35261625
000070 eb 52 ac 3d 97 eb 4d bd 11 45 42 3c a9 7d e4 39
       0.08414253 -0.050273504 0.011857287 0.00043581173
000080 bd 84 4a 3e c3 fa f8 3e 4d fc 62 3d db 25 0f 3e
       0.19777198 0.48628816 0.055416394 0.13979284
000090 88 52 b1 3d e4 a3 12 bc 29 a9 50 3e 11 90 55 3a
       0.0865832 -0.008950207 0.2037703 0.0008146773
0000a0 c8 8f fb 3d 9b ac a2 bd 31 0d 87 be 64 a2 04 3c
       0.122832835 -0.07943078 -0.26377252 0.008095358
0000b0 ef 0c 3b 3d de ab 15 be af cb ba 3d 85 76 28 a9
       0.04566663 -0.14616343 0.09120881 -3.7406293e-14
0000c0 67 ef ce 3e e2 46 a4 bf 6d a0 3b 3e fe f0 9e b9
       0.40417024 -1.2834132 0.18322916 -0.00030315662
0000d0 55 0b 2b be dd 44 1e 3d ca b3 06 36 f9 36 b0 bf
       -0.16703542 0.038639892 2.0072207e-06 -1.3766776
0000e0 94 89 93 3e 3d 8b 3e 3e 3e ee 46 bd 55 db 31 3c
       0.288159 0.18607803 -0.04856705 0.0108555155
0000f0 fb fa ec bd f2 ed 1d 39 5a 72 9c 3c 1c 2c a7 3d
       -0.11571308 0.00015061328 0.019097496 0.0816271
000100 75 84 07 00 6b df 8a 3e 26 de f7 1d 61 69 00 00
       6.90365e-40 0.2712358 6.561005e-21 3.7803e-41
000110 84 57 16 be 52 a2 c2 b1 9b 40 10 b5 e7 ea ed be
       -0.14681822 -5.664597e-09 -5.3738194e-07 -0.4646828
000120 1e 36 8b bd d0 fb 3e ba 16 67 80 bb 1b a8 25 3a
       -0.067974314 -0.0007285448 -0.003918539 0.00063193
000130 42 40 bc bd f0 d9 82 b9 3f e9 fa 3c cb 3d 90 3d
       -0.09191944 -0.00024957908 0.030628799 0.07043036
000140 be 05 43 3e 98 3b 44 b4 b3 b9 78 be f7 7a 0e bd
       0.19045159 -1.8275603e-07 -0.24289589 -0.034785237
000150 7b 68 25 be 67 1a e2 3b 72 f3 dd bd 7e 3f d4 3d
       -0.16153137 0.00690012 -0.10837449 0.10363673
000160 d0 b7 b9 3d 93 ec 80 30 07 65 02 80 46 7c 1b be
       0.090682626 9.380464e-10 -2.19913e-40 -0.15184125
000170 1c b5 23 3e 5a 4b 8c 3c 5c 47 cd 3d ef 2a d7 b3
       0.15987056 0.017125774 0.10023376 -1.0019527e-07
000180 99 86 7c 3d 47 91 95 bd 1b 23 26 be ac 54 54 3d
       0.0616518 -0.073031 -0.16224329 0.051838562
000190 f5 f8 3e 3e 59 c7 83 34 83 fb 4a bd 55 36 02 00
       0.18649657 2.4545696e-07 -0.049556267 2.03162e-40
0001a0 3e 23 96 be 2f 0a 7a 3d dc 51 9a bd 62 ef 23 39
       -0.29323763 0.061044868 -0.07535145 0.00015634068
0001b0 be 8c c3 be d6 ab 7c 3e 97 8b da bc e4 b6 a0 a7
       -0.38193315 0.24674925 -0.02667789 -4.460721e-15
0001c0 39 85 95 bd eb 74 61 bd 63 e0 13 bd fe f2 ee 29
       -0.07300801 -0.055043142 -0.036102664 1.06114756e-13
0001d0 c5 f9 54 3e ea 07 8a 3d 7c 8f 3e a0 38 22 f4 be
       0.20798405 0.06739791 -1.6141101e-19 -0.47682357
0001e0 d3 ad f4 be 7a e1 b8 bd a1 32 34 bd 48 f3 58 bd
       -0.47788867 -0.09027381 -0.043993596 -0.052966386
0001f0 37 bd 0a be 3d d5 30 b1 a2 f8 25 3c de 35 32 bd
       -0.13548742 -2.5732583e-09 0.010130079 -0.043508403
000200 6e 68 a8 98 c6 4a bd be 6e 07 c9 2b 3b a0 6c 9a
       -4.353243e-24 -0.3697111 1.4283971e-12 -4.893309e-23
000210 66 3a f8 bd 15 48 28 ba cd aa 08 bb 8c 92 cd be
       -0.121205136 -0.00064194325 -0.0020853758 -0.4015087
000220 ad ed 5d 3e da 8b 81 bc da dc 85 bf 16 84 9f 3b
       0.21672697 -0.015813757 -1.0458024 0.004868041
000230 3a a0 d2 be 89 02 67 3b 59 66 00 3e 3a d5 08 3d
       -0.41137868 0.0035249314 0.12539043 0.033406474
000240 bd 4a 81 bd c4 55 ab 3b 23 48 5c bf b0 25 89 3d
       -0.06313083 0.00522873 -0.8604757 0.066966414
000250 b3 30 52 bd 2f ef 5a 3d 41 e3 1f bf 85 45 bb 3c
       -0.051315974 0.05345076 -0.62456137 0.022860298
000260 14 59 92 3e eb fd 90 b7 89 1a 01 80 e4 e7 24 3e
       0.28583586 -1.7284377e-05 -1.01355e-40 0.16104084
000270 f4 df c6 3d 4a 9b cc 3d 51 c1 a2 3e 1f 54 3e 37
       0.097106844 0.099905565 0.31788114 1.13444685e-05
000280 c2 78 b4 bd 79 df bd 3d 5c fa fa bd d7 fc 1b 3f
       -0.08812095 0.0927114 -0.122547835 0.6093268
000290 fe a1 dc 3e ac fb 8e 3b b3 8b bf 3e bb c2 84 28
       0.4309234 0.0043634977 0.3741127 1.4739395e-14
0002a0 c5 9d f6 3d 5e a4 48 3d b3 29 bd bd f1 3c 2b b9
       0.12041811 0.048984878 -0.09236469 -0.00016330533
0002b0 3a b9 8b bc 09 23 b3 3e a1 b1 7c 3d 01 b0 3d 2a
       -0.017056096 0.34987667 0.061692838 1.6847636e-13
0002c0 c3 6b ff 3d 1e 5d 9c 3e dc 37 14 3e f3 df 80 35
       0.12471726 0.30539793 0.14474434 9.601921e-07
0002d0 43 f7 74 3c 2b 50 06 3e 03 f4 1b 2a a0 1f c8 bf
       0.01495153 0.13116519 1.3851424e-13 -1.5634651
0002e0 34 77 1e 3e ae 58 79 3e f4 96 26 3e 2b 62 5b 3c
       0.1547516 0.24350235 0.16268522 0.013390104
0002f0 9e af 54 3d a5 f3 37 b9 c2 05 83 3e 40 34 8c bc
       0.051925294 -0.00017543005 0.2559033 -0.017114758
000300 70 99 07 17 e5 76 cc 3c c9 96 90 b0 61 1f 03 1f
       4.381452e-25 0.024959037 -1.0520235e-09 2.7766285e-20
000310 32 f5 26 3d 3e aa 98 38 04 f2 ad 3a 3e c5 6e 3e
       0.04076118 7.279635e-05 0.0013270979 0.2331743
000320 1d 4d 94 3e 1d 25 58 bc 1d 0c fe bf 24 ab 5b 3c
       0.28965083 -0.013192442 -1.9847447 0.013407502
000330 bd 52 87 bd e6 5c ae 3b 8b 93 53 3e 36 b9 00 3e
       -0.06607578 0.005321133 0.20661752 0.12570652
000340 df 7a ac 3d 1c 8a 51 3a bf 86 d8 be 99 73 68 3e
       0.08421873 0.0007993297 -0.42290303 0.22700347
000350 41 e3 ab bf bd 96 6f be a2 b7 c5 bb 15 ea 14 3d
       -1.3428727 -0.23397346 -0.0060338536 0.03635605
000360 ca 4f 79 3d 22 91 f8 3a fb 24 05 80 48 38 ca 3e
       0.06086711 0.0018964151 -4.72444e-40 0.39496064
000370 1f 7c b3 3c 43 b4 14 3e e1 47 76 3e 5b bb 9d 36
       0.021909771 0.1452189 0.24050857 4.7007757e-06
000380 a2 7f c2 be cd 43 1a 3e 3a e1 40 bd b1 49 07 be
       -0.37988 0.15064926 -0.047089793 -0.13211705
000390 45 23 f4 3d 28 89 d0 ba 69 4c 52 3e f7 2f f9 1c
       0.1192079 -0.0015910016 0.2053696 1.6489836e-21
0003a0 e2 de d4 3e 22 e0 7c bd c7 cc 8a 3c 34 16 58 3b
       0.41576296 -0.061737187 0.016943349 0.0032972218
0003b0 29 75 b3 3d 88 37 e9 ba 3f a2 12 3d dc 48 db aa
       0.08762581 -0.0017793039 0.03579926 -3.895277e-13
0003c0 c9 08 2a bc 6f 85 ae 3d 97 b4 1e 3e 56 a0 a2 37
       -0.010378071 0.08521544 0.15498577 1.9386567e-05
0003d0 4c 6e 59 bd 18 e4 92 3d c2 ff 8e b1 96 7e 3b 3e
       -0.053083703 0.07172412 -4.16182e-09 0.18310007
0003e0 36 4e 85 3e 78 51 83 3e 06 a5 3b 3e ea 44 81 3e
       0.26036233 0.25648093 0.1832467 0.2524789
0003f0 dc 67 9e bd 96 a3 c5 b7 ae 78 fd 3d 1d 18 be 3d
       -0.07734653 -2.3560406e-05 0.123765334 0.09281943

advantage.2.bias f4 [81]
000000 86 0a ee be 31 f7 3e 3e fd a9 ae bd 0e 61 94 bd
       -0.46492404 0.18648984 -0.085285164 -0.07245074
000010 b7 4a e4 bd 94 31 17 be be 42 ed bc e7 99 64 be
       -0.11147063 -0.14765006 -0.02896249 -0.22324334
000020 25 33 35 be 90 a0 86 be 3d 0c 54 3e f6 0c 9f 3e
       -0.17695291 -0.26294374 0.20707794 0.31064576
000030 55 6e 33 3d e6 c8 55 3e 4b 31 92 3c 28 1d 57 3e
       0.043806393 0.20877418 0.01784577 0.21007216
000040 8d e6 91 3e 7e 46 82 bd ca 89 97 3e 22 27 b3 3e
       0.2849621 -0.063611016 0.29597312 0.34990793
000050 8c 1e f0 3e dd 64 8c 3e c6 cc 1d be 8f 3e 33 be
       0.46898305 0.27420703 -0.15410146 -0.17504333
000060 f3 e6 b0 bc b5 05 98 3e 7c c2 28 be 37 97 c4 bd
       -0.0215945 0.29691854 -0.1648044 -0.095991544
000070 85 b0 10 3e 05 7c 34 3e 7f 2b 18 be 1a 3a 49 be
       0.14129837 0.17625435 -0.14860342 -0.1965107
000080 4b 87 6f be 24 1b e9 3d 1d c0 1a 3e 4f f4 e4 bd
       -0.23391454 0.1138213 0.15112348 -0.11179411
000090 16 0b 0c bd d9 8c 63 3e 3c 46 43 3d 20 37 8d be
       -0.03419026 0.22221698 0.047674403 -0.2758112
0000a0 fe 66 b7 bd e0 70 27 be c1 68 84 3d 9a 65 4e 3e
       -0.08955191 -0.16351652 0.06465293 0.20155945
0000b0 e1 36 32 be b5 cb 0c bd 83 e8 4e be 72 62 a1 bd
       -0.17403747 -0.034373958 -0.20205884 -0.07880105
0000c0 61 45 00 bf ad 1c 35 be 31 30 bd 3c fd 52 f7 3d
       -0.50105864 -0.1768672 0.023094269 0.12076376
0000d0 ec fb 62 3e 56 74 b2 be 4e b9 c7 bd 43 28 8f 3e
       0.22166413 -0.34854382 -0.09752141 0.27960405
0000e0 a6 8e e0 bb 81 04 9e 3e 38 e7 5f 3e ce ab 90 3e
       -0.0068529425 0.3086281 0.21865547 0.28256077
0000f0 a8 83 1b 3e db 4c 80 3e f1 9b c0 3e 4c b8 ce 3e
       0.15186942 0.25058636 0.37618974 0.40374982
000100 5e 92 5e 3e 07 21 70 3e 6e a2 66 3e ee ee a8 3d
       0.21735522 0.23450099 0.225229 0.08248697
000110 0d 01 76 3d 9e 44 19 3d b0 c9 28 3e 43 64 2d 3e
       0.060059596 0.037418954 0.16483188 0.16932778
000120 92 e1 83 3d 15 25 b1 3d f1 09 24 bd 0c 96 89 3e
       0.064395085 0.08649651 -0.040048543 0.2687229
000130 49 b0 82 be 14 6e d7 3e a4 2c 9e 3d 57 ce 57 3e
       -0.2552512 0.4207617 0.07723358 0.21074806
000140 49 95 be 3e
       0.3722327

value.0.weight f4 [64, 128]
000000 f7 93 02 80 93 1f 04 80 70 e2 12 80 6f ae 09 80
       -2.36751e-40 -3.78669e-40 -1.73427e-39 -8.89094e-40
000010 f8 be 12 80 3b e5 08 80 3f e4 17 00 d9 13 0d 00
       -1.721546e-39 -8.16916e-40 2.194096e-39 1.200981e-39
000020 c3 b1 03 00 08 6a 0a 80 50 3b 13 80 82 af 13 80
       3.39275e-40 -9.56392e-40 -1.766152e-39 -1.807835e-39
000030 cd 3d 10 80 94 a8 01 00 49 33 0e 80 2d ed 11 80
       -1.491538e-39 1.5231e-40 -1.304095e-39 -1.646286e-39
000040 3d 56 14 80 72 1e 19 80 5b db 06 00 fc 55 03 80
       -1.867646e-39 -2.306809e-39 6.29703e-40 -3.06352e-40
000050 b3 be 11 80 14 cf 12 00 29 33 12 80 99 ab 0e 00
       -1.629613e-39 1.727325e-39 -1.671392e-39 1.347255e-39
000060 70 53 0d 00 ad ae 11 80 29 a5 10 80 b3 48 1e 00
       1.223793e-39 -1.623865e-39 -1.528616e-39 2.781144e-39
000070 aa 8d 00 80 7f c7 0f 80 32 0d 0f 80 71 57 00 00
       -5.082e-41 -1.449098e-39 -1.382266e-39 3.1368e-41
000080 52 a5 01 00 b4 93 19 00 c1 5d 01 80 48 4c 19 80
       1.51141e-40 2.348873e-39 -1.25468e-40 -2.323252e-39
000090 85 51 1e 00 8d 70 11 80 89 d6 15 80 1c 60 08 80
       2.784309e-39 -1.601579e-39 -2.005506e-39 -7.69162e-40
0000a0 c9 e7 18 00 05 d2 00 80 7c 98 06 80 4b 36 0e 00
       2.287201e-39 -7.5341e-41 -6.05714e-40 1.305174e-39
0000b0 fb 60 11 80 92 77 22 00 9b da 0a 00 04 32 03 00
       -1.595993e-39 3.1653e-39 9.96776e-40 2.93449e-40
0000c0 f1 0d 0f 00 bc 81 0a 00 83 20 0d 80 fe a7 0a 00
       1.382534e-39 9.64895e-40 -1.205524e-39 9.78619e-40
0000d0 6a 66 04 80 73 e3 01 00 55 d6 04 80 ac 21 0b 80
       -4.04081e-40 1.73429e-40 -4.4423e-40 -1.02227e-39
0000e0 49 ce 16 80 5b 04 14 00 80 46 10 80 78 f2 10 00
       -2.094382e-39 1.838272e-39 -1.494659e-39 1.55635e-39
0000f0 41 7f 18 00 d1 14 11 80 f3 49 00 00 2d 10 0a 00
       2.249702e-39 -1.568671e-39 2.6528e-41 9.24158e-40
000100 b4 dc 10 80 dc 4c 1a 00 93 25 1d 80 21 7f 09 00
       -1.548541e-39 2.415295e-39 -2.676708e-39 8.72125e-40
000110 dd 40 10 00 80 50 0e 80 59 c8 06 80 89 74 13 80
       1.492636e-39 -1.314575e-39 -6.22884e-40 -1.78668e-39
000120 dc 45 14 00 24 9a 10 00 09 4c 19 00 f5 43 16 00
       1.861771e-39 1.524663e-39 2.323164e-39 2.04476e-39
000130 e7 bf 14 00 c7 9a 04 80 c1 94 0b 00 ee c6 05 80
       1.905552e-39 -4.22866e-40 1.063553e-39 -5.3054e-40
000140 c6 2e 1b 00 0d 34 0a 00 de f4 14 00 6c b0 05 80
       2.496338e-39 9.37027e-40 1.924552e-39 -5.22466e-40
000150 c4 4a 0b 00 39 b1 14 80 34 a5 1c 00 5f b0 0c 00
       1.037011e-39 -1.900285e-39 2.630658e-39 1.165296e-39
000160 a7 11 1c 00 81 8e 1c 80 d6 9b 0c 80 2d 44 06 80
       2.577726e-39 -2.622515e-39 -1.15793e-39 -5.7547e-40
000170 68 a7 14 00 01 76 09 80 e4 21 1b 00 1f 59 0d 80
       1.896764e-39 -8.68851e-40 2.491716e-39 -1.225832e-39
000180 8c f8 10 80 06 d9 01 00 30 3d 16 00 57 7c 17 00
       -1.55853e-39 1.69689e-40 2.042331e-39 2.156821e-39
000190 e7 e5 07 00 22 03 0d 00 48 e2 13 00 ac 09 02 00
       7.25322e-40 1.194985e-39 1.826049e-39 1.8714e-40
0001a0 04 00 02 00 bb 00 16 80 93 da 21 00 89 af 19 00
       1.83677e-40 -2.020643e-39 3.108981e-39 2.358858e-39
0001b0 1f c0 0f 80 18 fb 12 80 b2 55 1c 80 9e ca 1c 00
       -1.446453e-39 -1.743114e-39 -2.602136e-39 2.644079e-39
0001c0 2a f6 02 00 4b 9a 06 00 57 be 04 80 a8 1f 10 80
       2.71978e-40 6.06363e-40 -4.35623e-40 -1.480724e-39
0001d0 83 99 0b 00 8f 68 0f 00 90 21 0c 80 36 49 08 80
       1.06526e-39 1.415041e-39 -1.114066e-39 -7.60947e-40
0001e0 86 57 16 80 f7 84 21 80 3d 86 18 00 a3 ff 0c 80
       -2.051778e-39 -3.07827e-39 2.252208e-39 -1.193731e-39
0001f0 30 31 18 80 52 89 10 00 08 c7 00 80 c2 af 1a 00
       -2.221697e-39 1.518629e-39 -7.1399e-41 2.450773e-39
000200 4c 5c 24 80 30 dc 10 00 4a 2d 02 80 65 75 15 80
       -3.339188e-39 1.548356e-39 -1.99918e-40 -1.970659e-39
000210 a1 ee 03 00 22 61 14 00 fb 13 06 00 f7 c1 03 80
       3.6111e-40 1.871555e-39 5.5818e-40 -3.45088e-40
000220 83 95 19 00 bb c8 09 80 c9 cb 1d 80 cb 43 21 80
       2.349522e-39 -8.98528e-40 -2.736334e-39 -3.054891e-39
000230 fb d3 06 00 92 dc 0e 80 ae 8a 01 80 9e 5f 10 80
       6.27057e-40 -1.364823e-39 -1.41584e-40 -1.503669e-39
000240 85 4a 1c 80 75 91 12 80 7a de 19 80 85 78 1d 00
       -2.598126e-39 -1.705219e-39 -2.375697e-39 2.706464e-39
000250 d3 35 09 80 68 c7 21 00 20 bb 13 80 43 86 1c 80
       -8.45828e-40 3.102105e-39 -1.812002e-39 -2.619558e-39
000260 33 ef 06 80 ea 32 0c 00 0f 1d 0f 80 89 69 06 80
       -6.36821e-40 1.12029e-39 -1.387957e-39 -5.88872e-40
000270 d9 ab 11 80 35 46 17 80 e7 10 0a 80 3e 30 0e 80
       -1.622851e-39 -2.137402e-39 -9.24418e-40 -1.303003e-39
000280 95 ba 0a 00 9a e6 10 80 00 c4 1c 00 81 ce 12 00
       9.85288e-40 -1.552092e-39 2.641705e-39 1.727119e-39
000290 67 7d 15 00 99 29 16 00 61 85 22 00 40 39 0f 80
       1.973531e-39 2.035303e-39 3.170254e-39 -1.39807e-39
0002a0 8e fb 0e 00 6f ed 1f 00 99 3f 00 00 62 99 0b 80
       1.375938e-39 2.932076e-39 2.2815e-41 -1.065214e-39
0002b0 1b d5 12 80 59 05 18 00 09 59 0a 80 24 d6 02 00
       -1.729487e-39 2.20597e-39 -9.50295e-40 2.6049e-40
0002c0 86 7d 18 80 ce ca 17 00 fc 2b 16 00 8e 2f 13 80
       -2.249081e-39 2.184969e-39 2.03616e-39 -1.761934e-39
0002d0 fd 2c 12 80 73 01 04 80 0b e5 21 80 8f ae 01 00
       -1.669178e-39 -3.67862e-40 -3.112737e-39 1.54455e-40
0002e0 e6 1e 1c 00 22 ba 06 00 09 d3 10 80 4f 32 1c 80
       2.582478e-39 6.17785e-40 -1.545073e-39 -2.589441e-39
0002f0 5b 06 0b 00 32 c1 0b 80 f0 f5 0e 00 95 fd 11 00
       1.01247e-39 -1.079496e-39 1.373923e-39 1.652172e-39
000300 22 aa 03 80 e3 85 04 00 b9 ca 04 00 bd 97 09 80
       -3.36539e-40 4.15371e-40 4.40065e-40 -8.80953e-40
000310 6f 57 02 00 4c 35 07 80 05 fb 01 00 95 5f 04 80
       2.15036e-40 -6.61968e-40 1.81884e-40 -4.0163e-40
000320 e9 44 1c 00 f1 0b 0e 00 0c 4b 0c 80 3d 96 0a 00
       2.596114e-39 1.289981e-39 -1.128948e-39 9.7225e-40
000330 a4 5c 03 00 64 94 10 00 65 75 07 80 f4 54 15 00
       3.0874e-40 1.5226e-39 -6.84962e-40 1.959021e-39
000340 35 32 07 00 fa 16 12 80 fe a8 17 80 6a d4 0f 00
       6.6086e-40 -1.661281e-39 -2.17284e-39 1.453732e-39
000350 45 55 10 80 fd 32 13 00 74 5e 00 00 cb 54 05 80
       -1.499957e-39 1.763166e-39 3.3883e-41 -4.89595e-40
000360 9d de 19 00 61 bd 0e 00 32 5c 0c 80 6b 18 15 00
       2.375746e-39 1.353633e-39 -1.1351e-39 1.937305e-39
000370 35 1c 03 80 64 ac 06 00 5f 8b 0b 80 c2 fe 15 80
       -2.85625e-40 6.12855e-40 -1.060187e-39 -2.019935e-39
000380 e9 ba 10 80 4f bf 12 80 ed a7 0b 80 5c d7 12 00
       -1.536419e-39 -1.721668e-39 -1.070431e-39 1.730295e-39
000390 52 b1 0f 00 0a cd 13 80 04 0f 1f 00 c9 4d 18 80
       1.441143e-39 -1.818429e-39 2.852287e-39 -2.231956e-39
0003a0 04 c2 02 80 e3 09 14 80 b9 de 12 80 42 de 00 80
       -2.5327e-40 -1.840257e-39 -1.732937e-39 -7.9731e-41
0003b0 2b 8b 1b 00 e1 98 0c 80 f1 af 0b 00 d6 89 1c 00
       2.529482e-39 -1.156869e-39 1.073306e-39 2.62084e-39
0003c0 1b 6f 01 80 bc b0 11 00 59 95 18 80 86 df 1a 80
       -1.31693e-40 1.624604e-39 -2.257628e-39 -2.467908e-39
0003d0 07 6d 0e 80 96 e7 03 80 a6 f8 10 00 cd c4 0b 00
       -1.324809e-39 -3.58584e-40 1.558566e-39 1.080789e-39
0003e0 8b ab 14 00 a6 71 08 00 f7 c5 0a 00 48 6d 0c 80
       1.898248e-39 7.75453e-40 9.89371e-40 -1.141229e-39
0003f0 ae 26 08 80 71 2f 07 00 63 98 15 00 c2 97 0d 80
       -7.4856e-40 6.59867e-40 1.983211e-39 -1.248302e-39

value.0.bias f4 [64]
000000 54 d1 0b 80 83 e2 1a 80 a6 d3 16 00 80 dd 1c 00
       -1.085283e-39 -2.46898e-39 2.096306e-39 2.650853e-39
000010 31 3a 1e 00 45 50 08 80 a7 cc 0b 80 1d d3 10 00
       2.77594e-39 -7.63479e-40 -1.083606e-39 1.545101e-39
000020 2d c5 15 00 48 1d 20 80 58 8d 18 00 33 86 0a 80
       1.999279e-39 -2.94924e-39 2.254756e-39 -9.66497e-40
000030 40 bf 10 80 94 5d 13 80 c6 8a 1c 00 b4 fb 1e 80
       -1.537976e-39 -1.778444e-39 2.621176e-39 -2.845359e-39
000040 63 04 03 80 d6 e9 0b 00 e8 e7 18 80 99 a8 0c 80
       -2.7708e-40 1.094075e-39 -2.287244e-39 -1.162507e-39
000050 68 e1 13 80 b1 69 11 80 7c 04 0d 80 e5 9a 14 80
       -1.825735e-39 -1.599118e-39 -1.19547e-39 -1.892276e-39
000060 50 a5 0e 00 2f 78 00 80 7f a1 1b 00 48 f0 13 00
       1.345e-39 -4.3114e-41 2.537492e-39 1.831071e-39
000070 3f 73 12 80 f0 cd 15 80 83 fe 15 00 83 38 09 00
       -1.694381e-39 -2.002422e-39 2.019847e-39 8.46792e-40
000080 b9 43 13 80 91 4e 15 80 7c 40 13 00 c9 99 20 00
       -1.769169e-39 -1.95673e-39 1.768007e-39 2.993904e-39
000090 ec 4b 15 00 4b b3 06 80 3c fe 08 80 03 2c 08 00
       1.955781e-39 -6.15331e-40 -8.25886e-40 7.50472e-40
0000a0 3c 1e 12 80 f7 8a 1c 00 4a 4b 12 80 12 f1 1c 80
       -1.663885e-39 2.621245e-39 -1.680048e-39 -2.657874e-39
0000b0 a6 77 12 00 fc 0a 02 00 be c5 08 00 1f 8a 00 00
       1.695961e-39 1.87611e-40 8.0562e-40 4.9549e-41
0000c0 1c 0b 03 00 df 1e 1e 80 96 aa 08 80 5d aa 16 00
       2.79492e-40 -2.76614e-39 -7.95879e-40 2.081496e-39
0000d0 bd 71 1f 80 21 32 02 00 00 db 00 00 46 4f 01 00
       -2.887702e-39 2.01654e-40 7.8562e-41 1.20273e-40
0000e0 f5 ca 08 00 c9 6f 0f 80 66 eb 0d 80 0d 1d 16 80
       8.07491e-40 -1.417633e-39 -1.278306e-39 -2.030802e-39
0000f0 b3 33 11 00 dc 90 0c 80 99 eb 0b 00 e3 f2 0d 80
       1.57975e-39 -1.153992e-39 1.094707e-39 -1.280993e-39
