pre-trained/dqn_dnn2000.pth (torch, 800169 bytes, 44 tensors)

feature.0.weight f4 [128, 81]
000000 6b 3a d4 3d 2b c8 c6 bd 74 92 5d 3c 96 a5 8e bd
       0.10362705 -0.09706148 0.013523687 -0.06965177
000010 0a 78 c0 3c 15 47 11 3d f7 a0 7a 3d 64 8f 13 be
       0.02349474 0.03546818 0.061188664 -0.14410168
000020 58 87 88 3b 4f cd 36 bd 18 86 0c be 21 ab e9 bc
       0.004166525 -0.04462939 -0.13723028 -0.028523983
000030 be 28 34 bc 76 f8 14 3b f2 52 1a 3c e1 6a bd 3c
       -0.010996042 0.0022731102 0.00941919 0.023122253
000040 1d 70 6e 3d cb 48 48 3e 34 9d ba bd 53 db 92 bd
       0.05821239 0.19559018 -0.09112015 -0.07170739
000050 ba 6c bf 3b 6d 61 07 bd a8 e3 e4 bd 37 f7 c5 3d
       0.0058418186 -0.033051897 -0.111762345 0.09666293
000060 2c 80 21 3b 82 c5 4a bd b1 b1 e0 3d b5 58 3e 3e
       0.0024643047 -0.049504764 0.10971392 0.18588527
000070 a4 b6 48 3d 8e 58 06 be 45 59 20 bd f9 59 c9 3d
       0.049002305 -0.13119718 -0.039147634 0.09831614
000080 14 47 16 3e b1 66 2a 3d 7a 4c 98 3e a1 83 9e 3e
       0.14675552 0.04160184 0.29745847 0.309598
000090 94 2e a1 bd 72 38 22 be e3 73 59 bd 2f 5a 30 3d
       -0.07870212 -0.15841845 -0.053089034 0.043054756
0000a0 2e 63 7f 3d 40 76 bb 3d 70 47 5c bd 46 ab 98 bd
       0.062350444 0.09153414 -0.053779066 -0.07454543
0000b0 18 d2 33 be 5f 65 ce bd b8 e2 33 bd 34 e1 2c bd
       -0.17560613 -0.10077929 -0.043917388 -0.042206958
0000c0 88 81 15 3e b4 ff 1a bd 9e 41 98 3d 33 e3 e3 bd
       0.14600194 -0.037841514 0.074343905 -0.11127319
0000d0 47 46 c9 bd 3c 99 bc bd 97 1d f3 bd eb ce cb bd
       -0.098278575 -0.09208915 -0.11870878 -0.09951576
0000e0 23 c4 ef bd 8c 0d 86 bd ae 6a 31 be 0d a6 68 3e
       -0.11707332 -0.065455526 -0.17325851 0.22719593
0000f0 e2 1d c2 3d 46 d7 fd bb 0f 93 59 3e a0 99 df 3d
       0.09478356 -0.00774661 0.21247505 0.109179735
000100 ce 86 14 3a 21 b4 06 3d e8 08 09 3e 8e b1 6d 3d
       0.00056658394 0.032886628 0.13382304 0.058030657
000110 b1 00 87 3d 73 d1 1c 3c 91 37 2e bd d4 30 21 bb
       0.06591929 0.009571421 -0.04253346 -0.0024595754
000120 f6 52 e9 3d d0 cd 1a bd e7 72 51 3d be f5 d4 3d
       0.11392777 -0.037793934 0.05113497 0.10398434
000130 ee 86 02 bd a8 34 6c 3d 6c 3f 79 3d 03 01 64 ba
       -0.03186696 0.057667404 0.0608515 -0.00086976605
000140 c9 26 3e bd dc 2d d2 bb 4c 8e fa 3b 63 8f 18 bc
       -0.046423707 -0.0064141583 0.0076463576 -0.00931153
000150 3f 92 25 bc f6 f8 ba 3d 8f 43 1f 3d 60 83 72 bd
       -0.010105669 0.09129517 0.03888279 -0.05920732
000160 e2 32 34 3d 9e fa 82 3c 11 7f 0d 3e 66 40 d7 bd
       0.043993838 0.015988644 0.13818003 -0.1051033
000170 3d fa 2d 3e 0d 7b b0 3d c0 b7 78 3d d2 d5 23 3e
       0.1698999 0.0861722 0.060722113 0.15999535
000180 ca 31 31 3d c0 a9 ef 3d 83 f2 b1 3d a7 38 b4 3d
       0.043260373 0.11702299 0.086888336 0.08799868
000190 d5 6f 10 3e f6 d8 a3 3d 62 29 42 bd 0c 4e 04 be
       0.1410516 0.080003664 -0.047402747 -0.12920398
0001a0 4c d8 95 3d 50 2d d1 3b a8 5c 35 3d 40 7e 8c bd
       0.07316646 0.0063835755 0.044277817 -0.06860018
0001b0 da dc 9c 3e 58 0c 99 bc c0 90 11 bf 11 a6 ee be
       0.30637246 -0.018682644 -0.56861496 -0.46611074
0001c0 3c 22 d8 be 64 82 48 3e ad d4 d9 3d 44 34 80 3e
       -0.4221362 0.1958099 0.10636268 0.25039876
0001d0 ee 1d 64 3e d7 1d 34 3e 07 6e bf 3d b6 9d dd be
       0.22277042 0.17589508 0.09347158 -0.43284386
0001e0 c9 3e d3 be 84 2f a6 be f4 9a d6 3d fb 3d 82 3d
       -0.4125884 -0.32458127 0.10478774 0.06359478
0001f0 8c 58 da 3d 6b ec a4 3d 44 40 a3 3e 34 18 84 be
       0.1066142 0.08052906 0.31884968 -0.25799716
000200 aa a7 99 be 02 d5 24 bf 0c a2 99 bd 3d a6 48 bd
       -0.3001073 -0.64387524 -0.07501611 -0.048986662
000210 e3 96 f5 bd ec 3b 40 bd 1e 07 0a 3d 4c 34 05 3d
       -0.1199167 -0.046932146 0.033698194 0.032520577
000220 07 67 07 be 20 14 4a bd 06 a2 cd 3d 78 1c 92 3d
       -0.13222896 -0.0493356 0.10040669 0.07134336
000230 88 e0 cc bd a4 41 a3 bd 20 e9 0f 3b fa e6 41 3a
       -0.100037634 -0.07971504 0.0021959022 0.0007396784
000240 cf 75 d9 bd 0d 83 8f bd 32 9a 81 bd 17 01 b2 bc
       -0.10618173 -0.07007418 -0.063282385 -0.021729035
000250 33 3e f2 bd 58 d6 8b bc 8a 71 8e bd 1a 2f 97 3d
       -0.1182827 -0.01706998 -0.069552496 0.07382031
000260 0b 43 de 3b 6c 7e f6 3c 26 84 76 3a 0e 1b 20 3d
       0.0067828945 0.03008958 0.0009403847 0.0390883
000270 36 80 c7 bc 3d 09 24 bd e8 85 6e 3d 74 42 26 bc
       -0.024353128 -0.040047873 0.05823317 -0.01014768
000280 99 4b 1c 3e 24 ae a9 3d 2b 96 eb be 4a 59 cd be
       0.15263213 0.08285168 -0.46013007 -0.40107185
000290 2f d6 53 bd 5f e6 e9 3d 28 2d 23 be 79 fc bc 3d
       -0.051717933 0.11420893 -0.15935194 0.09227843
0002a0 07 14 51 3d 85 ce 63 be a1 4f bc be 26 68 93 be
       0.05104449 -0.2224675 -0.36779502 -0.28790396
0002b0 c4 41 be bc e1 4d 4c 3e 40 42 3d 3e ae e1 c3 bd
       -0.023224719 0.19951583 0.18482304 -0.09564529
0002c0 ba 9f 0a 3e 30 fa bf 3d 7f b7 9f 3c a1 08 1a be
       0.13537493 0.09373891 0.019496677 -0.15042354
0002d0 eb d0 1d be c9 83 b3 3b cb 2e 29 bd 37 e3 b6 3d
       -0.15411727 0.0054783565 -0.04130439 0.089300565
0002e0 88 78 98 bd ec db 7f 3d be 62 7c bc 1d 43 46 be
       -0.074448645 0.062465593 -0.015404401 -0.19361539
0002f0 38 eb ad be 63 12 77 bd dc 0f 2e 3e c7 d6 c1 bb
       -0.3396852 -0.06032027 0.16998237 -0.005915496
000300 04 23 3f bd 79 ba bf bd 7a dd cd bd f3 3b db bc
       -0.046664253 -0.09361739 -0.10052009 -0.026761984
000310 74 b5 a3 3c 2c 21 36 be ff 64 b8 3c a7 b1 5c 3d
       0.019983985 -0.17786092 0.022509096 0.05388036
000320 0a 34 8e 3b 56 63 71 3d 9a ac 53 3c b7 80 4f 3a
       0.0043396996 0.058932625 0.012919569 0.00079156033
000330 9b 70 be be ff c9 8a be 28 25 17 be 97 48 26 be
       -0.37195286 -0.27107236 -0.14760268 -0.16238628
000340 95 5c b4 3d ff d1 6c 3e 5e c7 13 3e 41 6c 1d 3e
       0.08806721 0.23126982 0.14431521 0.15373327
000350 49 08 e5 bd 8b 8d 53 be 0a 36 b3 bc 2c 51 06 3e
       -0.11183221 -0.20659463 -0.021876354 0.13116902
000360 da 63 b1 3d 7a cf aa 3e 9c 0f c2 3e e6 07 44 3e
       0.08661623 0.33361417 0.37902534 0.19143638
000370 7f 7b bc 3d e1 f6 ad 3d eb 55 b5 3c f7 c7 e9 ba
       0.092032425 0.08494354 0.022135695 -0.0017836083
000380 12 d9 b9 bb e5 d7 32 3e 6f 0b c7 3e d5 13 b3 3e
       -0.0056716288 0.1746517 0.3887591 0.34976068
000390 21 ee 7c 3d 5b fd 7d 3d 62 e0 85 3d fb 56 1f 3e
       0.061750535 0.062009197 0.06536938 0.15560524
0003a0 4c 8d 58 3e 9f 2a cd 3d 2e c2 4d be c7 ff 95 3e
       0.2114765 0.10017895 -0.20093605 0.29296705
0003b0 f0 7f f1 3d 46 1d 56 bc 83 aa c2 bd 5c f2 90 bd
       0.1179198 -0.013068503 -0.09505179 -0.070774764
0003c0 30 b5 03 be 92 c1 f3 3c 68 6d 02 be af 3f 7b 3e
       -0.12862086 0.029755387 -0.12737048 0.24536012
0003d0 43 b9 da 3d 0f 50 1f 3e 7e b0 08 bb 83 b8 ff 3c
       0.10679867 0.15557884 -0.002085715 0.031215912
0003e0 34 c0 a1 bc 5a 21 59 3d a2 5f b3 bc f9 26 bb 3d
       -0.01974497 0.053010322 -0.021896187 0.09138293
0003f0 cb 9f 79 bd c0 65 05 3e 01 aa 1a bc 90 6c 2d 3e
       -0.060943406 0.13027096 -0.009439946 0.16935945

feature.0.bias f4 [128]
000000 ce 66 a8 bd 0d a0 0b 3d 76 ca 8c be cc 87 23 be
       -0.082227334 0.034088183 -0.27498215 -0.15969771
000010 61 2f 3b be 27 f7 7a bc 36 73 14 bc 45 f5 b1 3c
       -0.18279792 -0.015317715 -0.009060672 0.021723399
000020 87 f9 10 be d7 eb 3d be a7 bd e8 bd d9 d2 e9 bd
       -0.14157687 -0.18546997 -0.11364298 -0.11417169
000030 de ef b2 3a 3b 0c 2d bd 96 ea 05 3d 1b 28 db bd
       0.0013651808 -0.042247992 0.03269442 -0.10701009
000040 2d 42 b7 3d d3 94 6a bd a0 3b 4a 3c e2 66 1e bc
       0.08948169 -0.057270836 0.012343317 -0.009668084
000050 da 68 93 bc 59 c3 38 be e8 69 41 3d 06 23 80 bb
       -0.017994333 -0.18043269 0.04722014 -0.003910425
000060 b2 da 0a be 8e f3 b6 bd 7a 3e f7 bc a2 15 4a 3d
       -0.13559988 -0.08933173 -0.030181158 0.049337037
000070 49 5f 63 be d8 69 3c 3c 9d 8d d1 3b 4b 84 bf 3c
       -0.22204317 0.0114998445 0.0063950554 0.023378512
000080 97 99 46 bd 2d 53 fc bd fd 21 74 bb 5d b0 18 3b
       -0.04848632 -0.12320552 -0.0037251704 0.002329848
000090 fe 69 bb bc bd ed e4 bd 34 58 7e bd a4 c2 95 be
       -0.02287769 -0.111781575 -0.062095836 -0.29250062
0000a0 c9 6c 6d bd 81 b1 eb bb 58 23 0a 3d d1 f2 89 bd
       -0.057965074 -0.007192791 0.033725113 -0.06735767
0000b0 db 0f f5 bc 96 2c 36 be 3d b3 81 3c 25 0e 82 bb
       -0.029914787 -0.17790446 0.015832538 -0.0039689713
0000c0 0c b5 02 be ff 02 f4 bb 98 64 7f bb 1d 6d ba bd
       -0.12764376 -0.007446646 -0.003896987 -0.09102843
0000d0 7c df 67 bd f0 b5 c7 bc 36 a5 c7 bd 70 f6 aa bd
       -0.056609616 -0.024378747 -0.09748308 -0.083477855
0000e0 73 49 93 bb a2 41 4f bb 5f 0a b0 bd 63 98 1f 3e
       -0.00449484 -0.0031624814 -0.08595728 0.15585475
0000f0 c8 0c a6 3d 46 7c 38 bc 4e 19 17 be ed 38 5d bd
       0.081079066 -0.011260098 -0.14755747 -0.054009367
000100 f7 17 2c bd 6c ee dc bd 0d 16 84 bd 9d 49 29 bc
       -0.042015042 -0.10787663 -0.06449518 -0.010332492
000110 e0 aa b5 3c 1b fa 5d 3d f8 bb 55 bc 42 be 56 3d
       0.022176206 0.054193597 -0.0130453035 0.052427538
000120 94 57 f0 bd ca c9 a9 bd 87 1c 81 bb 8f 21 72 bd
       -0.11735454 -0.08290441 -0.0039401683 -0.059114035
000130 e5 e0 df bd 79 30 8d bd 41 0b 3a be cd 14 01 bc
       -0.10931567 -0.06894011 -0.18168356 -0.007878494
000140 07 b3 88 3d 3c a4 80 3c 3e 82 86 3d 51 5b 0f 3e
       0.06674772 0.015703313 0.065678105 0.13999678
000150 42 28 78 bd b3 10 87 bb 76 ba d7 3d 36 12 81 bd
       -0.060585268 -0.0041218637 0.105336115 -0.063023016
000160 0e fd 37 bd 10 5f 8b ae 66 45 46 3d ab 04 0c be
       -0.044919066 -6.337875e-11 0.048406027 -0.13673656
000170 89 ed 95 3d 4c c4 7d bd e5 7a 29 bd 77 d6 bd bc
       0.07320697 -0.06195478 -0.041376967 -0.023173554
000180 4d f2 2e 3e b7 41 1d be df aa c2 bd 67 ee 99 bc
       0.17084618 -0.153571 -0.09505247 -0.018790437
000190 72 1d 46 be 9e d6 85 3d 2b 44 7c be ad 5c 01 be
       -0.1934717 0.065350756 -0.24635379 -0.12633009
0001a0 72 e4 8c ad 9d 19 a0 bc fd bb 21 be 35 cf 0f 3d
       -1.6017607e-11 -0.019543463 -0.15794368 0.035109717
0001b0 8e 06 ca b2 0e 5a 02 be 8b 11 9a bc 96 16 50 be
       -2.3518876e-08 -0.12729666 -0.018807193 -0.20321116
0001c0 de 06 5b 3d 86 b1 3b be 49 5a c4 bc fa 7b a7 bd
       0.053473346 -0.18329439 -0.023968833 -0.081779435
0001d0 19 45 c0 bd 6f 6d bc bc b8 65 18 bc 87 71 0b be
       -0.09388179 -0.0230014 -0.009301595 -0.13617526
0001e0 2a 59 ae 3c 96 25 e6 3d 37 6a 6c bd 5c 70 34 b2
       0.021282751 0.11237638 -0.057718482 -1.05029265e-08
0001f0 2e 5e ef bd 00 7e 06 bd 0e 43 b5 3d 89 ab fc bc
       -0.11687885 -0.032835007 0.0885068 -0.030843513

feature.2.weight f4 [128, 128]
000000 f0 67 31 3d 7b 4f 93 bd 22 d4 65 3e 4f ab 41 3e
       0.043312013 -0.07192894 0.22444203 0.18913005
000010 81 84 15 3e 4f d6 11 3e 8e a1 ad 3d e7 43 ab bc
       0.14601327 0.14241908 0.0847808 -0.020906402
000020 6d 42 20 3d a3 ce 20 3e 07 44 60 3e 14 a4 e5 bb
       0.03912585 0.15703826 0.2190095 -0.007008085
000030 4d 21 38 bd 23 7f 90 bc 76 1c 2d 3d 50 be 72 3e
       -0.044953633 -0.017638749 0.04226347 0.23705411
000040 40 82 8a 3d 73 1a b1 3d 2d 50 c3 3d 90 77 74 3c
       0.067631245 0.08647623 0.09536777 0.014921084
000050 34 15 1d 3e fb d0 5e 3e 54 3f 83 3b f1 7e ab 3c
       0.1534012 0.21759407 0.004005352 0.020934554
000060 3d 22 0b 3d ff c5 3c 3d df ee 19 3e 66 12 46 3c
       0.0339682 0.04608726 0.15032528 0.0120893475
000070 30 9f 16 3e bb a4 f0 3d 01 84 11 bd 04 cc a5 3d
       0.14709163 0.1175017 -0.03552628 0.080955535
000080 da a6 29 3c 2c 5a 2d 3d 7b e8 0e 80 db 18 84 3d
       0.010354722 0.042322323 -1.369095e-39 0.06450053
000090 f2 6c 60 3d 5b a1 d7 3d e2 cc 3e 3d 1d 8b 79 3e
       0.0547914 0.10528823 0.04658211 0.24369474
0000a0 96 ee 6c 3d 13 9a 42 3d 16 4b 5f bd bd f2 7f 3d
       0.05784472 0.047510218 -0.054514967 0.062487353
0000b0 e0 ba 55 bd ef 20 4f 3e 45 a2 bf 3d 86 b6 a3 3d
       -0.05218017 0.20227407 0.09357122 0.07993798
0000c0 a4 be 64 3d d8 86 ea bd ca 9a f1 3d 27 5a 0b 3e
       0.05584587 -0.11451501 0.11797102 0.13608609
0000d0 af 5f 52 3e bd c6 34 3d 22 e6 ea 3d 83 ec 63 ba
       0.20544313 0.044134844 0.114696756 -0.0008694606
0000e0 ff c0 69 bc 51 46 9d 3d fa 79 0c 3e de a9 f0 bc
       -0.014267205 0.076794274 0.13718405 -0.029377874
0000f0 b6 ab 07 bd 67 40 c2 3d e4 65 ec 3d 05 8f 20 3e
       -0.03312274 0.0948494 0.115428716 0.15679558
000100 6b 4c b1 3d 61 81 cf 3d 62 08 ea 3d bf c2 04 3e
       0.08657154 0.10132099 0.1142738 0.12964915
000110 dd ef b7 3d a8 9f 7b bc e3 92 09 00 b6 93 e9 bb
       0.08981297 -0.015357889 8.79212e-40 -0.007128204
000120 eb 0a 80 3e 34 1b 2d 3e 3b 62 0e 00 b7 c6 8e bc
       0.2500833 0.16904908 1.320935e-39 -0.017428739
000130 4b 73 cb 3c 94 84 0b 3e 45 96 00 3e 13 17 b3 3d
       0.02483525 0.13624793 0.12557323 0.087446354
000140 e2 d0 a4 3c e9 a5 31 3d 60 ed df bc 7c cf 65 bd
       0.020119134 0.043371115 -0.027334869 -0.056106076
000150 82 63 37 3d 6a 53 42 bd 2a 5b 43 3c dc 92 dc 3c
       0.044772632 -0.04744283 0.011923591 0.026925497
000160 71 0b 99 3c 9f da 21 80 5b 4e 5c bd e0 34 38 3e
       0.018682214 -3.108998e-39 -0.053785663 0.1798892
000170 fb 9d 6e bd 95 38 80 3c ac 19 06 3e 38 3b 3c 3c
       -0.05825613 0.01565198 0.1309573 0.011488728
000180 be 69 39 bd 1b 6d 85 3d 63 94 6c 3d 5e 19 37 3d
       -0.04526686 0.06514951 0.0577587 0.044701926
000190 e4 bb f9 3d e9 de e3 3d 71 f5 43 3e c4 c5 c4 bc
       0.121940404 0.11126501 0.19136597 -0.024020083
0001a0 7f 64 0b 00 27 a2 12 3d ef 4a f6 3d 8d 85 1c bb
       1.046242e-39 0.03579917 0.12026011 -0.0023883313
0001b0 8f 56 25 80 17 6b df bb 23 00 0c 3c ca 64 21 3e
       -3.428965e-39 -0.006818186 0.0085449545 0.15761104
0001c0 de 0a 15 bc 76 3e cd 3d 1b 1f 6b 3e 0e 63 e8 bc
       -0.009096829 0.10021679 0.22961085 -0.028367545
0001d0 1e 7e 4a 3e c6 46 03 bd 30 6d 99 3d 78 b9 dc 3d
       0.19774672 -0.032049917 0.07491529 0.10777563
0001e0 ce a5 68 bc 74 a0 09 3d bb d1 91 3d 68 ca 10 00
       -0.014199687 0.033600286 0.07120081 1.541978e-39
0001f0 bd a2 83 3d b7 75 b1 3d 19 1f 37 bd 63 c9 6c bc
       0.06427524 0.086650304 -0.04470739 -0.014452311
000200 b1 f3 1b 26 84 aa 67 20 42 85 05 a4 e6 ff ea 1c
       5.410669e-16 1.962288e-19 -2.895265e-17 1.5550969e-21
000210 93 a7 ac ad 4a fa b1 25 94 e8 7c b6 e7 36 ee b0
       -1.9628554e-11 3.0874208e-16 -3.7686304e-06 -1.7332383e-09
000220 98 b1 77 aa 13 cf fa 9d 70 54 97 9d df 8f 67 a7
       -2.1999622e-13 -6.638856e-21 -4.0056674e-21 -3.2135683e-15
000230 90 f8 16 27 9a 2f bc 25 0c d0 cf b6 e1 31 41 b2
       2.0951428e-15 3.2645057e-16 -6.1933006e-06 -1.124542e-08
000240 17 7f c5 a7 a4 8b 1b ac b8 47 6a ad cf 02 39 1d
       -5.4816275e-15 -2.210434e-12 -1.3317285e-11 2.4485998e-21
000250 f9 e1 61 ab 5b 88 63 9c 2d 3e 79 ad 62 71 e0 b0
       -8.024966e-13 -7.5284235e-22 -1.4167817e-11 -1.633037e-09
000260 2f 75 62 ad e8 d1 9a a8 10 30 ae 9f 6d 2d 26 1d
       -1.2872633e-11 -1.7188467e-14 -7.377138e-20 2.1993402e-21
000270 41 4d 93 b0 82 f3 9e a5 9a d9 98 9c 84 00 52 24
       -1.0717615e-09 -2.7573638e-16 -1.0114765e-21 4.5536928e-17
000280 49 7c 5f 1b 17 32 3b b2 45 b0 07 00 1c c3 21 b1
       1.8486286e-22 -1.0896222e-08 7.06082e-40 -2.353949e-09
000290 73 12 73 9d f1 63 d2 9b be bd ef a3 32 79 2f a0
       -3.217032e-21 -3.4806171e-22 -2.5992791e-17 -1.4863177e-19
0002a0 d8 60 50 26 8f 3c d2 1c 43 88 96 25 90 ac 95 1e
       7.2295744e-16 1.3912288e-21 2.6113187e-16 1.5847359e-20
0002b0 3c 69 19 a3 00 d5 b0 1c 09 d5 95 9f 71 66 07 a7
       -8.316431e-18 1.1701762e-21 -6.345639e-20 -1.8790547e-15
0002c0 e0 3a 35 1b 0b 42 3a 1c 69 d6 bc 1d 5d 41 82 1b
       1.4990993e-22 6.1627596e-22 4.998488e-21 2.1548936e-22
0002d0 40 9d d4 20 15 d0 c0 b4 25 73 5a af d0 7f c7 b0
       3.6018256e-19 -3.5914186e-07 -1.9867892e-10 -1.4515482e-09
0002e0 3e f2 50 25 63 da 29 b5 02 04 c0 1b a5 44 f2 b7
       1.8123199e-16 -6.32752e-07 3.1766326e-22 -2.8880613e-05
0002f0 29 fe 51 b7 ba ed e0 b4 b1 49 c8 9c bb df 7c ae
       -1.2516547e-05 -4.189622e-07 -1.3253939e-21 -5.749688e-11
000300 6b 92 1f 9c db b0 0e 9b ba 8e 31 a4 ef 88 d2 ac
       -5.279793e-22 -1.180311e-22 -3.850165e-17 -5.9837617e-12
000310 1e 9e 2c a9 d0 8b 01 b2 14 90 12 80 f1 b3 0e 1d
       -3.8328817e-14 -7.540578e-09 -1.704724e-39 1.8886571e-21
000320 56 ab 7e b1 ca 83 c6 b1 3e 30 13 80 f4 53 02 b3
       -3.7059258e-09 -5.777541e-09 -1.76218e-39 -3.034434e-08
000330 1c 4e 0b 1f aa 56 64 ae 21 e9 c3 2e 3d d8 aa 1c
       2.9499005e-20 -5.191817e-11 8.9089854e-11 1.1305553e-21
000340 33 96 f0 b0 a1 66 d8 1c 3b 75 56 b4 9a 38 56 b5
       -1.7504987e-09 1.432021e-21 -1.9972951e-07 -7.980358e-07
000350 01 71 da 9c 60 9d 99 9e 1c 0e e3 b0 3d c0 e1 b0
       -1.4455241e-21 -1.6264594e-20 -1.6520434e-09 -1.6425542e-09
000360 bf 52 47 25 7f 37 0a 00 45 83 b2 a9 46 4b a1 99
       1.7288534e-16 9.38263e-40 -7.9275596e-14 -1.6677413e-23
000370 c4 48 f4 ad cc 1a e4 a8 42 6c e9 23 ca 97 ba b2
       -2.7771903e-11 -2.5324706e-14 2.530776e-17 -2.1722276e-08
000380 23 60 de b5 66 bd 9f 1c 39 ad 43 25 72 5f 05 b2
       -1.6568268e-06 1.0570696e-21 1.6972244e-16 -7.763321e-09
000390 b2 62 13 1f b7 3b e1 b2 a6 f3 a5 9c 16 c2 47 9e
       3.12101e-20 -2.6220603e-08 -1.0981766e-21 -1.0575108e-20
0003a0 04 94 16 80 f6 c5 c4 b1 62 7f 02 af dc ec 76 b1
       -2.073479e-39 -5.7268563e-09 -1.1868687e-10 -3.593235e-09
0003b0 8c 57 0f 80 9d cc 9b aa 90 96 b1 a0 81 d5 3a 9c
       -1.408938e-39 -2.767551e-13 -3.00846e-19 -6.1818185e-22
0003c0 db e3 fd ac 15 53 70 a0 b0 d1 a9 33 16 be 2b a0
       -7.2159895e-12 -2.035628e-19 7.907818e-08 -1.4547158e-19
0003d0 54 c3 2e 21 2c 2a 08 af ec b0 a2 b1 1e f2 46 1c
       5.921201e-19 -1.238411e-10 -4.7349342e-09 6.5825634e-22
0003e0 5e ae 9a b4 3a f5 23 b3 35 1e f2 a3 3f 40 0d 00
       -2.8811604e-07 -3.8174427e-08 -2.6250486e-17 1.216909e-39
0003f0 02 6f 2f 9c 7d 55 cf 1c 42 37 50 b0 a0 14 3f ab
       -5.8046117e-22 1.3720209e-21 -7.5748485e-10 -6.7885454e-13

feature.2.bias f4 [128]
000000 b6 7b 5a be 12 1e fe bc e1 22 93 bd 58 88 b3 3d
       -0.21336254 -0.031020198 -0.07184387 0.0876624
000010 14 ac 08 3e ae 3d f4 3a 72 be 1e 3c 98 c8 2e 3e
       0.13346893 0.0018634105 0.00968896 0.17068708
000020 ed 3a 2e 3b 14 0d e3 3d 9f 3d a6 be 18 de 45 bc
       0.0026585415 0.11086479 -0.32468888 -0.012076877
000030 b5 80 e8 bd cb 44 a8 3d a5 ba 89 bd c9 3c ad bc
       -0.11352674 0.08216246 -0.06725053 -0.021147149
000040 44 94 10 bd 8e 1a 02 3e 86 21 9c 3d ae 0d 39 3d
       -0.035297647 0.12705442 0.076235816 0.04517906
000050 c5 a5 73 bb fd b2 d4 bd ba 3f ea a9 df 8f cf b3
       -0.0037177664 -0.10385702 -1.0402742e-13 -9.665359e-08
000060 1f 9b ad 3d 64 06 78 be fe ee 59 ae 34 cb d7 3c
       0.084768526 -0.24221188 -4.9552355e-11 0.026342012
000070 10 51 e0 3d a7 46 c8 b3 a6 f6 63 3c 5a 8c 3d 3c
       0.109529614 -9.326077e-08 0.013913786 0.011569107
000080 6a 0b 33 3e e7 ba 97 bd 28 43 1b 3e 18 46 50 3d
       0.17484823 -0.07408696 0.15162337 0.050848097
000090 8b 5b 83 bd a7 e1 29 be 67 62 8c be 47 78 d9 bd
       -0.06413945 -0.16589986 -0.27418825 -0.10618644
0000a0 05 b7 20 be bb db f5 3d aa bf 36 3e dd b9 03 3e
       -0.15694816 0.12004801 0.17846552 0.1286387
0000b0 46 65 c7 3d bd 96 89 3c 51 33 2e bd 26 f6 df b9
       0.09736113 0.01679551 -0.042529408 -0.0004271727
0000c0 6a 31 ca 3c dc 64 bd bd a3 40 15 be d2 e3 b3 bc
       0.024681766 -0.09247753 -0.14575438 -0.02195922
0000d0 f4 3b e5 ac bb 23 c4 bd ee 87 ca bd cf 12 a0 3d
       -6.5152276e-12 -0.095771275 -0.09889208 0.078160875
0000e0 6f 6f ba 3d 8c ee 94 bd f8 47 e2 3b ef a7 71 be
       0.091032855 -0.07272062 0.006905552 -0.23599218
0000f0 d3 6b 41 bd e0 65 b5 3d 66 ca 87 be 43 0d 1c 3e
       -0.04722197 0.08857322 -0.26521605 0.15239434
000100 7a a6 ad bd 1e 13 da a8 a5 2a f5 bb 4b 5b dc a6
       -0.084790185 -2.4211153e-14 -0.0074818903 -1.5290312e-15
000110 90 b8 a6 3d a2 34 0e 3e d6 90 8a 3e bb a0 06 3d
       0.08140671 0.13887265 0.27063626 0.03286813
000120 fb f8 9a be b4 54 da bb 75 cc eb a9 64 7f e9 3c
       -0.30268082 -0.0066629294 -1.0471564e-13 0.028503127
000130 19 77 21 bd f4 cc 44 3e b1 a4 fb bd ee 72 59 3d
       -0.03942022 0.19218808 -0.12287272 0.05308812
000140 66 1b 8c bd 77 10 c2 a5 cc 1d ca 3d ab af ad bc
       -0.06841163 -3.3664792e-16 0.098689646 -0.02120193
000150 08 9d 9e 3c d9 6e b3 3c 44 aa 1e be ac b4 73 3c
       0.019361988 0.021903442 -0.15494639 0.0148746185
000160 39 92 52 be 75 cd 6a bd 7b 01 b3 3e f2 06 00 be
       -0.20563592 -0.057324845 0.34962067 -0.1250265
000170 c9 a0 f9 bc 34 ba 08 3e c5 70 d1 bd d0 38 90 3e
       -0.030472176 0.13352281 -0.10226587 0.28168344
000180 bb 0e f7 3d 9e 5a 1a 3e 59 69 11 3e 02 9e 88 3e
       0.120633565 0.1507363 0.14200343 0.2668305
000190 00 d0 76 bc 79 8b 60 3d 99 6b 04 3d c0 9d 3d 3e
       -0.0150642395 0.05482051 0.032329176 0.18517208
0001a0 e8 bd 4a 3c e7 4d 47 b7 2d 3b 2b be c6 5c 09 3d
       0.012374379 -1.1879462e-05 -0.16721793 0.03353574
0001b0 78 2e c1 3c dc 16 6b 3e 6a 7a ef 3c 41 59 f9 3d
       0.023581728 0.22957939 0.029233176 0.12175227
0001c0 cc 57 1d be 7a b3 ce ba 0a f1 4c b8 ef d9 9a bd
       -0.15365523 -0.0015770041 -4.8861875e-05 -0.07561099
0001d0 14 28 54 3d 9e fa 19 b7 f9 db 10 3e 17 50 b3 3d
       0.051796034 -9.177862e-06 0.14146413 0.0875551
0001e0 92 dd 36 3e 75 e9 6a 3e 14 38 09 3e bb c8 5b be
       0.1785796 0.2294062 0.13400298 -0.21463291
0001f0 05 cb 9f a9 f7 92 6f bd e8 9e 98 bd ae 98 8a be
       -7.096237e-14 -0.058489766 -0.07452184 -0.2706961

advantage.0.weight f4 [64, 128]
000000 d5 5b 13 80 a7 c8 19 80 09 41 89 13 f4 2e 30 a8
       -1.777818e-39 -2.367868e-39 3.464779e-27 -9.780144e-15
000010 47 53 0e 80 af 21 9d ad f5 08 00 80 2f 6d 10 00
       -1.315571e-39 -1.7863792e-11 -3.213e-42 1.508536e-39
000020 6d 0e 3a ac 82 d0 88 2e ec 16 45 04 c1 e5 2b a9
       -2.6440198e-12 6.2216024e-11 2.3167764e-36 -3.8168907e-14
000030 d3 23 9b 27 97 a2 18 a3 f4 10 29 a8 4d 5e 83 ab
       4.3059983e-15 -8.274366e-18 -9.385061e-15 -9.334284e-13
000040 6d 32 09 1f 72 3a 85 a4 c7 b9 ad ad 18 50 93 0c
       2.905259e-20 -5.7778566e-17 -1.9750325e-11 2.269714e-31
000050 1b 47 0f 00 3e a9 3d ad 02 f3 0a 80 af fa 0d 80
       1.40304e-39 -1.07809855e-11 -1.00553e-39 -1.28379e-39
000060 1c 02 bb 22 7f 24 1b 80 b5 8c 12 80 6f db f2 ae
       5.0688685e-18 -2.492651e-39 -1.703515e-39 -1.1043865e-10
000070 87 80 78 aa f1 1b 13 80 b5 08 1d 2e 1f 16 05 a2
       -2.2071417e-13 -1.754898e-39 3.57054e-11 -1.8036572e-18
000080 c7 65 05 00 3b e6 6a 82 58 0e 28 2a 7a 87 de 1c
       4.95688e-40 -1.7257678e-37 1.4926374e-13 1.4725748e-21
000090 b8 00 06 00 4b ec 9a a5 7d 11 8c 15 33 7f 08 80
       5.51271e-40 -2.687486e-16 5.657314e-26 -7.80314e-40
0000a0 31 de 12 00 59 5b f7 a9 b6 88 07 ad 4d dd 02 80
       1.732746e-39 -1.098485e-13 -7.7042175e-12 -2.63059e-40
0000b0 53 45 85 a6 a4 65 27 25 78 13 17 00 50 05 03 80
       -9.247519e-16 1.4519378e-16 2.1192e-39 -2.77412e-40
0000c0 06 9a 9a a2 47 0d eb a5 5a be 57 aa 41 68 7a 2f
       -4.1904862e-18 -4.0775e-16 -1.9161877e-13 2.2774406e-10
0000d0 33 00 1c 00 82 0b 1f 80 35 cf 9e 29 c8 91 02 a4
       2.571465e-39 -2.851029e-39 7.052554e-14 -2.8312738e-17
0000e0 5a 6a 95 a1 8e 3e 0e 80 db 13 80 a5 3c e9 94 2a
       -1.0124784e-18 -1.308137e-39 -2.2217915e-16 2.645192e-13
0000f0 d7 0e 01 80 df 75 e0 9d 2c 47 08 1d 46 2c 3e 1f
       -9.7159e-41 -5.9414182e-21 1.8036245e-21 4.0270687e-20
000100 4c c8 0b 00 cf 2e 00 00 c3 4f 31 a7 0a 62 1a 00
       1.082043e-39 1.6792e-41 -2.4606923e-15 2.422893e-39
000110 7b 8d ca 10 79 c3 b1 a9 aa c0 03 00 4a 25 1e 9b
       7.9892937e-29 -7.894288e-14 3.44621e-40 -1.3081502e-22
000120 21 25 f7 2b 3c 2a 13 00 b6 45 0b 00 fd d6 09 80
       1.7560711e-12 1.760025e-39 1.035198e-39 -9.03643e-40
000130 79 d4 30 0b 8d 23 a8 ac 28 26 ba ad ae b7 b7 ad
       3.4056214e-32 -4.778794e-12 -2.1162697e-11 -2.0886261e-11
000140 3f 3d 0e 00 62 a1 0d 00 5f d0 4b a3 14 f8 03 00
       1.307668e-39 1.251755e-39 -1.1048776e-17 3.645e-40
000150 ff c5 b1 a9 e7 ce 1a b1 f2 4c 08 a7 03 2c 01 00
       -7.894726e-14 -2.252756e-09 -1.8915504e-15 1.07624e-40
000160 e3 b8 8d a8 fd 21 c4 a5 8c 24 19 00 e7 3b 19 00
       -1.5734326e-14 -3.4023611e-16 2.308998e-39 2.317376e-39
000170 3d 61 09 2e 98 ac 0a 80 f3 03 1a 00 b0 d0 19 00
       3.123656e-11 -9.8027e-40 2.38914e-39 2.37075e-39
000180 ee 26 ec 9b 42 77 b9 aa e1 5b 00 98 e1 00 0b 00
       -3.9068083e-22 -3.2945353e-13 -1.659e-24 1.010506e-39
000190 bc e2 bf 15 e1 cc da ad cc 63 0e 15 fe d0 44 15
       7.750201e-26 -2.4874715e-11 2.8755397e-26 3.974675e-26
0001a0 68 f5 89 a8 15 e3 02 00 ec 3c 05 00 5a 8e 11 80
       -1.5316483e-14 2.65133e-40 4.81032e-40 -1.61227e-39
0001b0 5e 8f 56 ae c7 a2 99 8b 6d 3b 22 ad 10 44 0b 80
       -4.8785302e-11 -5.9178376e-32 -9.221829e-12 -1.034607e-39
0001c0 ba 3e 00 00 9c 84 0c 00 19 64 10 00 f1 92 10 b0
       2.2502e-41 1.149597e-39 1.505276e-39 -5.259571e-10
0001d0 c8 53 c7 aa e6 05 12 80 54 45 b8 01 86 12 d6 a3
       -3.5407636e-13 -1.655155e-39 6.7690406e-38 -2.3209771e-17
0001e0 90 ab 15 00 bc bf 05 80 db ec 02 00 1b b7 08 00
       1.99009e-39 -5.27959e-40 2.68639e-40 8.0037e-40
0001f0 25 ca 06 80 d8 9e a7 ae 29 ce 18 00 19 b2 13 a1
       -6.23529e-40 -7.622497e-11 2.278008e-39 -5.004125e-19
000200 fc ec ea 3d 74 de f7 9b 34 f2 48 3d 53 37 07 3d
       0.114709824 -4.100648e-22 0.049059108 0.033011746
000210 a1 3d 1a be 7b ca 6a bb 8d 65 73 3d 18 27 90 be
       -0.15062572 -0.0035826254 0.05942302 -0.28154826
000220 38 7f 0c 3e 8d 78 38 3e e1 03 96 3d 33 8e 0b be
       0.13720405 0.18014736 0.073249586 -0.13628463
000230 c8 78 9c 3c a9 21 b5 bd 05 44 e6 3c 6c a2 95 bc
       0.019100562 -0.08844311 0.028108606 -0.018265925
000240 95 1a 55 3e 4a e8 53 3c 66 21 ab bd 2a 95 2d 3d
       0.20810921 0.0129338 -0.083559796 0.042378582
000250 6a ba c2 33 1d 0d d4 3d b8 79 3a aa 10 4a 56 2a
       9.0677375e-08 0.10354064 -1.6562348e-13 1.9032714e-13
000260 20 35 a8 bb f4 22 c3 3d 64 45 94 ab 7d 28 e6 3c
       -0.005133286 0.09528151 -1.0535292e-12 0.028095478
000270 79 b9 f1 3d c8 7e 28 38 c8 7d 74 3d da 01 c1 bd
       0.11802954 4.0172396e-05 0.059690267 -0.09424181
000280 77 87 3a be a4 b6 75 be 45 5a aa bd 70 23 34 3d
       -0.18215738 -0.23995453 -0.08317999 0.04397911
000290 90 f0 1d 3e 7a 80 f1 ba 85 24 68 3d 1e 41 19 bc
       0.15423799 -0.001842513 0.056675453 -0.009353904
0002a0 67 73 13 3d 0f 12 16 bd 46 3f fc 3b 8c 33 b7 bd
       0.035998728 -0.036638316 0.0076979725 -0.08945379
0002b0 65 2c b7 3c 32 6f ec bc dc d9 5a 38 3d 47 5e 32
       0.022360036 -0.028861616 5.2178148e-05 1.2938298e-08
0002c0 3c 20 47 3c e4 57 9d 3d 26 58 4a 3d ff 3b 0d 3e
       0.012153681 0.076827794 0.04940047 0.13792418
0002d0 95 9f 82 85 9d 4c 35 3e c1 52 85 bd e0 3f 74 3d
       -1.2283762e-35 0.17705007 -0.06509925 0.05963123
0002e0 59 6b 33 3c ca cb b6 bb ec 0b 88 bd 37 ac 28 bc
       0.010950887 -0.005578493 -0.06642899 -0.0102949655
0002f0 e9 83 95 39 58 07 0c 3e bb e6 37 3e 02 4c 33 3e
       0.00028517775 0.13674676 0.1795911 0.17509463
000300 53 28 a6 3b e1 6a 4f 2c 7b 76 a2 3d 17 be 06 80
       0.005070725 2.94758e-12 0.079327546 -6.19204e-40
000310 16 de 8f 3e 17 02 1d bd 96 6d 12 3e 85 25 6d 3c
       0.28099126 -0.03833207 0.14299616 0.014474277
000320 8b 2d e0 3d f9 f7 5d 2d eb 0d 90 a8 27 33 81 3d
       0.10946187 1.26174566e-11 -1.5993248e-14 0.06308585
000330 1d 46 ca bb e5 08 14 3d 7a bc 77 3c 73 7e 20 3d
       -0.006172909 0.036141295 0.01512062 0.03918309
000340 cb 17 23 bc 2a aa 3a ac c4 6d 6a 3c b8 ac 9c bd
       -0.009954403 -2.652665e-12 0.014308397 -0.07650131
000350 4a a8 73 bc 17 bf 24 3e 02 00 9e bc 9d 93 f3 3d
       -0.014871666 0.1608852 -0.019287113 0.118933894
000360 da 93 05 bc 1a f6 34 3c d7 48 2e 3d ef 88 00 3e
       -0.008152926 0.011045003 0.042549934 0.12552236
000370 ba 22 79 3d 56 c6 87 be 49 2f f1 3d ae 52 8f be
       0.060824133 -0.26518506 0.11776597 -0.27992767
000380 76 08 93 bc e0 c3 6e bc 3b 22 fb bd 03 06 9e be
       -0.01794837 -0.014573067 -0.12262388 -0.30863962
000390 cb 4d 8f 3e b9 af 06 bc 4d b6 68 bd 11 a4 1d be
       0.2798904 -0.0082206065 -0.05681448 -0.15394618
0003a0 a7 fd 60 bc 25 48 74 a0 18 ad d4 bd af 3a b3 bd
       -0.01373235 -2.0691475e-19 -0.103845775 -0.087514274
0003b0 ea 43 0a bc 7c f3 14 be 4a 92 11 3e 68 dc 40 3e
       -0.008439044 -0.14546007 0.14215961 0.18834078
0003c0 27 6b 65 3d 89 7f 7d af 53 13 a8 09 65 e7 01 3e
       0.05601039 -2.3055526e-10 4.04627e-33 0.12685926
0003d0 94 3f d2 3c 2e cc 43 33 50 bd 97 3d a0 d0 a4 3d
       0.025665082 4.5587676e-08 0.07409155 0.080476046
0003e0 89 05 93 bd 9c 72 42 3d 2e a5 86 bd 4e 0c 36 3d
       -0.0717879 0.04747258 -0.06574474 0.04444533
0003f0 1c 13 94 a6 90 e5 e5 3b c5 3b 03 3d 4b c8 05 3e
       -1.0274743e-15 0.0070158914 0.032039423 0.13064687

advantage.0.bias f4 [64]
000000 18 a8 30 b5 da d3 8f bd 18 a2 d8 ba df 39 9c ad
       -6.580972e-07 -0.07022829 -0.00165278 -1.7760847e-11
000010 e5 bc cb 3d 16 6a aa bc 9e d7 af bc 27 f2 2c 3d
       0.09948138 -0.020802539 -0.021465119 0.042223122
000020 58 47 a0 3d 06 03 d3 bd 8c 5e 6e 3d 77 ba 22 b9
       0.07826108 -0.10303311 0.058195636 -0.00015518987
000030 c2 21 4a 3d bc 1c c3 bc c7 aa 7f 3c a4 3f 7f 3d
       0.0493486 -0.023817413 0.015604681 0.06231655
000040 5c d0 58 3e da c4 9e bc 4a 1e d7 3c 15 b1 48 3d
       0.21173233 -0.019380976 0.02625956 0.048997004
000050 ae 14 0b be ac 22 a2 3c af f3 30 3e 7d e2 83 3d
       -0.13582107 0.019791923 0.17280458 0.064396836
000060 2c 13 eb 3d 3d c6 24 bd 48 24 0b aa 00 25 75 be
       0.11478266 -0.040228117 -1.2358268e-13 -0.23939896
000070 f6 73 aa 3d 92 29 e6 3d 91 47 e4 3d 0a 01 9d ba
       0.08322899 0.11238398 0.11146463 -0.0011978459
000080 b1 4a 28 3d 86 f3 ef bc e7 32 be bd 33 78 66 3d
       0.041086856 -0.029290926 -0.092870526 0.056266975
000090 7f 80 89 bd 89 d5 22 bd 81 c0 21 bc 32 d5 20 b8
       -0.06713962 -0.039754424 -0.009872557 -3.8345526e-05
0000a0 d6 58 78 3b 16 a2 b5 a7 55 f3 c8 3d 93 0d c6 bc
       0.0037894747 -5.0413326e-15 0.09812037 -0.024176395
0000b0 32 4f b4 bd d1 13 78 3d 6f 86 29 bd 43 86 52 af
       -0.08804168 0.060565773 -0.04138797 -1.9147088e-10
0000c0 cb f3 02 be 97 21 4b 3e c1 de 12 be 3d 1c f0 bc
       -0.12788312 0.19837032 -0.14342786 -0.02931034
0000d0 d1 82 6e 3d 73 0d dc 3c df fb 49 b8 a9 4e 2d 3e
       0.058230225 0.026861882 -4.8156708e-05 0.16924538
0000e0 b4 a9 e1 bd 22 02 81 bd f9 13 ee 3d b1 7a 1a 3d
       -0.110186964 -0.06299235 0.11624903 0.037714664
0000f0 51 de 2e bd a1 30 36 bc 2f 82 f9 3d f8 62 ba 3d
       -0.042692486 -0.0111199925 0.12183034 0.09100908

advantage.2.weight f4 [81, 64]
000000 49 a2 05 80 3f 47 e4 3c 85 68 81 bc e3 35 fc 36
       -5.17394e-40 0.027866004 -0.01579691 7.5164585e-06
000010 da 3e dc 3c 91 b8 19 bd f3 ca c3 3c d4 46 cd bc
       0.026885439 -0.037529532 0.023900485 -0.025058188
000020 27 49 e7 3d 81 9b e7 bc 9e a5 a5 3d 96 04 5c 3c
       0.112932496 -0.028272392 0.080882296 0.013428828
000030 26 a7 3b 3d d6 a2 64 bc 3e 38 de 3d 81 48 99 3d
       0.045813702 -0.013954839 0.10850571 0.07484532
000040 88 40 7b 3d 7b e3 11 bb 88 41 a8 3d 42 b3 a4 3d
       0.06134084 -0.0022260833 0.08215624 0.08042003
000050 6a 9c d7 3d a7 2d c6 3d f6 54 10 bf 43 7a b5 bd
       0.105278805 0.09676676 -0.5637964 -0.0886121
000060 f3 f3 cc 3d d3 1d 20 bd 7d 1b 26 3b 3c f7 63 3e
       0.10007467 -0.039090943 0.0025345974 0.22262281
000070 51 c6 2e 3e e0 77 14 3d 47 62 91 3d de 20 b5 39
       0.17067839 0.036247134 0.07098823 0.00034547498
000080 23 60 c4 3d 2d ec a5 3d 6d 44 45 3d f9 ac 19 3d
       0.09588649 0.081016876 0.04816096 0.037518475
000090 43 3f d4 3d f2 73 64 bd b9 fb 10 3e c2 c6 1f bb
       0.10363629 -0.055774637 0.14158525 -0.0024379943
0000a0 38 ca bb 3d 22 9e 09 80 61 d5 16 3d 61 6b 32 bd
       0.091694295 -8.83247e-40 0.036824588 -0.043559436
0000b0 7e 61 0c 3e fe 78 9e 3d 2c f2 26 3e 94 8f 05 00
       0.13709065 0.07737921 0.16303319 5.10684e-40
0000c0 ac 95 3e 3e 2b c8 f9 be 5e 78 ab 3d 63 c0 40 3d
       0.18611783 -0.4878553 0.083725676 0.047058474
0000d0 d1 4b 81 bc 1f 5d a7 3d f1 25 5d bb 8f a2 26 bf
       -0.015783222 0.08172058 -0.0033744539 -0.65091795
0000e0 d4 b4 17 3e 20 4c 09 3e b2 31 c8 3d 07 4a a4 3d
       0.14815074 0.13407946 0.09775104 0.08021932
0000f0 86 1a 1a be f1 5e 29 bb 26 be ef 3a 2d 0a a1 3d
       -0.1504918 -0.0025843943 0.0018290922 0.07863269
000100 f3 f8 00 80 b3 ce 11 be 18 b9 00 26 c2 92 07 80
       -8.9306e-41 -0.14239006 4.465977e-16 -6.95495e-40
000110 32 dc f3 3d ae 60 e6 bb 49 35 30 bb ab 1a 10 be
       0.11907233 -0.007030568 -0.002688723 -0.14072673
000120 90 22 b8 bd 0f e4 29 3a 82 90 9e 3d bb 36 dd a8
       -0.08990967 0.0006480822 0.077424064 -2.4559664e-14
000130 f7 cb 54 bd 54 d6 c8 3b f0 57 63 bd 5c 6c b2 3d
       -0.05195233 0.0061290655 -0.055503786 0.08712074
000140 eb 00 02 3c 51 11 53 b7 43 da 8d bd cc ea 41 bd
       0.007934789 -1.2580612e-05 -0.06926396 -0.04734306
000150 f7 0b 38 be 58 74 82 bd c6 f7 15 be 70 c7 ba bd
       -0.17973314 -0.06369847 -0.146453 -0.09120071
000160 d2 f5 16 3e 0f 9e c7 3b 7e 7d 07 80 51 9a a8 bd
       0.1474221 0.00609184 -6.87867e-40 -0.082325585
000170 e7 ff 61 3d eb 98 5e bd d4 12 92 3d 88 4f 32 b7
       0.055175688 -0.054345053 0.071324974 -1.0628144e-05
000180 9d 09 3c be 3e fb 9a bd 5d 53 42 bd db 17 11 bd
       -0.18363042 -0.07567452 -0.047442783 -0.03542314
000190 59 57 a4 bd a7 4f 95 39 76 6b eb bd 13 86 ce ad
       -0.08024473 0.0002847884 -0.11495106 -2.347903e-11
0001a0 b2 ef b6 bd 11 c4 05 00 9d ec 9d bd da eb c9 bc
       -0.08932437 5.29513e-40 -0.07711146 -0.024648596
0001b0 55 07 ce bd 22 0a 63 bd 9f ff 02 be c8 00 0d 00
       -0.10059992 -0.055429585 -0.12792824 1.194142e-39
0001c0 eb 28 90 bd 18 5f 49 3c af 46 81 be 4c 37 46 39
       -0.070390545 0.0122907385 -0.2524924 0.00018903351
0001d0 1b 4c 35 be 66 3a 2b bd 2a 28 43 34 09 b5 b0 bd
       -0.17704813 -0.04180374 1.8175402e-07 -0.0862828
0001e0 92 c2 2d bd 83 bd 01 bd 1d ed 1c 3e 2c d6 03 be
       -0.042421885 -0.031674873 0.15324827 -0.12874669
0001f0 02 12 24 be 86 1c 7f 38 ff 8e b1 3d 92 c6 d5 bc
       -0.16022494 6.0823302e-05 0.086698525 -0.026095662
000200 bb af 00 80 d1 f9 bb be 15 1b 1c 33 7c 47 6f 07
       -6.304e-41 -0.36714032 3.634621e-08 1.8001369e-34
000210 5e 42 68 3c 51 47 3d 3b b5 d6 a2 3c 53 0c d4 be
       0.014175979 0.002888162 0.01987777 -0.41415653
000220 d0 9f 42 3c c8 12 16 3d 6d f3 fc be 28 f4 b8 36
       0.011878923 0.036639005 -0.4940447 5.512051e-06
000230 ba ce 7d bd ac 27 2f 3b 76 ab 4a bd 19 bb 56 3d
       -0.061964728 0.0026726527 -0.049479924 0.052424524
000240 79 fb 07 be 10 72 bd 3b 40 4d 4e be 5b a0 03 3e
       -0.13279523 0.0057814196 -0.20146656 0.1285414
000250 f8 56 fd bd ad 91 78 bd 13 ee 71 be 29 9c 1a be
       -0.123701036 -0.060685802 -0.23625974 -0.15098633
000260 61 e9 c3 3e 0e aa 54 bb c2 05 8f 2f ef 7c 20 3e
       0.3826399 -0.0032449993 2.601564e-10 0.15672658
000270 f5 76 c3 3d fe ac 68 bd ed 1b d8 3e 45 13 d4 3a
       0.09544174 -0.056805603 0.42208806 0.0016180059
000280 f5 77 1c be c3 41 cb 3d d8 92 4d 3d 6f 3e 55 3d
       -0.15280135 0.099246524 0.05018887 0.052061494
000290 68 5d 04 be ad 25 3f 3d 3b 5c 47 3e 3a 48 8c 36
       -0.12926257 0.04666679 0.19468777 4.1807334e-06
0002a0 8f a0 69 3e dc 3f 05 00 b8 f9 c2 3d 25 8a df bc
       0.22815154 4.82086e-40 0.09520286 -0.027287552
0002b0 30 f1 5c 3d fc cd 8b 3d d9 2b c0 3c a7 64 0e 80
       0.05394095 0.06826398 0.023458408 -1.321804e-39
0002c0 5b 39 ed bd f1 bf bc be c5 a0 0a be aa 06 ec ba
       -0.11583205 -0.3686519 -0.13537891 -0.0018007357
0002d0 9b 21 ef bd 8e 59 34 bd 32 f3 e3 33 c9 e6 dc be
       -0.116763316 -0.04403072 1.0614748e-07 -0.43144825
0002e0 e6 dd 87 3d 61 06 44 3e 50 d5 59 3e 41 69 09 bd
       0.06634121 0.19143058 0.21272779 -0.033547644
0002f0 5e fa 8c bd ce 8b 55 3a ff 80 8d 3d 34 86 c1 3d
       -0.06883691 0.00081461377 0.0690937 0.09449425
000300 7f 08 08 80 df 66 d9 bd d9 0a 04 ac 82 13 06 00
       -7.37732e-40 -0.10615324 -1.876435e-12 5.58011e-40
000310 fc bd 1b be 14 3d 77 bb de f2 24 3c 08 fe 33 3c
       -0.15209192 -0.0037725614 0.01006767 0.010985859
000320 fb a4 70 3a 31 39 cc bc 9d e1 1b bf 8f 25 9c 0f
       0.00091798574 -0.024929615 -0.60891134 1.5397255e-29
000330 6f 2e 19 be e0 96 30 3b c9 f8 5a 3c b7 80 28 bd
       -0.1495912 0.0026945397 0.013364979 -0.041138377
000340 d7 51 43 be 34 2f b5 3b f8 3f 1e bf 4e 4b 89 3e
       -0.19074188 0.0055293087 -0.6181636 0.26815265
000350 77 56 2e bf 2c af 46 be 97 e8 17 3e 0e 65 7c bd
       -0.68100685 -0.1940276 0.1483482 -0.06161981
000360 21 d1 90 3e 83 00 e6 3d 8d c2 2a 98 8c 00 1b 3e
       0.28284553 0.11230566 -2.2070208e-24 0.15136927
000370 77 90 0d 3d a8 03 41 be 05 99 bb 3e 1f 8b 80 b9
       0.0345616 -0.18849051 0.36640182 -0.00024517716
000380 53 e3 b7 be c7 fb 64 3d 5c 7e f2 be 33 36 a7 3c
       -0.35915622 0.055904176 -0.4736203 0.020411586
000390 e8 4a 82 be d0 32 b0 bb 81 0f 85 3e ad 88 4b b3
       -0.25447774 -0.005377151 0.2598839 -4.7388927e-08
0003a0 ae bd a9 3e b2 70 1b 00 cd 19 24 3e ee 9d 27 bc
       0.33152527 2.519986e-39 0.16025467 -0.010230524
0003b0 85 83 01 bc d7 98 96 3e 50 fd 28 be dc d5 13 80
       -0.007904892 0.29413483 -0.16502881 -1.821593e-39
0003c0 45 93 29 be 8d f6 89 bc 3c 2b f9 bb 46 9e 16 3b
       -0.16560085 -0.016841197 -0.007604031 0.0022982522
0003d0 2d 4f 48 bd 76 34 03 be 98 10 3a 33 9f 58 09 be
       -0.048903633 -0.12812981 4.332159e-08 -0.13412713
0003e0 9c df c9 3d c2 1b 1e 3e f0 74 1c 3e 7a 77 03 bc
       0.09857103 0.15440276 0.15278983 -0.008024091
0003f0 01 b0 94 bd 0d fb 9e 39 1f 9f bf 3d d6 fa 92 3c
       -0.072601326 0.00030323156 0.09356522 0.017941874

advantage.2.bias f4 [81]
000000 c2 ba b5 3c c0 64 21 3e d5 cf b8 bc e2 4a 70 bd
       0.02218378 0.1576109 -0.02256004 -0.058665164
000010 22 34 36 bd 96 09 09 bd 41 28 88 3d 70 91 18 3d
       -0.04448331 -0.033456407 0.06648303 0.037248075
000020 e8 59 e8 3c cb ca 8c 3d 6b bc 0d 3e c9 74 30 3e
       0.028363183 0.06874617 0.13841407 0.1723205
000030 b8 6f ea 3d 29 4f 18 3e a3 22 e7 3d 98 ab 13 3e
       0.1144709 0.14873947 0.11285903 0.14420927
000040 04 4c fc 3d d1 4a 3e bd bf 44 c0 3d 5b d7 17 3e
       0.12319186 -0.04645807 0.09388112 0.14828245
000050 9d fb ee 3d 2e 7b f3 3d 6a 44 cc 3d b4 3c c2 3d
       0.11669085 0.11888729 0.099739864 0.094842345
000060 d4 d2 69 3d 50 3c 83 3d 7b c1 cd 3d e0 d5 3f bd
       0.057085827 0.06407988 0.10046669 -0.046834826
000070 bb aa 08 3e 38 19 98 3d 40 3c b0 3b 1e c3 b7 3d
       0.13346379 0.07426685 0.005378276 0.089727625
000080 fd 4a ef 3d 98 19 08 be 36 50 bb 3d 4c 28 b0 bc
       0.11684225 -0.13291013 0.091461584 -0.02150359
000090 92 17 b9 bc 25 fa c0 3d b9 28 99 bd 4b 45 8e be
       -0.022594247 0.09422711 -0.0747847 -0.2778724
0000a0 de 69 8f 3d 64 49 46 3b b5 51 e5 3d 36 25 ae 3d
       0.070026144 0.0030256147 0.11197225 0.08503191
0000b0 2a a4 c3 bd 40 9c 16 bd f8 2e e0 3d e2 33 fb bc
       -0.09552796 -0.036770105 0.109464586 -0.030664388
0000c0 91 c9 b6 3c c0 ae d6 3d f2 1e fb 3d fc f6 15 3e
       0.022312911 0.1048255 0.12261762 0.14644998
0000d0 d6 f7 2e 3d cb 66 9b be 5e 7e 71 3d e3 d1 0a 3e
       0.042716824 -0.30351862 0.058958404 0.13556628
0000e0 86 7b a8 3d 3b 06 12 3e 12 14 b7 3d 30 c6 cf 3d
       0.08226685 0.14260189 0.08939375 0.10145223
0000f0 10 4f 2a 3e e0 12 b8 3d 47 f4 09 3d 16 09 17 bd
       0.16631722 0.08987975 0.033680227 -0.0368739
000100 0a 35 eb 3d d7 56 90 3d 4e 8a ae 3b 6d ba 41 3d
       0.11484726 0.070478134 0.005326546 0.04729693
000110 93 e9 47 be ee 9c 28 3e e9 7a b3 3c 39 4f 12 3d
       -0.19522695 0.16466114 0.021909194 0.035720084
000120 79 ab cf 3c 18 60 85 3d 8e 1d 25 3e 67 4f c6 3d
       0.02535032 0.06512469 0.16124555 0.096831135
000130 2f bd 0d 3d 32 36 7d 3e 27 2b 14 3e de 2c 2a 3e
       0.034604248 0.24727705 0.14469586 0.16618678
000140 94 17 2a 3e
       0.16610557

value.0.weight f4 [64, 128]
000000 5f d6 05 80 d4 90 01 80 1d 86 0e 80 8e 0c 00 80
       -5.3608e-40 -1.4379e-40 -1.333808e-39 -4.504e-42
000010 13 2f 0e 80 c8 93 02 00 f9 ad 07 00 c2 6e 01 80
       -1.302584e-39 2.36685e-40 7.05258e-40 -1.31568e-40
000020 d9 9d 0f 80 74 c7 08 80 4d ff 0a 80 4d fa 0c 80
       -1.434158e-39 -8.06234e-40 -1.00994e-39 -1.191817e-39
000030 88 1c 05 80 10 fd 02 00 a4 72 04 00 71 af 16 80
       -4.69413e-40 2.74453e-40 4.08467e-40 -2.083317e-39
000040 10 63 08 00 8f a7 0c 00 c5 23 14 00 2d a1 03 00
       7.70221e-40 1.162135e-39 1.849542e-39 3.33325e-40
000050 5a de 17 00 5f 00 04 80 51 90 14 80 f0 39 15 80
       2.191981e-39 -3.67475e-40 -1.888481e-39 -1.94933e-39
000060 03 9a 01 80 b3 ad 09 80 0d 30 0b 00 05 3e 1a 00
       -1.47084e-40 -8.88831e-40 1.027428e-39 2.409971e-39
000070 1c 74 0c 00 83 dd 01 80 5d 1a 1a 80 7b 72 0c 00
       1.143678e-39 -1.71299e-40 -2.39718e-39 1.143094e-39
000080 bb de 00 00 89 6d 15 80 26 e6 11 80 3c 9a 00 00
       7.99e-41 -1.967839e-39 -1.643765e-39 5.5329e-41
000090 e7 cb 02 80 6f f3 02 00 67 60 09 80 2f 4e 10 00
       -2.56817e-40 2.70999e-40 -8.61102e-40 1.497415e-39
0000a0 74 61 18 80 55 a7 0a 00 f8 0b 15 00 21 ba 09 00
       -2.239012e-39 9.78382e-40 1.932839e-39 8.9329e-40
0000b0 2a 95 13 80 a1 e7 12 00 86 41 0c 00 a4 f5 02 00
       -1.798384e-39 1.736132e-39 1.125531e-39 2.7179e-40
0000c0 a4 83 11 00 40 f3 03 80 94 bd 0d 80 48 22 18 00
       1.608427e-39 -3.62768e-40 -1.261869e-39 2.21635e-39
0000d0 4d fe 0a 80 90 72 0f 80 36 92 08 80 35 ba 08 00
       -1.009581e-39 -1.41863e-39 -7.87135e-40 8.01482e-40
0000e0 65 ba 16 00 2c 6b 17 00 9a dd 0f 80 40 b3 19 00
       2.087247e-39 2.150662e-39 -1.457028e-39 2.36019e-39
0000f0 9d db 0d 00 0a 72 06 00 46 22 1c 80 ee 7b 1c 80
       1.272644e-39 5.91922e-40 -2.583689e-39 -2.615851e-39
000100 7a 01 03 80 a4 77 07 00 77 ab 09 80 20 22 06 00
       -2.76036e-40 6.85767e-40 -8.8803e-40 5.63255e-40
000110 ab 64 08 00 68 36 0b 80 3e d4 08 80 ab 36 19 00
       7.70797e-40 -1.029708e-39 -8.10822e-40 2.315499e-39
000120 21 90 06 80 f1 0e 06 80 d6 b1 00 80 a4 1c 0b 80
       -6.02717e-40 -5.56373e-40 -6.3796e-41 -1.020465e-39
000130 93 1c 11 00 56 1e 15 00 f1 6a 0e 80 a4 e8 04 00
       1.571454e-39 1.939428e-39 -1.32406e-39 4.50798e-40
000140 5e 51 0c 00 f9 2e 0f 80 05 cf 02 80 11 19 05 00
       1.131215e-39 -1.394383e-39 -2.57936e-40 4.6817e-40
000150 d4 ae 18 80 2b 54 05 80 5e b4 11 00 9f 1b 1c 00
       -2.266768e-39 -4.89371e-40 1.625907e-39 2.581302e-39
000160 c3 01 06 80 3e 78 16 00 7b 4a 05 00 0a 86 0e 00
       -5.51645e-40 2.063516e-39 4.85896e-40 1.333781e-39
000170 57 ad 0a 80 00 cc 03 00 b5 83 0d 00 b4 03 0b 00
       -9.80538e-40 3.48688e-40 1.241109e-39 1.011519e-39
000180 c8 d2 05 80 c1 cc 13 80 da e7 0f 80 ef 61 10 80
       -5.34792e-40 -1.818326e-39 -1.460705e-39 -1.5045e-39
000190 40 d6 04 00 06 10 1e 80 f9 51 21 00 01 b5 0e 00
       4.442e-40 -2.760813e-39 3.059978e-39 1.350629e-39
0001a0 b5 65 05 80 f4 dc 06 00 91 c4 11 00 4a 67 00 00
       -4.95663e-40 6.30276e-40 1.631718e-39 3.7053e-41
0001b0 52 ff 0f 80 0c d3 01 80 0c be 07 80 a3 39 0c 00
       -1.469124e-39 -1.67545e-40 -7.11024e-40 1.122702e-39
0001c0 4d e6 02 80 32 6a 1f 00 2c 04 20 00 7e d3 0f 00
       -2.66287e-40 2.884996e-39 2.940232e-39 1.453402e-39
0001d0 4e 19 0e 80 c3 71 14 80 e2 8b 1a 00 4a 3a 0d 00
       -1.294775e-39 -1.87752e-39 2.437903e-39 1.214772e-39
0001e0 c0 e1 17 80 09 48 12 80 da 95 01 80 4e 40 15 80
       -2.1932e-39 -1.67888e-39 -1.45592e-40 -1.951614e-39
0001f0 84 b5 1a 00 41 36 03 80 2c 62 0b 00 34 b9 0e 80
       2.452838e-39 -2.94969e-40 1.045408e-39 -1.352135e-39
000200 4a bc 12 00 8c a7 0e 00 a6 d3 13 00 50 7a 09 00
       1.720584e-39 1.345801e-39 1.8208e-39 8.70397e-40
000210 c5 ea 0c 80 15 d0 08 00 b0 a7 11 80 5f a3 07 00
       -1.186245e-39 8.0933e-40 -1.621358e-39 7.01455e-40
000220 68 95 0e 00 3a da 10 00 e1 b5 0d 80 a7 56 00 00
       1.339294e-39 1.547653e-39 -1.259107e-39 3.1085e-41
000230 1e cd 15 00 49 6a 10 80 db f4 0c 00 30 92 0b 00
       2.002128e-39 -1.507496e-39 1.189864e-39 1.062633e-39
000240 18 6c 00 80 56 6a 0d 80 64 fe 0a 80 af eb 0d 00
       -3.8777e-41 -1.232008e-39 -1.009613e-39 1.278409e-39
000250 1f e9 06 80 7a 87 0d 00 fd 3a 09 00 2a 7b 02 80
       -6.34641e-40 1.242461e-39 8.4768e-40 -2.27854e-40
000260 da ca 0f 00 5e 20 0e 00 99 93 14 80 88 6b 0b 80
       1.450302e-39 1.297308e-39 -1.889658e-39 -1.048765e-39
000270 50 0f 15 00 bb 3a 14 00 47 7e 04 00 44 44 17 00
       1.934039e-39 1.857778e-39 4.12642e-40 2.136706e-39
000280 a8 89 0f 00 7e 6a 0e 80 75 5b 11 80 62 ac 04 00
       1.426914e-39 -1.323899e-39 -1.594012e-39 4.29181e-40
000290 bc a8 0b 80 e0 4d 15 00 80 22 0d 00 32 a2 09 00
       -1.070721e-39 1.956482e-39 1.206238e-39 8.84704e-40
0002a0 6b c0 0b 00 b6 05 1c 00 3c 3f 04 00 9e 61 09 00
       1.079217e-39 2.573443e-39 3.90026e-40 8.61538e-40
0002b0 7a 5f 11 00 b2 f9 0f 80 7a e6 03 00 a7 23 07 80
       1.595454e-39 -1.467106e-39 3.58186e-40 -6.55638e-40
0002c0 5d 25 0d 00 1b c7 09 00 ef a0 0e 80 81 7d 14 80
       1.207265e-39 8.97945e-40 -1.343429e-39 -1.881732e-39
0002d0 5b 6d 0e 80 94 54 00 00 58 84 09 00 10 b5 12 80
       -1.324926e-39 3.0341e-41 8.73995e-40 -1.717992e-39
0002e0 57 a0 07 00 83 97 15 00 ca ea 0d 00 41 09 04 80
       7.00368e-40 1.982898e-39 1.278088e-39 -3.70662e-40
0002f0 1d 54 13 00 e9 b0 20 00 ed 03 06 80 39 6f 18 80
       1.775049e-39 3.002199e-39 -5.52421e-40 -2.243951e-39
000300 1c 6a 0e 00 04 e4 1c 00 c1 bf 1a 80 ae e1 0c 00
       1.323762e-39 2.65319e-39 -2.456511e-39 1.182985e-39
000310 55 e1 11 00 c3 57 01 80 e2 15 1b 80 1f 2c 0f 00
       1.642037e-39 -1.23318e-40 -2.487408e-39 1.39336e-39
000320 50 d2 0e 80 f6 a7 0d 00 e4 52 10 00 18 b3 06 80
       -1.361143e-39 1.254114e-39 1.499103e-39 -6.1526e-40
000330 0d ff 18 80 5c 11 10 00 51 68 13 00 3e 10 1b 80
       -2.295547e-39 1.475595e-39 1.782296e-39 -2.485385e-39
000340 af 8f 01 00 8f 13 0f 00 95 2e 0f 80 d0 4d 06 00
       1.4338e-40 1.384549e-39 -1.394243e-39 5.78927e-40
000350 1f 7d 11 00 c4 65 0b 80 7a 6a 16 80 63 e7 13 00
       1.606088e-39 -1.046697e-39 -2.058578e-39 1.82788e-39
000360 48 15 0c 00 a2 ee 0f 00 bc 77 0d 00 a3 f1 07 00
       1.10966e-39 1.463138e-39 1.236814e-39 7.29531e-40
000370 b9 74 0e 00 d0 ef 08 80 73 e8 0d 00 61 04 15 00
       1.327569e-39 -8.20712e-40 1.277249e-39 1.930116e-39
000380 5a 5c 12 00 5c cc 24 80 c5 e0 04 80 8a 58 12 80
       1.686168e-39 -3.379388e-39 -4.47974e-40 -1.684801e-39
000390 4e de 0f 80 af 1a 18 00 2c b4 19 00 e0 40 08 80
       -1.45728e-39 2.213624e-39 2.360521e-39 -7.57957e-40
0003a0 62 76 15 00 74 37 0e 00 ef ef 09 00 35 a1 00 80
       1.971013e-39 1.30559e-39 9.12591e-40 -5.783e-41
0003b0 2e 5f 1f 00 8b 62 08 00 5b 61 0c 80 4a 91 03 80
       2.881044e-39 7.70035e-40 -1.13695e-39 -3.27626e-40
0003c0 9d 95 1a 80 0f 08 06 00 35 f7 10 80 60 a1 12 00
       -2.441394e-39 5.53904e-40 -1.558049e-39 1.71093e-39
0003d0 3e 53 0d 80 8e 1a 15 80 8d 75 09 80 1b 02 20 80
       -1.223723e-39 -1.938071e-39 -8.68689e-40 -2.939491e-39
0003e0 03 eb 0e 00 0a 88 11 00 43 ab 12 80 5d d7 01 80
       1.370003e-39 1.610005e-39 -1.714476e-39 -1.69093e-40
0003f0 27 b0 20 00 52 ef 0c 80 c6 3a 15 00 b5 33 00 00
       3.001927e-39 -1.187878e-39 1.94963e-39 1.8549e-41

value.0.bias f4 [64]
000000 28 29 1e 00 53 38 05 80 ef 9f 04 80 40 26 0d 00
       2.769829e-39 -4.79383e-40 -4.24715e-40 1.207583e-39
000010 49 2c 0d 80 04 3d 07 00 d1 03 12 80 7c f9 05 80
       -1.209748e-39 6.64737e-40 -1.654408e-39 -5.48676e-40
000020 4b ee 15 00 94 97 23 80 13 f8 00 80 40 cc 10 80
       2.014029e-39 -3.268618e-39 -8.8992e-41 -1.542639e-39
000030 b8 4d 03 80 3d c5 03 00 e7 87 02 00 9c 41 1f 00
       -3.03387e-40 3.46262e-40 2.32424e-40 2.870437e-39
000040 98 6a 02 00 7d b9 0b 00 38 68 0e 00 1b 91 0a 00
       2.2191e-40 1.076731e-39 1.323084e-39 9.70409e-40
000050 58 3a 05 80 19 23 0c 00 ca 74 12 00 4d 83 12 00
       -4.80107e-40 1.114617e-39 1.694935e-39 1.700141e-39
000060 70 d2 06 00 68 c2 14 80 b4 d9 01 00 d3 c8 0c 00
       6.26504e-40 -1.90645e-39 1.69933e-40 1.174068e-39
000070 68 81 0e 00 2d fc 1f 00 b2 e2 0d 80 38 7d 10 80
       1.332119e-39 2.937364e-39 -1.275184e-39 -1.514288e-39
000080 5a 57 09 00 47 8d 0d 80 b3 61 06 80 70 36 0d 80
       8.57855e-40 -1.244542e-39 -5.86061e-40 -1.21339e-39
000090 4c ea 17 00 90 a8 0c 80 de 92 12 80 4d ae 00 80
       2.196266e-39 -1.162495e-39 -1.705725e-39 -6.2527e-41
0000a0 99 6d 16 80 8a bc 11 80 86 ab 0c 00 31 87 0b 80
       -2.059697e-39 -1.628839e-39 1.163557e-39 -1.058688e-39
0000b0 21 7f 18 80 ba 7a 04 00 f4 00 09 80 69 b9 0b 00
       -2.249657e-39 4.11368e-40 -8.26861e-40 1.076703e-39
0000c0 bb 70 17 80 2c c3 0d 00 34 f7 12 80 e1 8d 12 80
       -2.152656e-39 1.263876e-39 -1.741719e-39 -1.703935e-39
0000d0 3b 60 12 80 3a 48 15 80 7a 91 10 00 19 63 1e 00
       -1.68756e-39 -1.954455e-39 1.521555e-39 2.790614e-39
0000e0 7b a6 10 00 57 c1 13 00 44 56 15 80 74 1f 02 00
       1.52909e-39 1.814232e-39 -1.959492e-39 1.94954e-40
0000f0 87 b6 03 00 c2 09 12 80 57 b3 0d 80 71 1d 0e 80
       3.40985e-40 -1.65654e-39 -1.258196e-39 -1.296259e-39
