pre-trained/dqn_dnn8000.pth (torch, 800169 bytes, 44 tensors)

feature.0.weight f4 [128, 81]
0	0xbdbd4e76	-0.09243481
1	0xbcb3ab60	-0.021932304
2	0xbc3bbf4a	-0.011459181
3	0xbd4105b5	-0.047124583
4	0x3ce4d172	0.027931903
5	0x3ce6338a	0.028100748
6	0x3cd4f100	0.025993824
7	0xbd463a96	-0.048395716
8	0xbd58c402	-0.052921303
9	0xba3e8d25	-0.0007268957
10	0xbb2ee388	-0.0026685912
11	0x3d00bc83	0.03142978
12	0x3d409f8f	0.047027167
13	0x3cbf842f	0.02337846
14	0xbc321320	-0.010868818
15	0xbd5a823c	-0.053346857
16	0xbd262d77	-0.040570702
17	0xbd27be99	-0.040953252
18	0x3c739c29	0.014868774
19	0xbc291cc6	-0.0103218015
20	0xbcb29d24	-0.021803446
21	0x3d3cc541	0.046086553
22	0x3d68e9cc	0.05686359
23	0x3be90845	0.0071115815
24	0x3ca3d094	0.019996919
25	0x3d86d068	0.06582719
26	0x3c2ecc19	0.010668778
27	0xbcd2977f	-0.025707005
28	0x3c97e6ba	0.018542636
29	0xbd37caef	-0.044871267
30	0xbcb9ebea	-0.0226955
31	0x3caa90dc	0.020821027
32	0xbdbe43cb	-0.09290274
33	0x3d9cdfd4	0.07659879
34	0x3e844dfa	0.2584074
35	0x3e358b0e	0.17728826
36	0x3c2d2dd8	0.010570012
37	0x3ca5bcce	0.02023163
38	0x3d035d2b	0.032071274
39	0x3cf50756	0.029910725
40	0x3d13813c	0.03601192
41	0x3daa14fe	0.08304785
42	0xbdfcf8ce	-0.12352143
43	0xbe498639	-0.19680108
44	0xbcccb37d	-0.02498793
45	0x3d245cda	0.040127613
46	0xbca94b4f	-0.020665793
47	0xbc2d26ac	-0.010568302
48	0xbce43a10	-0.027859718
49	0x3ac16b63	0.0014756735
50	0x3e332aaa	0.17496744
51	0xbd82ee8e	-0.06393157
52	0xbe7f0529	-0.24904312
53	0xbd903d83	-0.070429824
54	0x3bab7786	0.005232754
55	0x3c402263	0.011726948
56	0x3d112c77	0.035442796
57	0xbdd2f280	-0.103001595
58	0x3e1c4f07	0.15264522
59	0x3f04b26d	0.51834756
60	0xbec82676	-0.39091843
61	0xbf1900a1	-0.59766585
62	0x3fe0553d	1.7526013
63	0x3cf11c20	0.029432356
64	0x3cc0fa8b	0.023556968
65	0x3cfca359	0.030839609
66	0x3d6facb7	0.058514323
67	0xbe0e7350	-0.13911176
68	0x3cce5e0b	0.025191328
69	0xbea67a05	-0.3251497
70	0xbeb51905	-0.3537065
71	0xbeabbc3e	-0.33542055
72	0x3c6fb11f	0.014629631
73	0x3c4bf7e9	0.012449243
74	0x3ce7442e	0.028230753
75	0x3c87f656	0.016596954
76	0x3e36423a	0.17798701
77	0xbd965151	-0.073397286
78	0x3da39364	0.07987097
79	0xbe46e3d2	-0.19422844
80	0xbdf455e2	-0.11930443
81	0x3e599cf9	0.21251287
82	0x3c08d60a	0.008351812
83	0x3e537f4e	0.20654032
84	0x3e2dc976	0.16971382
85	0x3e730573	0.23732547
86	0xbb5dbae6	-0.0033833324
87	0x3e1eb757	0.15499626
88	0x3e04d051	0.12970091
89	0x3e7b16ae	0.2452037
90	0x3e062331	0.13099362
91	0x3b87bfc3	0.004142733
92	0xbca641ab	-0.020294985
93	0xbdee22fc	-0.116277665
94	0x3d9f2783	0.07771208
95	0x3e33de19	0.17565192
96	0x3c919a8e	0.017773893
97	0x3d97920e	0.074009046
98	0x3e64f703	0.22359852
99	0x3b5073ed	0.0031807378
100	0x3b979f5c	0.0046271514
101	0xbe5a772c	-0.21334523
102	0xbef76e51	-0.48326352
103	0xbec7e4f9	-0.3904188
104	0xbe1d540d	-0.15364094
105	0x3e6062ba	0.21912661
106	0xbca4c909	-0.020115392
107	0xbd30720f	-0.043077525
108	0x3e33ed87	0.17571078
109	0x3d8150a7	0.06314211
110	0xbee2e7ce	-0.44317478
111	0xbf3fdfdf	-0.74950975
112	0xbf0709ab	-0.5274913
113	0x3e9f2de5	0.31089702
114	0x3c53c715	0.012925883
115	0xbd893319	-0.06699199
116	0x3dffddf6	0.124935076
117	0x3e3a8429	0.18214478
118	0x3ca2fd8a	0.019896287
119	0xbe3eac38	-0.18620384
120	0xbed66cb1	-0.418798
121	0xbee3e684	-0.44511807
122	0xbe1223ef	-0.1427152
123	0x3d627550	0.05528766
124	0x3df7dafb	0.12102314
125	0x3c8fcca8	0.017553642
126	0x3eacfcee	0.3378672
127	0xbdb57787	-0.08860689
128	0xbda17d8f	-0.078852765
129	0x3dba4e69	0.09096987
130	0x3e88f428	0.26748776
131	0xbe305633	-0.17220382
132	0x3c9dabdb	0.019246986
133	0x3db875ca	0.090068415
134	0x3dd1198b	0.1020995
135	0x3cf9bbcc	0.030485056
136	0x3d6a6b4f	0.057231244
137	0x3d962b25	0.07332448
138	0x3e2a6c1a	0.166428
139	0x3de689cc	0.112567514
140	0x3c12ae53	0.008952695
141	0x3c1746a8	0.009233154
142	0x3d0e6d2d	0.034772087
143	0xbd772ae4	-0.060343638
144	0xbd35092e	-0.044198208
145	0x3e1c395c	0.15256256
146	0x3c2ec393	0.010666746
147	0xbd3641c5	-0.044496316
148	0xbdaf55c3	-0.085612796
149	0x3dce6a97	0.10078924
150	0x3d4fc221	0.050722245
151	0x3d3fcec3	0.046828043
152	0x3ced3640	0.028956532
153	0x3e6095fb	0.21932213
154	0x3db774e2	0.089578405
155	0x3d622bfd	0.05521773
156	0x3cc53da4	0.024077244
157	0x3ded4e87	0.115872435
158	0xbdbc71c2	-0.09201385
159	0xbca1658f	-0.019701747
160	0x3ce4dae5	0.027936408
161	0xbc55ee21	-0.013057263
162	0xbec53fc1	-0.38525203
163	0xbd644bfa	-0.05573652
164	0x3d87ce87	0.06631189
165	0xbe03be2a	-0.1286551
166	0x3b85d844	0.0040846188
167	0xbd135765	-0.035972018
168	0x3dfd338f	0.1236335
169	0xbd9e94c6	-0.0774322
170	0x3d684fdd	0.05671679
171	0xbde0fa4a	-0.10985239
172	0x3d08f13e	0.03343319
173	0x3ddffaed	0.10936532
174	0xbc0e61d1	-0.008690313
175	0x3d6ee19b	0.058320623
176	0x3d3d575b	0.046225887
177	0xbe0fc0c5	-0.1403838
178	0x3c141aa6	0.009039557
179	0xbd2de41c	-0.04245387
180	0xbbf23ea2	-0.0073927203
181	0x3dc9e23e	0.098576054
182	0x3dad3c87	0.0845881
183	0x3db9c47b	0.09070679
184	0xbbcce0fe	-0.006252407
185	0xbc1c2545	-0.00953037
186	0xbc977ff2	-0.018493626
187	0x3cd2208b	0.025650283
188	0xbdfe0f61	-0.12405277
189	0x3dabf7c0	0.08396864
190	0xbc87d41d	-0.016580636
191	0x3de7cd2d	0.11318431
192	0xbd944662	-0.07239987
193	0xbc9be872	-0.019031737
194	0x3d23948d	0.03993659
195	0x3df15178	0.11783117
196	0xbce10e69	-0.027472692
197	0xbc8a22e8	-0.016862348
198	0xbe91bc9e	-0.28464216
199	0xbd03443a	-0.032047488
200	0xbbf49c40	-0.0074649155
201	0x3db6d5bd	0.08927486
202	0x3c085a74	0.008322347
203	0x3cf96d5d	0.030447656
204	0x3cefbf5c	0.029266052
205	0x3db6b9a3	0.08922126
206	0x3cec4257	0.028840227
207	0xbda8cce8	-0.08242208
208	0x3e1bacc7	0.15202628
209	0x3dd0108b	0.10159405
210	0xbd360df6	-0.044446908
211	0x3c40a1ad	0.0117572965
212	0xbcc11b1f	-0.023572503
213	0x3d414bfb	0.0471916
214	0xbd381d6f	-0.044949945
215	0x3c057dc6	0.0081476625
216	0xbde02108	-0.109438
217	0x3e404a27	0.18778287
218	0x3e6f59f8	0.23374164
219	0xbe1a6911	-0.15079142
220	0x3d3c68a2	0.045998223
221	0x3e50e8e9	0.20401348
222	0x3dde8d48	0.10866791
223	0x3d58145e	0.0527538
224	0x3d0c1e7e	0.034208767
225	0xbebc8947	-0.36823484
226	0x3f5c1134	0.8596375
227	0x3ea42659	0.32060507
228	0xbe1dd3ab	-0.15412776
229	0xbe021e18	-0.12706792
230	0x3e5246a8	0.20534766
231	0x3dd468c7	0.10371547
232	0x3d4f00e0	0.050537944
233	0x3cedf331	0.029046627
234	0xbfa931b1	-1.321829
235	0x3ee398c7	0.44452497
236	0xbd8abc1d	-0.06774161
237	0xbd8916a0	-0.066937685
238	0xbeaf67c7	-0.34258863
239	0x3d122964	0.035684004
240	0x3d826e22	0.063686624
241	0x3dc121b7	0.09430259
242	0xbd4ebced	-0.050473142
243	0xbe092a5d	-0.13395067
244	0xbc9af6df	-0.018916545
245	0xb79e4ffa	-1.887231e-05
246	0x3bc48102	0.0059968242
247	0xbc27e28d	-0.010246885
248	0xbe0e462c	-0.13893956
249	0xbd85a270	-0.06525123
250	0xbc886d3c	-0.01665365
251	0xbdfdd398	-0.12393874
252	0xbd76b743	-0.060233366
253	0x3c0d9c6d	0.008643252
254	0x3cda268d	0.02662971
255	0xbd682c29	-0.05668274

feature.0.bias f4 [128]
0	0xbde64af8	-0.11244768
1	0x3e25fdc4	0.16210085
2	0xbe3fdb6a	-0.18736044
3	0xbd3098bf	-0.04311442
4	0xbe3078f7	-0.17233644
5	0xbe060706	-0.13088617
6	0xbcd63bd2	-0.026151571
7	0xbdb4d911	-0.08830465
8	0xbdcf2188	-0.101138175
9	0xbe398db1	-0.18120457
10	0xbe263749	-0.16232027
11	0xbe04621b	-0.1292805
12	0x3c818d53	0.015814459
13	0xbd2bd042	-0.041946657
14	0xbd638198	-0.055543512
15	0xbdb823cb	-0.08991202
16	0x3e4118d1	0.18857123
17	0xbdeb32d7	-0.11484306
18	0x3d5262f6	0.051363908
19	0xbb263499	-0.002536094
20	0xbca20326	-0.019776892
21	0xbe2e16f5	-0.17000945
22	0x3ca7476d	0.0204198
23	0xbcf974ec	-0.03045126
24	0xbc3b24c6	-0.011422342
25	0x3c17a24e	0.009255005
26	0xbdc3a834	-0.095535666
27	0xbd1656cb	-0.036703866
28	0xbe27b7c4	-0.16378695
29	0xbe8658ae	-0.26239532
30	0x3c47f093	0.012203353
31	0xbdb25a75	-0.087086596
32	0xbddf2e8d	-0.10897551
33	0xbdeee9d7	-0.11665695
34	0xbe1dc450	-0.15406919
35	0xbd427f87	-0.0474849
36	0x3d0eb84d	0.03484373
37	0xbdf3d218	-0.119053066
38	0xbc312882	-0.0108128805
39	0xbe66d6c0	-0.22542858
40	0xbe5c0c8c	-0.21489161
41	0xbb9125b4	-0.0044295434
42	0x3c9e93f1	0.019357653
43	0x3d8d1f21	0.06890703
44	0x3c6dee8e	0.014522208
45	0xbe208e1b	-0.15679209
46	0xbdbaeb30	-0.0912689
47	0xbeb01680	-0.34392166
48	0xbd95f0ca	-0.073213175
49	0x3e0793f1	0.13240029
50	0xbde8f789	-0.113753386
51	0xbe553466	-0.2082077
52	0xbe06ff96	-0.13183436
53	0x3d83850a	0.064218596
54	0xbe600a37	-0.21878897
55	0xbd17796c	-0.03698103
56	0xbe8410f6	-0.2579419
57	0xbc425eac	-0.011863392
58	0xbe489379	-0.19587506
59	0x3e5eccee	0.21757862
60	0xbbd10321	-0.006378547
61	0xbd8444ed	-0.06458459
62	0xbe0cc4a0	-0.13746881
63	0xbdbe410f	-0.09289753
64	0xbde1b848	-0.11021477
65	0xbdb7d99d	-0.08977053
66	0xbd969052	-0.07351746
67	0xbc5820d3	-0.01319142
68	0xbd8547b7	-0.06507819
69	0xbe2a9c47	-0.16661178
70	0xbe17c76b	-0.14822166
71	0xbc980e0a	-0.018561382
72	0x3b9ae110	0.0047265366
73	0xbe107a9f	-0.14109276
74	0xbe35f7b4	-0.17770272
75	0x3db42f3c	0.08798072
76	0xbddc8a20	-0.10768533
77	0xbe20260f	-0.15639518
78	0xbe3859b8	-0.18002975
79	0xbd9303b4	-0.07178441
80	0xbcbc8561	-0.023012819
81	0xbd9d36e7	-0.076764874
82	0x3e03e715	0.1288112
83	0x3ddfb9eb	0.10924133
84	0xbe22d4d8	-0.15901506
85	0xbdf94f5b	-0.12173339
86	0x3dc58721	0.096449144
87	0xbe696b9b	-0.22794954
88	0xbd8de3b5	-0.06928197
89	0xba4f439c	-0.0007906498
90	0xbd0ff5f3	-0.035146665
91	0xbda945df	-0.0826528
92	0x3d19040d	0.03735738
93	0xbdf9435e	-0.121710524
94	0xbe17535a	-0.1477789
95	0xbe468182	-0.19385341
96	0x3e0ed94f	0.13950084
97	0xbe0cb584	-0.13741118
98	0xbdcaf83f	-0.099106304
99	0xbe3a9977	-0.18222605
100	0xbdb5df1c	-0.08880445
101	0x3cd32c6c	0.025778018
102	0xbec94f02	-0.3931809
103	0xbdae3986	-0.085070655
104	0xbe17fe58	-0.14843118
105	0xbc2b1bbf	-0.010443627
106	0xbda260a6	-0.079285905
107	0x3d86de38	0.065853536
108	0xb8a71a07	-7.9680285e-05
109	0xbe033461	-0.1281295
110	0xbd5ac3c6	-0.05340936
111	0xbe121c57	-0.14268623
112	0xbdcebb78	-0.100943506
113	0xbd21d09e	-0.039505593
114	0xbd28fcb7	-0.041256633
115	0xbd7a610e	-0.061127715
116	0xbdc5fc5d	-0.09667275
117	0xbbf53c58	-0.007484
118	0xbc8c25d0	-0.017107874
119	0xbe05bf9d	-0.13061376
120	0xbd99a4bd	-0.075021245
121	0x3d4dc344	0.050235048
122	0xbc457e84	-0.012054089
123	0xbdeeb75a	-0.11656065
124	0xbe4d035a	-0.2002081
125	0xbdb8b9b8	-0.09019798
126	0xbd8a7f61	-0.06762577
127	0xbe07623d	-0.13221069

feature.2.weight f4 [128, 128]
0	0x3e4e9285	0.2017308
1	0xbba67e82	-0.005080999
2	0x3e80d1bc	0.25160015
3	0x3d417502	0.047230728
4	0x3d48c490	0.04901558
5	0x3e04639e	0.12928626
6	0x3c8de80f	0.017322568
7	0x3d8caddc	0.068690985
8	0x3e42ca7c	0.19022554
9	0xbdeed83e	-0.11662339
10	0x3d4c5b76	0.04989191
11	0x3de41ada	0.11137934
12	0xbde17eaa	-0.110104874
13	0x3d3f4cf9	0.046704266
14	0x3e5ef834	0.2177437
15	0x3b21ab73	0.0024668842
16	0x3d90ac81	0.070641525
17	0x3e20373a	0.15646067
18	0xbbbd055a	-0.00576846
19	0x3c6d48be	0.014482675
20	0xbb2239a0	-0.0024753585
21	0x3e65bb90	0.2243483
22	0x3e5a4171	0.21314026
23	0xbce82c8a	-0.02834155
24	0x3d0e6f27	0.034773972
25	0x3ddb149a	0.10697289
26	0x3dcfe05a	0.101502135
27	0xbcf29464	-0.029611774
28	0x3d98f622	0.07468821
29	0x3d08e3a8	0.033420235
30	0x3db286db	0.08717128
31	0x3d5d8a67	0.05408707
32	0xbd40eed6	-0.04710277
33	0x3d1d8d81	0.038465027
34	0x39ab730b	0.00032701375
35	0x3e575307	0.21027766
36	0x3cf58262	0.029969398
37	0x3d82d034	0.06387368
38	0x3e2c2704	0.16811758
39	0x3e2e528a	0.17023674
40	0x3dba2a12	0.090900555
41	0x3e3c8893	0.18411474
42	0xbdb95a2f	-0.09050404
43	0x3d40312d	0.046921898
44	0x3e136427	0.14393674
45	0x3e2f33b1	0.17109562
46	0x3d40389b	0.046928983
47	0x3d9137b4	0.07090703
48	0x3b747bf0	0.0037305318
49	0xbd2e89f8	-0.042612046
50	0x3e466670	0.19375014
51	0xbbef8b57	-0.007310312
52	0x3e1ff28f	0.15619873
53	0x3e1b0ca0	0.15141535
54	0x3c43a0c1	0.011940182
55	0x3c88ad2b	0.016684135
56	0x3d1593f8	0.036518067
57	0x3dded361	0.10880161
58	0x3d68c37d	0.056827057
59	0xbdc2754b	-0.09495028
60	0xbd5f2d8b	-0.054486793
61	0x3e195fd0	0.14977956
62	0x3bda9d36	0.006671573
63	0x3e13d4e4	0.1443668
64	0x3df00830	0.11720312
65	0x3e02443a	0.12721339
66	0x3c0a1968	0.008428909
67	0x3e9a7463	0.3016692
68	0x3df6c7b4	0.12049809
69	0x3e1d771a	0.15377465
70	0xbd1b97f6	-0.037986718
71	0x3e944f0c	0.28966558
72	0x3ded6560	0.11591601
73	0x3d3dd1da	0.04634271
74	0x3d2322ac	0.039827988
75	0x3e28241f	0.16420029
76	0x3e560485	0.20900162
77	0x3ded037b	0.115729295
78	0x3d5017c9	0.050803933
79	0x3e0d6e32	0.13811567
80	0x3dc8bdc5	0.09801821
81	0x3e9ce662	0.30644518
82	0x3d90ad49	0.070643015
83	0x3c2532e1	0.010082931
84	0xbd88b1f2	-0.066745654
85	0xbd11a867	-0.03556099
86	0x3dbde707	0.092725806
87	0x3dbc3152	0.091890946
88	0x3d855a7f	0.065114014
89	0x0004153e	3.74962e-40
90	0xbd857f26	-0.06518392
91	0x3e75fb31	0.24021603
92	0x3d622ad2	0.055216618
93	0x3d8b8f81	0.068144806
94	0x3e3b8a6e	0.18314525
95	0x3c0a5f7f	0.00844562
96	0x3d4a9518	0.049458593
97	0x3e24b34a	0.16084018
98	0x3d9022cd	0.07037888
99	0x3d9fbb82	0.07799436
100	0x3e579834	0.21054155
101	0x3dde74ae	0.10862099
102	0x3dcc6991	0.09981073
103	0x3e060e51	0.13091399
104	0x3ead24d7	0.3381717
105	0xbe3e9ff3	-0.18615703
106	0x3e28cfcf	0.16485523
107	0x3cb0bdad	0.02157482
108	0x8002eb3c	-2.68057e-40
109	0x3d2a1c89	0.04153112
110	0x3e30387b	0.17209046
111	0x3e6ecd71	0.23320557
112	0x3ea41964	0.32050622
113	0x3e9ca9be	0.30598253
114	0x3e03278a	0.12808052
115	0x3d3009c9	0.04297808
116	0x3e81d723	0.2535945
117	0x3dd0cf3b	0.10195776
118	0x3dace899	0.08442802
119	0x3d9b9ada	0.07597895
120	0x3e97de3c	0.2966174
121	0x3e0c35ea	0.13692442
122	0x3e4231b8	0.18964279
123	0x3d8ee5f1	0.069774516
124	0x3dd701cd	0.1049839
125	0x3e95eaf5	0.2928082
126	0x3c5d74ce	0.013516618
127	0x3e176443	0.1478434
128	0x35ad0169	1.2889915e-06
129	0xbbe33b86	-0.006934586
130	0xb9020664	-0.00012400147
131	0xb9ed5c08	-0.0004527273
132	0xb7466443	-1.1825064e-05
133	0x3848d669	4.78834e-05
134	0xb7918249	-1.7346016e-05
135	0xb6912083	-4.3251216e-06
136	0xb8b151bc	-8.455242e-05
137	0xb8b95f63	-8.8392546e-05
138	0xb8b6b3d5	-8.7119326e-05
139	0xb7dc90a6	-2.62934e-05
140	0xbc6a1bde	-0.014288871
141	0xb906cd50	-0.0001285572
142	0xb73efb67	-1.1383417e-05
143	0xb93bdb6b	-0.0001791545
144	0xba253b97	-0.000630313
145	0x381c6e92	3.7296275e-05
146	0xbb2fc397	-0.0026819461
147	0xbb1211b1	-0.0022288377
148	0xbbb934c7	-0.0056520435
149	0xb87e6eb1	-6.066141e-05
150	0x3807b3b7	3.235388e-05
151	0xb8c0f532	-9.2009446e-05
152	0xb8714d71	-5.7531e-05
153	0x399ac50b	0.00029519977
154	0x394f1186	0.00019747586
155	0xb9c88255	-0.00038244078
156	0xb813701f	-3.5151952e-05
157	0xb7189f41	-9.096985e-06
158	0xbc03c42d	-0.008042377
159	0x392efce3	0.00016688141
160	0xba1e9ff8	-0.0006051059
161	0x3a0a36b7	0.00052724354
162	0x001321cb	1.756997e-39
163	0x38a16e90	7.697672e-05
164	0x394298fa	0.0001855827
165	0xb8ba1040	-8.872198e-05
166	0x3887f651	6.483182e-05
167	0xb74d3e91	-1.223352e-05
168	0x38cf8ed6	9.8971344e-05
169	0x392056d5	0.00015291137
170	0x389c6680	7.457752e-05
171	0xb775f347	-1.465978e-05
172	0x38741276	5.8191326e-05
173	0xb7e5e3da	-2.7405029e-05
174	0xb779d7b4	-1.4891779e-05
175	0x3876594a	5.8734127e-05
176	0xb6d68848	-6.393562e-06
177	0xbaac57ef	-0.0013148765
178	0xb8322f33	-4.2482465e-05
179	0x3887df2e	6.478872e-05
180	0x399bf897	0.00029749118
181	0x376bf551	1.4064209e-05
182	0xba1b856b	-0.00059326616
183	0xb72ee9e5	-1.0425666e-05
184	0xb87f8f7a	-6.093036e-05
185	0xb7c92273	-2.3977109e-05
186	0xb8d5244a	-0.00010163391
187	0xbadb2c8c	-0.001672165
188	0x38b50300	8.631311e-05
189	0x37a6afad	1.9870547e-05
190	0xb6dacb0f	-6.5205454e-06
191	0xb7798101	-1.4871593e-05
192	0xb7fdd6a3	-3.0259898e-05
193	0x388c3166	6.6849214e-05
194	0x380d45f8	3.3682183e-05
195	0xbbbf8139	-0.005844262
196	0xb8912188	-6.9203845e-05
197	0x381675d6	3.587253e-05
198	0x89bda184	-4.5651983e-33
199	0x3859ae86	5.189937e-05
200	0x37b5986d	2.164786e-05
201	0x37c21054	2.3134206e-05
202	0xb6bd86e1	-5.648341e-06
203	0x361e6bad	2.360651e-06
204	0x38c533ff	9.403377e-05
205	0xbb1b78a0	-0.002372302
206	0xb80d17cd	-3.3639186e-05
207	0x38804080	6.11553e-05
208	0xb746f85f	-1.1859548e-05
209	0xbb4a0d1e	-0.0030830572
210	0xba40b95b	-0.0007351839
211	0x38741d5d	5.820148e-05
212	0x3951955c	0.00019987434
213	0xb9201366	-0.00015266016
214	0x3883310f	6.255705e-05
215	0x38e2f57d	0.000108222455
216	0xba05e30c	-0.000510738
217	0x0000d30b	7.5708e-41
218	0x38888007	6.508832e-05
219	0xb8dd3455	-0.00010547849
220	0x38d3b2ae	0.00010094546
221	0x37cdfef5	2.4556628e-05
222	0xb950d4e6	-0.00019915737
223	0x359a439c	1.1493571e-06
224	0x37a8e890	2.0135456e-05
225	0x37deb7ef	2.6550113e-05
226	0xb875ba31	-5.8585956e-05
227	0x38e5f4d6	0.00010965175
228	0x3a97a15b	0.0011568473
229	0xba209998	-0.0006126403
230	0x38424c90	4.632451e-05
231	0xb8d4f1f0	-0.00010154012
232	0x386b803c	5.6147794e-05
233	0x3893508c	7.024509e-05
234	0x371637d7	8.953698e-06
235	0xb994696a	-0.000283073
236	0x800e82c4	-1.332607e-39
237	0x388b89ce	6.6537046e-05
238	0xb81d56db	-3.7512607e-05
239	0xb8cfb34e	-9.903927e-05
240	0x3818197a	3.626335e-05
241	0x3936327e	0.00017375682
242	0x358d3c77	1.0522916e-06
243	0x38b5b267	8.6639826e-05
244	0xb8fb9c7e	-0.000119977616
245	0xba0dc77a	-0.00054084475
246	0xb8091af2	-3.268844e-05
247	0x390ce0f0	0.00013435236
248	0x37dd2e57	2.6366832e-05
249	0xba744e74	-0.0009319552
250	0x3777b18b	1.4763685e-05
251	0x3809fd42	3.289921e-05
252	0xb650d2ec	-3.1117188e-06
253	0xb9149f7a	-0.0001417379
254	0xb9574d90	-0.00020532892
255	0x3640e832	2.8745385e-06

feature.2.bias f4 [128]
0	0xbf01fd7e	-0.50777423
1	0xbd31bc4a	-0.043392457
2	0xbe61b19b	-0.22040407
3	0xbd67175a	-0.056418754
4	0x3e1f1cab	0.1553828
5	0xbd7fb2e9	-0.06242648
6	0xbdacfebd	-0.08447025
7	0x3ede089d	0.43365946
8	0xbdb06c3d	-0.08614395
9	0x3cdae4db	0.026720455
10	0xbf1f514e	-0.62233436
11	0xbd286263	-0.041109454
12	0xbe8359ff	-0.256546
13	0x3d41a600	0.04727745
14	0xbda44ee6	-0.08022861
15	0x3d9b8701	0.07594109
16	0xbe35a21e	-0.17737624
17	0x3e2eec9a	0.17082444
18	0x3eb8e8f9	0.36115244
19	0x3dc24f74	0.09487811
20	0xae3e76fc	-4.3306678e-11
21	0xbe4801f6	-0.19531998
22	0xb309d15d	-3.2088213e-08
23	0xb0e55f1b	-1.6688974e-09
24	0xbc197f39	-0.009368711
25	0xbf072d9f	-0.5280399
26	0xa98bca75	-6.207961e-14
27	0xbcc14550	-0.023592621
28	0xbdefb459	-0.117043205
29	0xa2361d90	-2.468125e-18
30	0xbd4c8fd8	-0.049941868
31	0xbdc95ec6	-0.0983253
32	0x3e87c436	0.26516885
33	0xbe58c548	-0.21169007
34	0x3e0774f9	0.13228215
35	0xbc9acc3d	-0.018896217
36	0xbdbc6ad0	-0.0920006
37	0xbe8d476a	-0.27593547
38	0xbf05d4ee	-0.5227803
39	0x9091ec94	-5.755692e-29
40	0xbeebd1f7	-0.46058628
41	0x3e197209	0.14984907
42	0x3ef471cc	0.4774307
43	0x3d8d347f	0.068947785
44	0x3e4984a6	0.19679508
45	0xbdc78cf6	-0.09743683
46	0xbc86f58f	-0.016474513
47	0xa3146722	-8.044935e-18
48	0xbd8554b0	-0.065102935
49	0xbe116755	-0.14199574
50	0xbe8c9de7	-0.2746422
51	0xbe06bad5	-0.13157208
52	0xb167f338	-3.3753178e-09
53	0xbe7eb86d	-0.2487504
54	0xbe999bc9	-0.30001667
55	0xbd0132fc	-0.031542763
56	0x3dc8c7ca	0.09803732
57	0x3c3b7eef	0.011443838
58	0x3e169697	0.14705883
59	0xbde1415a	-0.10998793
60	0xb80b8800	-3.3266842e-05
61	0x3d404e87	0.04694989
62	0xbf1914e1	-0.59797484
63	0x3de7b48a	0.11313732
64	0xba9776ce	-0.0011555792
65	0xbd44e88e	-0.048073344
66	0xbd88e920	-0.0668509
67	0xa3e40a34	-2.472413e-17
68	0xbd32039c	-0.043460473
69	0x3d7dd625	0.061971802
70	0x3e8a5ebb	0.270254
71	0x3db95ee2	0.090513006
72	0xbefc66a2	-0.49297053
73	0xbbd80618	-0.0065925233
74	0x911fadf0	-1.2596487e-28
75	0x3d4893d2	0.048969097
76	0xbe2b157e	-0.16707417
77	0x3eaf0586	0.34183902
78	0xbe42983f	-0.1900339
79	0x3d0670c6	0.032822393
80	0xbd82a2c5	-0.06378702
81	0xbc321cee	-0.010871155
82	0x3e82c667	0.25541994
83	0xbe15762b	-0.14595859
84	0xbda427d5	-0.0801541
85	0xbe467b5e	-0.19382998
86	0xbea46522	-0.32108408
87	0xbc49ee64	-0.012324903
88	0xbed3883c	-0.41314876
89	0xbe2a4012	-0.16626003
90	0x3f065c26	0.5248436
91	0xbe76665f	-0.24062489
92	0xbdecf180	-0.115695
93	0x3c848bf2	0.016180012
94	0xbe4a0cd3	-0.19731455
95	0x3f11c463	0.5694029
96	0x3e6f8d51	0.23393752
97	0x3e7ff93b	0.24997418
98	0x3de93084	0.11386207
99	0x3e8d5e95	0.27611223
100	0xbe8d6aea	-0.2762063
101	0x3dd89ccb	0.10576781
102	0xbd73d332	-0.059527583
103	0x3ea6f393	0.32607707
104	0x3bf2a7a2	0.0074052373
105	0xb7346340	-1.07519445e-05
106	0xbe877ab6	-0.2646081
107	0xbda918e1	-0.082566984
108	0xbb2b07d8	-0.0026097205
109	0x3ee061a9	0.4382451
110	0x3c54fe97	0.013000152
111	0x3d86d735	0.06584016
112	0xbe9b0bc3	-0.3028241
113	0xbd848e74	-0.06472483
114	0xb90e68e5	-0.00013581252
115	0xbe2b493b	-0.16727154
116	0xbc107e04	-0.008819107
117	0xba3a5bd5	-0.0007109021
118	0x3e5af1f0	0.21381354
119	0x3c4155c1	0.0118002305
120	0x3ee84276	0.45363206
121	0x3eb87408	0.36026025
122	0x3e7d4695	0.24733956
123	0xbed89a4d	-0.42305222
124	0x9dad492c	-4.5868377e-21
125	0xbd5bc08e	-0.05365043
126	0xbd123395	-0.035693724
127	0xbed0d70a	-0.40789062

advantage.0.weight f4 [64, 128]
0	0x9b05a4a5	-1.1054702e-22
1	0x00133879	1.765133e-39
2	0x80065cf2	-5.84355e-40
3	0x9c4b5cd1	-6.728703e-22
4	0xa526b097	-1.4458036e-16
5	0x9c4ee181	-6.845114e-22
6	0x00003fb7	2.2857e-41
7	0x309252f6	1.0646477e-09
8	0x0d4f044e	6.379198e-31
9	0x800630ae	-5.68476e-40
10	0xacf7daa5	-7.0444366e-12
11	0x1753febe	6.8499307e-25
12	0x06d0e8a4	7.858274e-35
13	0x8006de65	-6.30793e-40
14	0x800213fb	-1.90839e-40
15	0x843e2e94	-2.235578e-36
16	0x8a7711d0	-1.18959676e-32
17	0x800123e0	-1.04705e-40
18	0x0c9cbf70	2.4150823e-31
19	0x0001641d	1.2775e-40
20	0x0011c35f	1.63129e-39
21	0x0005e450	5.4108e-40
22	0x800353a9	-3.05518e-40
23	0x000bd009	1.08482e-39
24	0x9730d966	-5.7143063e-25
25	0x9ed64491	-2.268649e-20
26	0x00112f7d	1.578239e-39
27	0x0007ffdf	7.34638e-40
28	0x2aef9c92	4.256357e-13
29	0x80022e76	-2.00338e-40
30	0x00075fb5	6.77182e-40
31	0x0003994a	3.30496e-40
32	0xa005e3a9	-1.1340865e-19
33	0x8d885a09	-8.403322e-31
34	0x8007261a	-6.56517e-40
35	0x00055118	4.88268e-40
36	0x95055aa8	-2.693065e-26
37	0x96c772aa	-3.2222547e-25
38	0x9933a753	-9.287874e-24
39	0x0005e7d1	5.42338e-40
40	0x99f0cc10	-2.4897839e-23
41	0x00004177	2.3484e-41
42	0x8007a1ea	-7.00932e-40
43	0xa6897764	-9.538646e-16
44	0x91ade430	-2.7435219e-28
45	0x0003ed0a	3.6054e-40
46	0x00153549	1.94766e-39
47	0x80143dca	-1.858876e-39
48	0x0002cc40	2.56942e-40
49	0x0000a38a	5.8667e-41
50	0x800b52e8	-1.039932e-39
51	0x0004a7b8	4.27508e-40
52	0x001b16ba	2.487711e-39
53	0x914a9179	-1.5979818e-28
54	0x000008c9	3.152e-42
55	0x85b951a2	-1.7427304e-35
56	0x80068a18	-6.00552e-40
57	0x9eb064bf	-1.8676392e-20
58	0x0a6ed002	1.1498405e-32
59	0x00002abd	1.5332e-41
60	0x801cbb2e	-2.638541e-39
61	0xafba7e18	-3.3922798e-10
62	0x9894b1f6	-3.8436798e-24
63	0x800653c9	-5.8107e-40
64	0x801f0b46	-2.850945e-39
65	0x00001eed	1.1094e-41
66	0x94d04ab6	-2.1032101e-26
67	0x00146540	1.873032e-39
68	0x9fd43c61	-8.988538e-20
69	0xa5b93533	-3.2128433e-16
70	0x0000c501	7.0672e-41
71	0x0003e5c0	3.57925e-40
72	0x96851a78	-2.1504013e-25
73	0x0014fd9c	1.927688e-39
74	0x80163a58	-2.041311e-39
75	0x948955ea	-1.3867352e-26
76	0x9ca50b63	-1.0921727e-21
77	0x800155af	-1.22573e-40
78	0x00018bdf	1.42012e-40
79	0x80015d59	-1.25322e-40
80	0x8d3ed2d2	-5.8802036e-31
81	0x800a037d	-9.19606e-40
82	0x800634ce	-5.69956e-40
83	0x0c23d379	1.2620701e-31
84	0x1cf4a445	1.6189028e-21
85	0xa00c42a7	-1.1880515e-19
86	0x9a4f8321	-4.2912522e-23
87	0xa5ca770c	-3.5122084e-16
88	0x9c20b9d7	-5.317975e-22
89	0x9a7fa87f	-5.2868874e-23
90	0x00058b65	5.09183e-40
91	0x9e3edd87	-1.0104327e-20
92	0x80012976	-1.06709e-40
93	0x000037b5	1.9984e-41
94	0x0003deda	3.5545e-40
95	0x9e674324	-1.22429225e-20
96	0x8004260d	-3.80992e-40
97	0x80002512	-1.3298e-41
98	0x8004a642	-4.26984e-40
99	0x996a792a	-1.2121985e-23
100	0x800161e2	-1.26949e-40
101	0x8002eaeb	-2.67944e-40
102	0x000309cb	2.7902e-40
103	0x028997fc	2.0217576e-37
104	0x8003f3c6	-3.62956e-40
105	0x00045578	3.98002e-40
106	0x00d609a3	1.9656253e-38
107	0x969f87a9	-2.577345e-25
108	0x8004f225	-4.54207e-40
109	0x80006e58	-3.9584e-41
110	0x0002c84f	2.55528e-40
111	0x0003112d	2.81668e-40
112	0x873bb9ba	-1.4122897e-34
113	0x800abf04	-9.86878e-40
114	0x80179763	-2.166524e-39
115	0x0004536e	3.97271e-40
116	0x80225726	-3.15367e-39
117	0x80103b81	-1.490714e-39
118	0x9f010ddc	-2.7328277e-20
119	0x02b6dacb	2.6868077e-37
120	0xa4b15e11	-7.692087e-17
121	0xabb241e9	-1.2665954e-12
122	0x0010781d	1.512456e-39
123	0xa0de414b	-3.765147e-19
124	0x8006ca34	-6.2355e-40
125	0x963cd974	-1.5255135e-25
126	0x0006c7a4	6.2263e-40
127	0x9ae085b8	-9.286026e-23
128	0x3e97d4b7	0.29654476
129	0xb9322c63	-0.00016991938
130	0x3e622e5b	0.22087996
131	0x3e6f05a6	0.23341998
132	0xbe410823	-0.1885076
133	0x3dbb67d6	0.091506645
134	0x3dcafe83	0.099118255
135	0x3dc9b574	0.098490626
136	0x3e2f7580	0.17134666
137	0x3de4af2b	0.11166223
138	0x3ea8eb82	0.32992178
139	0xbe3551b1	-0.17706944
140	0x3d03e682	0.03220225
141	0x3c095389	0.008381733
142	0xbda57422	-0.08078791
143	0xbe7e49bd	-0.24832816
144	0x3daa8eba	0.08328004
145	0xbe325bc8	-0.17417824
146	0xbe4d73c7	-0.20063697
147	0xbc6b607e	-0.014366267
148	0x1a60905b	4.6438724e-23
149	0x3e25433f	0.16138934
150	0x1ff2d56f	1.0284408e-19
151	0x9213f7e5	-4.6690575e-28
152	0xbd76c474	-0.060245946
153	0x3eabab98	0.33529353
154	0x81bfe54e	-7.0491355e-38
155	0x3e091c1a	0.13389626
156	0x3eaa716b	0.33289656
157	0x80011a25	-1.01214e-40
158	0x3e065b7f	0.1312084
159	0xbee6bca9	-0.4506581
160	0xbe48fb1c	-0.1962704
161	0xbf196a34	-0.5992768
162	0xbe55ae16	-0.2086719
163	0x3d7763b7	0.06039783
164	0x3e5f5cc0	0.21812725
165	0x3e99e607	0.3005831
166	0x3dcdb888	0.10044962
167	0x8007b2d4	-7.07e-40
168	0x3e215346	0.15754423
169	0xbec9e826	-0.39434928
170	0x3d8b0bb5	0.06789342
171	0x3d4a61ff	0.049409863
172	0xbe225562	-0.15852883
173	0x3d264510	0.040593207
174	0xb775c8dd	-1.4649905e-05
175	0xa03f10d2	-1.6183895e-19
176	0x3d7f1580	0.062276363
177	0x3ca219be	0.019787665
178	0x3bd69bd8	0.0065493397
179	0x3d010630	0.03150004
180	0x0006a753	6.11038e-40
181	0xbd18d022	-0.037307866
182	0xbef38905	-0.47565475
183	0xbd7c1c1a	-0.061550237
184	0x3d071027	0.03297439
185	0xbe2b08fa	-0.16702643
186	0x39fc35b2	0.00048105192
187	0x3e20122c	0.15631932
188	0x3701ec5a	7.744029e-06
189	0x3dddab9c	0.108237475
190	0x3f0ea60a	0.55722106
191	0x3e91053b	0.28324303
192	0xb73f8a82	-1.1416736e-05
193	0x395a5241	0.00020820742
194	0x3d6f820c	0.05847363
195	0x0001d6b8	1.68862e-40
196	0x3f119c56	0.56879175
197	0xbe5bc358	-0.21461236
198	0x3e7dbf15	0.24779923
199	0xbe1ac778	-0.15115154
200	0x3e4b78b2	0.1987026
201	0xb7f04c09	-2.8645636e-05
202	0x0006970c	6.05198e-40
203	0xbd99538f	-0.07486641
204	0xbe0f9ec2	-0.14025405
205	0xbeb4d69f	-0.35319993
206	0xbe5e7b44	-0.2172671
207	0x3c2d9001	0.010593415
208	0x3da3b055	0.07992617
209	0xb8019aa5	-3.090002e-05
210	0xbd9a67c9	-0.07539327
211	0x3da30f50	0.07961905
212	0x3d946272	0.072453395
213	0x3edfb150	0.43689966
214	0x3d53b724	0.05168833
215	0x3df8d379	0.1214971
216	0xbe95c5c5	-0.2925245
217	0xbb122d0c	-0.0022304682
218	0xbe0a2e9d	-0.13494344
219	0xbd43456f	-0.04767364
220	0xbd5eb739	-0.054373953
221	0xbf09ee63	-0.53879374
222	0x3c9280eb	0.017883739
223	0xbb63fa26	-0.0034786551
224	0xbe8b6a98	-0.27229762
225	0xbe37e26c	-0.17957467
226	0x3d684b4b	0.05671243
227	0xbe875620	-0.26432896
228	0x3e8cbbf4	0.27487147
229	0x3e292a5b	0.16520064
230	0x3d8914e4	0.06693438
231	0xbd9112b7	-0.07083648
232	0x3d9a2066	0.07525711
233	0xb65dea75	-3.3068038e-06
234	0xbe8a33ea	-0.26992732
235	0xbd529242	-0.051409014
236	0xbdb6ed3b	-0.08931967
237	0xbe916954	-0.2840067
238	0xbe0a9d99	-0.13536681
239	0x3e9a297e	0.3010978
240	0x3c317fe9	0.010833719
241	0xbcce259d	-0.02516442
242	0x1ea54b31	1.7501153e-20
243	0x3e8e7405	0.2782289
244	0x3e361cdc	0.17784446
245	0xa2a1e73a	-4.388396e-18
246	0xbe651878	-0.22372615
247	0xbe271b7a	-0.16319075
248	0xbdd41cd0	-0.10357058
249	0x3cd58d4a	0.026068348
250	0xbe99e4ed	-0.3005747
251	0x3e03c22c	0.1286704
252	0x00053134	4.76828e-40
253	0xbe4b8af5	-0.19877227
254	0xbd5b0b82	-0.05347777
255	0x3e6132e2	0.21992067

advantage.0.bias f4 [64]
0	0xb6a2b2db	-4.8487977e-06
1	0xbe32f32b	-0.17475574
2	0xba6b0ef5	-0.00089667673
3	0xb3861ba0	-6.244886e-08
4	0x3e93e195	0.28883043
5	0xbd6dc242	-0.058046587
6	0xbda7d36e	-0.08194624
7	0x3c8d68a8	0.017261818
8	0x3d99552d	0.07486949
9	0x98643b7a	-2.9498337e-24
10	0x3c9b3ef7	0.018950922
11	0xa4d09571	-9.0458784e-17
12	0x3b9af2df	0.0047286595
13	0x879689c6	-2.2650467e-34
14	0x3d3f0d2c	0.04664342
15	0x3de3e1e8	0.111270726
16	0x3db8f91f	0.09031891
17	0xbdce4647	-0.10071998
18	0xbb454a36	-0.0030104048
19	0x3e25f67c	0.16207308
20	0xbe4ebf3f	-0.20190142
21	0xbd0d1e8a	-0.034452952
22	0x3e3e7b46	0.18601713
23	0x3e1c6d87	0.15276156
24	0x3cda9a36	0.026684862
25	0xbd0d6093	-0.03451593
26	0xb19e48f9	-4.6067012e-09
27	0xbeab6ac5	-0.33479896
28	0xbc340e69	-0.010989764
29	0x3e50be96	0.20385203
30	0x3e57c6d1	0.21071936
31	0xbcab7824	-0.020931311
32	0x3d1bd7b9	0.038047526
33	0xbea811f6	-0.32826203
34	0xbd251658	-0.04030451
35	0x3b6770c8	0.0035315026
36	0xbc02d753	-0.007985908
37	0xbdc07d8f	-0.093989484
38	0x3d429976	0.047509633
39	0xb86503ac	-5.4601274e-05
40	0xbd058fce	-0.032607846
41	0xaae3f403	-4.0492617e-13
42	0x3e823af9	0.25435618
43	0xbdf33c3c	-0.11876723
44	0xbd6e3d3a	-0.05816386
45	0x3db5e796	0.08882062
46	0xbb836eca	-0.00401101
47	0xad8180a9	-1.4722739e-11
48	0xbe95d1be	-0.29261583
49	0x3e94d73d	0.29070464
50	0xbe2f0da3	-0.17095046
51	0xbd6e3b4e	-0.058162026
52	0x3e0d51d1	0.13800742
53	0x3d5ad58c	0.05342631
54	0xbb2052a7	-0.0024463327
55	0x3c87c796	0.016574662
56	0xbea623dd	-0.32449237
57	0xbe017552	-0.1264241
58	0x3d877abe	0.06615208
59	0x3dfaa03d	0.12237594
60	0x3d93bdd3	0.072139405
61	0xbcf0aef7	-0.029380305
62	0x3dca8884	0.098893195
63	0x3e206a28	0.15665495

advantage.2.weight f4 [81, 64]
0	0x385d9803	5.2832078e-05
1	0x3ea26d3f	0.31723973
2	0xb98205a4	-0.00024799735
3	0x35aac4d5	1.2723273e-06
4	0xbda1fc6e	-0.07909475
5	0x3c4b5b93	0.01241197
6	0x3cae1a84	0.021252878
7	0x3e23cece	0.15996858
8	0x3da14719	0.07874889
9	0x8001ad93	-1.54102e-40
10	0x3e0161c7	0.12634955
11	0xb29602ba	-1.7463538e-08
12	0x3d030db1	0.03199548
13	0x00027d3f	2.28601e-40
14	0x3e29db74	0.16587621
15	0x3dcb36c3	0.09922554
16	0x3c97a47a	0.018511046
17	0x3ccf317b	0.025292149
18	0x3db0452a	0.08606942
19	0x3d258512	0.04041011
20	0x3e3e033a	0.18555918
21	0x3e06de9b	0.13170855
22	0xbec4d32a	-0.38442355
23	0xbe288918	-0.16458547
24	0x3e6f9408	0.23396313
25	0xbd5c9902	-0.053856857
26	0x2a1bbe9e	1.3832899e-13
27	0x3e8902d3	0.26759967
28	0x3df1b90f	0.11802875
29	0xbc949d50	-0.018141419
30	0x3c844e1a	0.016150523
31	0x3d109eaa	0.035307564
32	0x3e100480	0.14064217
33	0x3eafb279	0.3431585
34	0x3db62907	0.08894544
35	0x3e13a1d0	0.14417195
36	0x3dfe13a3	0.12406089
37	0xbd37e09b	-0.044891935
38	0x3e3314ed	0.17488451
39	0x3c98b0bc	0.018638961
40	0x3dab5f08	0.08367735
41	0x198138cd	1.3361229e-23
42	0xbe319ba5	-0.1734453
43	0x3d738fda	0.05946336
44	0x3d864dcf	0.065578096
45	0xbda7d0e8	-0.081941426
46	0x3dee779b	0.11643907
47	0xb5984d32	-1.1347349e-06
48	0x3ea7da8c	0.32783926
49	0xbf9c463e	-1.2208936
50	0x3e2a548b	0.16633813
51	0xbc9497bb	-0.018138757
52	0xbdeaa47f	-0.114571564
53	0x3d17b63e	0.037039034
54	0x3a42707f	0.0007417276
55	0xbfa4d65e	-1.287792
56	0x3e6cb505	0.23115928
57	0x3e0dbc7c	0.13841432
58	0xbc0369c4	-0.008020822
59	0x3c5f289d	0.013620523
60	0xbe130978	-0.14359081
61	0x3ca716d2	0.020396624
62	0xbc93e229	-0.018052178
63	0x3da6316e	0.08114897
64	0x9391ae65	-3.6775112e-27
65	0x3d11c2ef	0.035586294
66	0x33aad49f	7.9549174e-08
67	0x25d470b2	3.6852503e-16
68	0xbd5857ad	-0.05281799
69	0xbb9d1363	-0.004793571
70	0xba8150e4	-0.0009866026
71	0xbe928413	-0.2861639
72	0xbdd1b4d1	-0.10239566
73	0x00072669	6.56627e-40
74	0xbd3f16e8	-0.046652704
75	0x8008f6ee	-8.23266e-40
76	0xbda4126b	-0.080113254
77	0x00059fb8	5.16474e-40
78	0xbd217e36	-0.039427005
79	0xbbccc5ee	-0.006249181
80	0xbb1eb6de	-0.0024217884
81	0xbe0651bc	-0.13117117
82	0xbe52507a	-0.20538512
83	0xbdc568b3	-0.096391104
84	0xbd2c3134	-0.04203911
85	0xbd5da486	-0.05411198
86	0xbdd4f9f5	-0.10399238
87	0x3d78226c	0.060579702
88	0x3d525910	0.051354468
89	0x3d6feea3	0.05857719
90	0x239841e0	1.6507772e-17
91	0xbe7f8c9c	-0.24955982
92	0x3e150463	0.14552455
93	0x3c7020bb	0.014656241
94	0xbbc7b56b	-0.0060946248
95	0xbb7f7f4c	-0.0038985787
96	0xbc82dc38	-0.01597415
97	0xbe5d5802	-0.21615604
98	0xbe2c9abd	-0.16855903
99	0x3e0eeada	0.13956776
100	0x3de4af36	0.11166231
101	0x3d241297	0.04005679
102	0xbd9a3543	-0.0752969
103	0x247bb7f9	5.458278e-17
104	0xbe43055d	-0.19045015
105	0x00060f33	5.56465e-40
106	0xbd0e26d2	-0.03470499
107	0x3d7ff3e0	0.062488437
108	0xbe8fb75b	-0.28069577
109	0x3e2a9296	0.1665748
110	0x3d22e53c	0.039769396
111	0x8007e01f	-7.23248e-40
112	0xbdf328f6	-0.11873047
113	0xbc10f0ca	-0.008846471
114	0xbd3c056c	-0.04590361
115	0x3bac7400	0.0052628517
116	0x3dc339cc	0.09532508
117	0x3d241b66	0.04006519
118	0xb6f7b838	-7.3826195e-06
119	0xbe5e14c9	-0.21687616
120	0xbee062b8	-0.43825316
121	0xbe3b8389	-0.18311895
122	0x3d9d0d04	0.07668498
123	0xbdea7579	-0.114481874
124	0xbc3c630a	-0.011498222
125	0xbcbb6f4a	-0.022880215
126	0x3d7588b8	0.05994484
127	0xbd2d802b	-0.04235856
128	0xb271218b	-1.4035673e-08
129	0xbee088fe	-0.43854517
130	0x36dc2d6d	6.561799e-06
131	0xb1fc5990	-7.3443474e-09
132	0xbe04e46a	-0.12977758
133	0xbce82472	-0.028337691
134	0xbd276b2f	-0.040873703
135	0xbedd6fc3	-0.4324933
136	0x3e1a461f	0.15065812
137	0x00025406	2.13813e-40
138	0xbf77463e	-0.96591556
139	0x0008acc6	7.96663e-40
140	0xbefa23e5	-0.4885551
141	0x0001c6c9	1.63146e-40
142	0xbad337f4	-0.0016114698
143	0xbbc68434	-0.0060582403
144	0xbe1c6797	-0.15273891
145	0x3e102b0e	0.14078924
146	0xbf5beec3	-0.85911196
147	0x3d87942c	0.066200584
148	0xbda66e98	-0.08126563
149	0xbaa84a2f	-0.0012839491
150	0xbf264b97	-0.6495909
151	0xbdc4d599	-0.09611053
152	0x3eabedc2	0.33579832
153	0xbe047a00	-0.12937164
154	0x28833cd4	1.4570302e-14
155	0x3e190e18	0.14946783
156	0x3e185828	0.14877379
157	0x3dcf9778	0.10136312
158	0x3e9a3b6a	0.30123454
159	0x3c17a2bb	0.009255107
160	0xbdc92e49	-0.09823281
161	0x3d3f57f8	0.046714753
162	0xbe3ac409	-0.18238844
163	0x3f11971a	0.5687119
164	0x3eb532d1	0.35390332
165	0x3d8d6d3e	0.06905602
166	0x3eac3780	0.33636093
167	0x3776f812	1.4720501e-05
168	0x3db35c7e	0.08757876
169	0x000631b1	5.68839e-40
170	0x3c9101f8	0.017701134
171	0xbcaba86f	-0.020954339
172	0xbd347e4e	-0.044065766
173	0x3e9f98ce	0.31171268
174	0x3d9fedd9	0.07809038
175	0x96002d3e	-1.0354034e-25
176	0x3e1066fd	0.14101787
177	0x3e64b593	0.2233489
178	0x3e353ca2	0.17698911
179	0x3d0c71cb	0.03428821
180	0xbc53ea74	-0.012934316
181	0x3e0d6f52	0.13811997
182	0x384bad1e	4.85602e-05
183	0xbfa4f5ae	-1.2887475
184	0x3dac4f47	0.084135585
185	0x3e3242d7	0.1740831
186	0x3e159cd1	0.14610602
187	0x3cb2521d	0.02176767
188	0x3c90ecef	0.017691104
189	0xbcc1da08	-0.023663536
190	0x3e9bb01a	0.30407792
191	0x3d80bf1b	0.062864505
192	0x31ddcd00	6.4552523e-09
193	0x3caaf101	0.020866873
194	0xb9854c21	-0.00025424457
195	0x33297775	3.9457024e-08
196	0x3da73827	0.08165007
197	0x3c51ba7f	0.012800812
198	0x3d819f3e	0.06329201
199	0x3dfed187	0.12442308
200	0x3e20d11e	0.15704772
201	0x00073486	6.6169e-40
202	0xbfed5c2d	-1.8543755
203	0x8009129b	-8.33194e-40
204	0xbd85087b	-0.06495758
205	0x80079668	-6.96804e-40
206	0x3e17b55d	0.14815278
207	0x3de12965	0.109942235
208	0x3d83c131	0.06433333
209	0x3c706da4	0.014674578
210	0xbedd5d41	-0.4323521
211	0x3e79b731	0.24386288
212	0xbf971d2c	-1.1805778
213	0xbe4fbffb	-0.20288078
214	0xbd7991ee	-0.060930185
215	0xbdfa3101	-0.12216378
216	0x3df70fee	0.12063585
217	0x3e1b47bb	0.15164082
218	0xa9689562	-5.1643917e-14
219	0x3eb41e88	0.35179543
220	0x3c6ab63e	0.0143256765
221	0x3dc27523	0.09494998
222	0x3e871890	0.26385927
223	0x3b421035	0.002961171
224	0xbed0548c	-0.40689504
225	0x3e134b8f	0.14384292
226	0xbd91e5c9	-0.07123906
227	0xbd87e6da	-0.06635828
228	0x3d8c347a	0.068459466
229	0xbd40a8af	-0.04703587
230	0x3e8785f7	0.26469395
231	0x32fbc8e7	2.9311606e-08
232	0x3ed6cdc1	0.41953853
233	0x8ef00626	-5.917049e-30
234	0xbc424d76	-0.011859288
235	0x3d66cd55	0.056348164
236	0x3d13449d	0.035954107
237	0x3c54b851	0.012983398
238	0x3beadfcc	0.007167792
239	0x228bd74b	3.7903976e-18
240	0xbce5c85d	-0.028049642
241	0x3dc0a3ce	0.09406243
242	0x3e01a545	0.12660702
243	0x3bd74493	0.006569454
244	0xbcd3e4da	-0.02586596
245	0x3ce6f234	0.028191663
246	0xbaed49f6	-0.0018103707
247	0xbbe439c4	-0.006964894
248	0x3e810ac5	0.2520353
249	0x3e8f8dff	0.28038022
250	0x3e73c6a2	0.23806241
251	0x3e59359e	0.2121186
252	0xbc6c0394	-0.01440515
253	0xbc3f70ad	-0.011684579
254	0x3e450fa8	0.19244254
255	0x3dc21836	0.09477274

advantage.2.bias f4 [81]
0	0xbeacde5d	-0.337634
1	0x3e35cfb8	0.1775502
2	0xbd73ac73	-0.059490632
3	0xbdf3bed0	-0.11901629
4	0xbda342ad	-0.07971702
5	0xbe29bf80	-0.16576958
6	0xbd46e30f	-0.048556384
7	0xbe62fd5e	-0.22166964
8	0xbe1acec6	-0.1511794
9	0xbe0c48f9	-0.13699712
10	0x3e46153c	0.19344038
11	0x3e14473e	0.14480302
12	0x3d8657d8	0.065597236
13	0x3e5cdc03	0.21568303
14	0x3e40d005	0.18829353
15	0x3e40ce3d	0.18828674
16	0x3e83b1bd	0.2572154
17	0xbde839e2	-0.11339165
18	0x3e884aa0	0.26619434
19	0x3e6ce593	0.2313445
20	0x3ef7d3e4	0.48403847
21	0x3e2da2d5	0.16956647
22	0x3dcbaf2a	0.09945519
23	0xbdcfdf60	-0.10150027
24	0xbd00affa	-0.031417824
25	0x3e813cb8	0.25241637
26	0xbdc75b18	-0.09734172
27	0xbd5f92ee	-0.054583482
28	0x3e16e16f	0.14734434
29	0x3e6d8cee	0.23198292
30	0xbe0811f7	-0.13288103
31	0xbe9f93aa	-0.31167346
32	0xbe184daa	-0.14873376
33	0x3e22cfff	0.15899657
34	0x3e043b1c	0.12913173
35	0xbd944d76	-0.07241337
36	0xbce2c7ee	-0.027683225
37	0x3e3be31e	0.18348357
38	0x3d37886c	0.044807836
39	0xbe71102d	-0.23541327
40	0x3d087f63	0.03332461
41	0xbe414c73	-0.1887682
42	0x3e53a4ba	0.20668307
43	0x3e401a31	0.18759991
44	0xbe237110	-0.15961099
45	0xbd97ac30	-0.07405889
46	0xbdf06a02	-0.117389694
47	0xbdf4a28d	-0.119450666
48	0xbeef9df4	-0.46800196
49	0xbe862a94	-0.2620436
50	0xbcf75036	-0.030189615
51	0x3e4855a9	0.19563927
52	0x3e535abb	0.2064008
53	0xbec269e1	-0.37971404
54	0xbddda7e0	-0.10823035
55	0x3e585f05	0.21129997
56	0x3df4d721	0.11955095
57	0x3e45ea31	0.19327618
58	0x3e3c1533	0.18367462
59	0x3e58232c	0.21107167
60	0x3e2a73c8	0.1664573
61	0x3e3b0fd2	0.18267754
62	0x3ec29de3	0.38011083
63	0x3e8d2e1a	0.27574235
64	0x3e50e1b4	0.20398599
65	0x3e1dee3a	0.15422907
66	0x3e428134	0.189946
67	0x3d97b009	0.07406623
68	0x3d13339f	0.0359379
69	0x3d301423	0.042987954
70	0x3e334393	0.17506246
71	0x3e5c6f3b	0.21526806
72	0x3db518f3	0.08842649
73	0x3d063872	0.032768674
74	0xbd8c613f	-0.06854486
75	0x3e727bfb	0.23680107
76	0xbcb5b3f1	-0.02218053
77	0x3eb6cddb	0.3570393
78	0x3db69631	0.089153655
79	0x3e4fa68f	0.20278381
80	0x3ebc89d7	0.36823913

value.0.weight f4 [64, 128]
0	0x80140181	-1.83725e-39
1	0x801d8344	-2.710319e-39
2	0x80147ea2	-1.882137e-39
3	0x80024a30	-2.10284e-40
4	0x8015451c	-1.953337e-39
5	0x000c9776	1.15636e-39
6	0x000c4f1a	1.130402e-39
7	0x801ef850	-2.844143e-39
8	0x001cd626	2.648216e-39
9	0x0015201e	1.940067e-39
10	0x800e3ce0	-1.307535e-39
11	0x800f335f	-1.395961e-39
12	0x0017d49e	2.188489e-39
13	0x800fe3ef	-1.4593e-39
14	0x000b1883	1.018984e-39
15	0x000b28d1	1.024833e-39
16	0x8022c64d	-3.193544e-39
17	0x000ea484	1.344714e-39
18	0x001f809d	2.893038e-39
19	0x000d61b4	1.228911e-39
20	0x001d351f	2.682286e-39
21	0x001949ba	2.322336e-39
22	0x80148da6	-1.887524e-39
23	0x0018a86e	2.264473e-39
24	0x0005f304	5.46355e-40
25	0x00001045	5.836e-42
26	0x800f36c9	-1.397186e-39
27	0x800e094f	-1.289036e-39
28	0x0017c014	2.181121e-39
29	0x8007f683	-7.3128e-40
30	0x800ed57b	-1.36228e-39
31	0x0019ee51	2.381379e-39
32	0x001a2f89	2.404775e-39
33	0x80131b71	-1.754719e-39
34	0x000fcfce	1.452079e-39
35	0x001a4f7b	2.416235e-39
36	0x0004d32e	4.43099e-40
37	0x0006b33c	6.1531e-40
38	0x0002e68a	2.66373e-40
39	0x000f6464	1.413546e-39
40	0x801acb3b	-2.460628e-39
41	0x0016f0fe	2.106833e-39
42	0x001369cc	1.782827e-39
43	0x000d74b9	1.235734e-39
44	0x000aad68	9.80561e-40
45	0x0013784c	1.788029e-39
46	0x80157935	-1.972026e-39
47	0x800add2c	-9.97696e-40
48	0x8016ebd1	-2.104976e-39
49	0x8013020c	-1.745609e-39
50	0x001863c1	2.239837e-39
51	0x801214f9	-1.660563e-39
52	0x0013691c	1.78258e-39
53	0x001b322b	2.497555e-39
54	0x00184320	2.228132e-39
55	0x80160cc4	-2.02496e-39
56	0x000312c1	2.82234e-40
57	0x8005b16a	-5.22822e-40
58	0x000121c6	1.03951e-40
59	0x801acbbd	-2.46081e-39
60	0x000d2b9a	1.209503e-39
61	0x801c6ec1	-2.611125e-39
62	0x8019b902	-2.362256e-39
63	0x80134a5d	-1.771551e-39
64	0x001a5efd	2.421798e-39
65	0x80071632	-6.5081e-40
66	0x000e977b	1.340038e-39
67	0x800c1b77	-1.111878e-39
68	0x80149145	-1.888823e-39
69	0x800e199a	-1.294881e-39
70	0x800d4783	-1.219515e-39
71	0x80011420	-9.9055e-41
72	0x0019781e	2.338977e-39
73	0x000f12a3	1.384218e-39
74	0x8000b0c5	-6.3413e-41
75	0x8003c404	-3.45824e-40
76	0x80048667	-4.15556e-40
77	0x80160f2f	-2.025828e-39
78	0x800ca7a7	-1.162168e-39
79	0x800f27eb	-1.391852e-39
80	0x000bf107	1.096655e-39
81	0x80130f02	-1.750258e-39
82	0x8004bcb4	-4.35036e-40
83	0x00048bbd	4.1747e-40
84	0x800a61e0	-9.53466e-40
85	0x800fc2ce	-1.447415e-39
86	0x0009fd50	9.17391e-40
87	0x80096dee	-8.65955e-40
88	0x800cbf61	-1.17068e-39
89	0x000e4c4e	1.31307e-39
90	0x00095929	8.58504e-40
91	0x800f6e99	-1.417207e-39
92	0x800b61e0	-1.045301e-39
93	0x8012cf80	-1.727476e-39
94	0x00121f47	1.664259e-39
95	0x8016810c	-2.066674e-39
96	0x00015629	1.22744e-40
97	0x001b71f9	2.520444e-39
98	0x8020fd5f	-3.029628e-39
99	0x801c4c7e	-2.598834e-39
100	0x800d6dbe	-1.23323e-39
101	0x801f5978	-2.878996e-39
102	0x8009ef06	-9.12265e-40
103	0x0001f681	1.80264e-40
104	0x800f48b4	-1.403613e-39
105	0x000b16e8	1.018408e-39
106	0x0012e224	1.734163e-39
107	0x801965b1	-2.332367e-39
108	0x000b8e63	1.061269e-39
109	0x801757e8	-2.143751e-39
110	0x8009b0f0	-8.89993e-40
111	0x001b5204	2.50898e-39
112	0x800dd960	-1.271841e-39
113	0x00118e50	1.612256e-39
114	0x801e97a9	-2.80947e-39
115	0x000b20c2	1.021942e-39
116	0x8005e171	-5.4005e-40
117	0x801bf549	-2.56755e-39
118	0x800bfa22	-1.099921e-39
119	0x00129635	1.706923e-39
120	0x0003c183	3.44925e-40
121	0x801263fa	-1.688904e-39
122	0x8001892c	-1.41043e-40
123	0x8016d82f	-2.097933e-39
124	0x001b2268	2.491901e-39
125	0x8004376e	-3.87226e-40
126	0x800715ab	-6.50621e-40
127	0x0012068f	1.655392e-39
128	0x80156679	-1.965306e-39
129	0x8014fd83	-1.927653e-39
130	0x800223e6	-1.96549e-40
131	0x80243fb7	-3.328934e-39
132	0x001a71a9	2.428496e-39
133	0x80049d43	-4.23757e-40
134	0x800e5abc	-1.318246e-39
135	0x8014d905	-1.914562e-39
136	0x8016c47a	-2.090863e-39
137	0x8008f616	-8.22963e-40
138	0x801cbd80	-2.639374e-39
139	0x8011b4a6	-1.626008e-39
140	0x801319cf	-1.754133e-39
141	0x800ed625	-1.362518e-39
142	0x801372f9	-1.786119e-39
143	0x80134402	-1.769271e-39
144	0x801afd98	-2.478695e-39
145	0x8015e49a	-2.010552e-39
146	0x0016c968	2.092632e-39
147	0x001b6a14	2.517612e-39
148	0x000cb140	1.165611e-39
149	0x0012aa2d	1.714086e-39
150	0x801af471	-2.475412e-39
151	0x80028146	-2.30046e-40
152	0x801068a6	-1.506909e-39
153	0x00018c0f	1.42079e-40
154	0x800e9cf3	-1.342e-39
155	0x801d7bb2	-2.707603e-39
156	0x00005147	2.9157e-41
157	0x001b46ab	2.504909e-39
158	0x0011fee8	1.652647e-39
159	0x0007b1fc	7.06697e-40
160	0x80036b13	-3.13917e-40
161	0x8005b309	-5.23403e-40
162	0x800fe413	-1.45935e-39
163	0x8006a614	-6.1059e-40
164	0x000a09e1	9.21899e-40
165	0x801b2ec2	-2.496332e-39
166	0x00137773	1.787725e-39
167	0x00020702	1.86185e-40
168	0x801cf444	-2.65902e-39
169	0x0005da11	5.37405e-40
170	0x0003c635	3.4661e-40
171	0x00108391	1.516565e-39
172	0x8000f17d	-8.663e-41
173	0x0005ab9e	5.20742e-40
174	0x801391c0	-1.79716e-39
175	0x800e9429	-1.338847e-39
176	0x00168de9	2.071289e-39
177	0x80112c6d	-1.57714e-39
178	0x80027170	-2.24365e-40
179	0x00063fd7	5.73914e-40
180	0x0015e863	2.01191e-39
181	0x0010a13e	1.527211e-39
182	0x8012663b	-1.689712e-39
183	0x80127b34	-1.697236e-39
184	0x00097588	8.68682e-40
185	0x80195c9c	-2.32911e-39
186	0x80140c9a	-1.84123e-39
187	0x000cd160	1.177136e-39
188	0x80155fdd	-1.962935e-39
189	0x0020b27e	3.002767e-39
190	0x80174db7	-2.140095e-39
191	0x800b04b4	-1.011878e-39
192	0x801f604e	-2.881448e-39
193	0x000f50e7	1.406555e-39
194	0x8018ef0a	-2.289803e-39
195	0x0012b289	1.717085e-39
196	0x00024387	2.07895e-40
197	0x801088d1	-1.518448e-39
198	0x80180501	-2.205847e-39
199	0x000bffef	1.102002e-39
200	0x00029af3	2.39256e-40
201	0x800ac433	-9.88738e-40
202	0x800c2555	-1.115418e-39
203	0x00110adf	1.565103e-39
204	0x0015292f	1.94332e-39
205	0x80011a8c	-1.01359e-40
206	0x8017ba55	-2.17906e-39
207	0x00114e44	1.58928e-39
208	0x80064a32	-5.77629e-40
209	0x801e130a	-2.761895e-39
210	0x0018cc9a	2.277449e-39
211	0x001238d3	1.673424e-39
212	0x001a45ba	2.412736e-39
213	0x00129bf4	1.708984e-39
214	0x80195425	-2.326073e-39
215	0x800c0a4d	-1.105721e-39
216	0x0000a683	5.9733e-41
217	0x00194309	2.319935e-39
218	0x000afcbf	1.009023e-39
219	0x0010cc34	1.542622e-39
220	0x80113fc5	-1.58408e-39
221	0x001e4ae5	2.781932e-39
222	0x00240c69	3.31053e-39
223	0x000320db	2.87293e-40
224	0x00018039	1.37833e-40
225	0x80078e64	-6.93929e-40
226	0x000a4f53	9.46811e-40
227	0x0020ac25	3.00049e-39
228	0x80027b81	-2.27976e-40
229	0x801b398c	-2.500202e-39
230	0x800ce622	-1.184582e-39
231	0x00161ad8	2.03001e-39
232	0x000b68e9	1.047825e-39
233	0x8012a77f	-1.713125e-39
234	0x800778bb	-6.86158e-40
235	0x801a1031	-2.393531e-39
236	0x0001751f	1.3385e-40
237	0x000e9974	1.340746e-39
238	0x000aea49	1.0024e-39
239	0x800c86d1	-1.150389e-39
240	0x801b478a	-2.505222e-39
241	0x801ab635	-2.453086e-39
242	0x0017fe38	2.203413e-39
243	0x800f18cd	-1.386429e-39
244	0x800e4f81	-1.314218e-39
245	0x801ff1fc	-2.933708e-39
246	0x0014acef	1.898747e-39
247	0x8020e0e7	-3.019416e-39
248	0x80122088	-1.664709e-39
249	0x8012c4f2	-1.72369e-39
250	0x8012dc73	-1.732121e-39
251	0x00091bac	8.36446e-40
252	0x801abe55	-2.456001e-39
253	0x8003ca27	-3.48025e-40
254	0x801585e1	-1.976572e-39
255	0x000ac008	9.87243e-40

value.0.bias f4 [64]
0	0x0020b7d6	3.004684e-39
1	0x000adc44	9.97371e-40
2	0x800e8af2	-1.335541e-39
3	0x800d1f8f	-1.205183e-39
4	0x800e31ae	-1.303519e-39
5	0x0013713b	1.785494e-39
6	0x800b5c25	-1.043246e-39
7	0x8017777c	-2.15508e-39
8	0x001d0908	2.666469e-39
9	0x80060cce	-5.55606e-40
10	0x801aa5a0	-2.447138e-39
11	0x0010df86	1.549553e-39
12	0x0000d483	7.6235e-41
13	0x80080fc0	-7.40334e-40
14	0x0009e48d	9.08508e-40
15	0x8004f2ea	-4.54483e-40
16	0x000d7760	1.236685e-39
17	0x801339bc	-1.765586e-39
18	0x001960bf	2.330593e-39
19	0x8012566e	-1.684044e-39
20	0x8001649a	-1.27925e-40
21	0x0000e351	8.1546e-41
22	0x000b7fc6	1.056027e-39
23	0x00054b09	4.86095e-40
24	0x800ea119	-1.343488e-39
25	0x8011e008	-1.641571e-39
26	0x0001c528	1.62562e-40
27	0x000f8d94	1.428321e-39
28	0x80008837	-4.8865e-41
29	0x801d175b	-2.671608e-39
30	0x000a9650	9.72277e-40
31	0x0008acdf	7.96698e-40
32	0x8021d3e4	-3.106583e-39
33	0x80115ae8	-1.593814e-39
34	0x000b5248	1.039707e-39
35	0x00113825	1.581344e-39
36	0x80087e63	-7.80023e-40
37	0x000dc203	1.26346e-39
38	0x001476d2	1.879335e-39
39	0x800f65c6	-1.414042e-39
40	0x000aca67	9.90963e-40
41	0x80102028	-1.480903e-39
42	0x8006f7ef	-6.39955e-40
43	0x8014e284	-1.917968e-39
44	0x00157a06	1.972319e-39
45	0x0018d7e7	2.281503e-39
46	0x80135a02	-1.777163e-39
47	0x00073b0c	6.6403e-40
48	0x8016dfcd	-2.100666e-39
49	0x000e5910	1.317647e-39
50	0x000f5a9a	1.410034e-39
51	0x000eba8b	1.352616e-39
52	0x000cf028	1.188178e-39
53	0x00139e2d	1.801617e-39
54	0x00072097	6.5454e-40
55	0x001b597e	2.511662e-39
56	0x00129167	1.7052e-39
57	0x800f39a7	-1.398214e-39
58	0x001be83e	2.562871e-39
59	0x8011c864	-1.63309e-39
60	0x000f9881	1.43224e-39
61	0x0008b3b1	7.99145e-40
62	0x8008df7c	-8.14855e-40
63	0x0010954e	1.522928e-39

value.2.weight f4 [1, 64]
0	0x800e7cae	-1.330424e-39
1	0x0018c2e0	2.27396e-39
2	0x80058106	-5.05462e-40
3	0x800318db	-2.84423e-40
4	0x80138556	-1.792706e-39
5	0x80079a5e	-6.98225e-40
6	0x80006691	-3.6794e-41
7	0x0016d9d7	2.098527e-39
8	0x0017bd2c	2.180078e-39
9	0x001551b4	1.957855e-39
10	0x800fa595	-1.436932e-39
11	0x800b7686	-1.052709e-39
12	0x00174dcc	2.140125e-39
13	0x800203d2	-1.85041e-40
14	0x8004660b	-4.03948e-40
15	0x801c193a	-2.580443e-39
16	0x00105d32	1.5028e-39
17	0x80146687	-1.87349e-39
18	0x0014358b	1.855918e-39
19	0x00007f3b	4.5642e-41
20	0x0012a504	1.712235e-39
21	0x000b120c	1.016664e-39
22	0x000b5e5c	1.04404e-39
23	0x801ab923	-2.454137e-39
24	0x001a89cf	2.43716e-39
25	0x00135a47	1.77726e-39
26	0x0011f1b3	1.647909e-39
27	0x00045cd0	4.00637e-40
28	0x801aeb2a	-2.472084e-39
29	0x800fa2bf	-1.435915e-39
30	0x0016859c	2.068311e-39
31	0x0005dda6	5.3869e-40
32	0x80099fbc	-8.83821e-40
33	0x00070f5d	6.4836e-40
34	0x800fff26	-1.469062e-39
35	0x800155ac	-1.22569e-40
36	0x000e247a	1.298782e-39
37	0x801405a7	-1.838738e-39
38	0x800ed36e	-1.361544e-39
39	0x800c5ef8	-1.136094e-39
40	0x800c2312	-1.114607e-39
41	0x800bfe64	-1.101449e-39
42	0x8006da36	-6.29292e-40
43	0x000f5d18	1.410928e-39
44	0x80190166	-2.296389e-39
45	0x8003cd0b	-3.49062e-40
46	0x800e3fea	-1.308625e-39
47	0x0014ea8a	1.920847e-39
48	0x0004d726	4.44523e-40
49	0x80064822	-5.7689e-40
50	0x00006270	3.5313e-41
51	0x001b7aeb	2.523653e-39
52	0x8018720e	-2.244967e-39
53	0x80095ddb	-8.60188e-40
54	0x8000ed9b	-8.5237e-41
55	0x000e6057	1.320257e-39
56	0x001066c0	1.506228e-39
57	0x001b8fe4	2.531177e-39
58	0x80199064	-2.347685e-39
59	0x801dfe64	-2.754488e-39
60	0x8020863e	-2.986893e-39
61	0x0006290a	5.65735e-40
62	0x800ad81e	-9.95883e-40
63	0x000af105	1.004816e-39
