pre-trained/dqn_dnn6000.pth (torch, 800169 bytes, 44 tensors)

feature.0.weight f4 [128, 81]
-0.09903661 -0.0642154 0.021765867 -0.09709955 -0.04613714 0.07243254 0.094719544 -0.10641366
-0.024782222 -0.045594648 -0.030224565 -0.012108649 -0.09956591 -0.011884562 0.043517757 -0.14104445
-0.06855164 -0.0074293357 -0.07396705 0.11311554 -0.037994698 0.024318766 -0.056790557 -0.051256184
0.015356212 0.027402095 -0.07065585 0.018773166 0.061018344 -0.0857334 0.060030542 0.13286746
0.034760926 0.086313814 0.22693545 0.20042573 -0.0015161923 0.019956969 0.063041694 -0.060899626
0.028245395 0.11915984 -0.016578244 -0.1853058 -0.07991128 0.054825563 -0.011176202 0.04679359
-0.021296069 -0.008751153 0.23833951 -0.049330577 -0.20373295 -0.17404933 -0.10358621 -0.029442642
0.022086669 -0.008282741 0.092357635 0.4055287 -0.29482338 -0.5211809 1.4979895 0.029505992
0.04083225 -0.009870226 -0.023268921 -0.074497454 -0.012800061 -0.20189096 -0.2090217 -0.3457186
0.02458728 -0.0070620985 -0.019206742 -0.09043864 0.091611385 -0.0891843 -0.09514577 -0.20978566
-0.10940628 0.08364312 0.1027096 0.11313848 0.10284243 0.064918265 0.04662994 0.056546826
0.11677627 0.20394574 0.13618013 -0.06200907 0.01786229 -0.06301523 0.05255464 0.1666396
-0.062108826 0.039049234 0.05251176 -0.061768588 0.013706984 -0.14631043 -0.41428035 -0.44900316
-0.049862474 0.16368118 0.08187718 0.12623395 0.22796053 0.02852256 -0.48036143 -0.63893497
-0.5799158 0.2755137 0.12397793 0.06377729 0.121615015 0.004545326 -0.122904465 -0.25764138
-0.5639292 -0.41002002 -0.17008314 0.19322906 0.18604024 0.1439351 0.258345 -0.07360819
-0.16087875 -0.056205433 0.23325644 0.01630834 0.03487489 -0.012483391 0.06274669 0.0044139517
0.054347597 0.03152787 0.10250754 0.16955285 -0.10448077 -0.0020691962 0.004337565 -0.035701264
-0.047215987 0.08621755 -0.0018312444 -0.007943664 -0.043255698 0.014951411 -0.09845017 0.01738627
0.033931814 0.13411595 0.085742265 0.04038242 -0.013036316 0.036632176 0.097354166 -0.009152704
0.1971812 0.049379505 -0.5162952 -0.04675308 0.046659112 -0.03280737 -0.04207799 -0.104332864
0.21038201 -0.039209336 0.071138866 -0.20699774 0.07815672 0.19808212 0.014071944 -0.04508531
0.029782712 -0.012987201 0.0131281605 -0.068085834 0.051020797 0.0805476 0.2106629 0.13226046
0.007272913 -0.048782896 0.032064263 -0.058834203 -0.19627926 0.083017364 0.10746643 0.040299557
-0.048691537 -0.020576555 -0.043194965 0.121899135 -0.050686494 -0.11954384 -0.33430365 -0.028345533
-0.08524957 0.046752796 -0.016284423 0.015169954 -0.06344974 0.025143214 -0.105484016 0.011571961
0.16328804 0.22338112 0.027531497 -0.02404935 -0.051239718 -0.029761761 0.044949625 0.09421941
-0.10227446 0.17835577 0.30925444 -0.035011414 -0.040942598 0.16122888 0.09308494 0.09260039
0.034673903 -0.20772511 0.96921754 0.25541788 -0.13592401 -0.25133473 0.2730288 0.18396874
0.099790275 0.06371831 -0.93254817 0.33747068 0.052857574 -0.12547284 -0.3994107 -0.061466247
0.004046382 0.08095127 -0.1416124 -0.11027095 -0.00743704 -0.06855714 -0.012033961 -0.023763834
-0.11389831 0.02020213 -0.029819528 -0.167093 -0.039375093 0.03626521 0.028526856 -0.024459237
00000000: b5d3 cabd 5d83 83bd 554e b23c 21dc c6bd
00000010: 4cfa 3cbd 8357 943d 52fc c13d 68ef d9bd
00000020: 1604 cbbc 74c1 3abd 8299 f7bc 5b63 46bc
00000030: 36e9 cbbd 77b7 42bc ad3f 323d f56d 10be
00000040: cd64 8cbd c971 f3bb 097c 97bd 1fa9 e73d
00000050: 54a0 1bbd 2638 c73c 379d 68bd 01f2 51bd
00000060: 9f98 7b3c 5c7a e03c 04b4 90bd 2fca 993c
00000070: 5fee 793d fe94 afbd 96e2 753d 680e 083e
00000080: 7961 0e3d 4cc5 b03d c461 683e 673c 4d3e
00000090: f9ba c6ba cc7c a33c 011c 813d e371 79bd
000000a0: e362 e73c 130a f43d 19cf 87bc cec0 3dbe
000000b0: 86a8 a3bd c590 603d 641c 37bc a3aa 3f3d
000000c0: 1875 aebc ff60 0fbc 460f 743e dc0e 4abd
000000d0: 5f9f 50be fd39 32be 0225 d4bd b231 f1bc
000000e0: 1aef b43c 55b4 07bc 0026 bd3d 75a1 cf3e
000000f0: 17f3 96be 1d6c 05bf 1fbe bf3f 8db6 f13c
00000100: b83f 273d bab6 21bc 779e bebc 1f92 98bd
00000110: 59b7 51bc 81bc 4ebe c909 56be 0702 b1be
00000120: 436b c93c 2d69 e7bb 7557 9dbc e537 b9bd
00000130: c09e bb3d 42a6 b6bd c9db c2bd 0dd2 56be
00000140: 6610 e0bd 164d ab3d 6959 d23d 26b5 e73d
00000150: 0d9f d23d def3 843d 09ff 3e3d a59d 673d
00000160: 6628 ef3d 27d7 503e ce72 0b3e 39fd 7dbd
00000170: f053 923c 210e 81bd 8943 573d 92a3 2a3e
00000180: d365 7ebd 17f2 1f3d 9216 573d 0f01 7dbd
00000190: 4293 603c 67d2 15be 8e1c d4be bee3 e5be
000001a0: 983c 4cbd 0a9c 273e 39af a73d 7943 013e
000001b0: 7c6e 693e 25a8 e93c eff1 f5be 3e91 23bf
000001c0: 5d75 14bf 2210 8d3e 24e8 fd3d ab9d 823d
000001d0: 4b11 f93d f5f0 943b 56b5 fbbd 92e9 83be
000001e0: aa5d 10bf 25ee d1be 462a 2ebe d7dd 453e
000001f0: 5581 3e3e b963 133e cc45 843e e4bf 96bd
00000200: 66bd 24be ab37 66bd c7da 6e3e 1199 853c
00000210: f9d8 0e3d 2387 4cbc 5681 803d e9a2 903b
00000220: 969b 5e3d 5e23 013d 79ef d13d 439f 2d3e
00000230: 04fa d5bd 5a9b 07bb 2222 8e3b 7d3b 12bd
00000240: 8d65 41bd d492 b03d 5e06 f0ba 2426 02bc
00000250: e32c 31bd c3f6 743c 3ea0 c9bd a76d 8e3c
00000260: 16fc 0a3d b155 093e a499 af3d 0968 253d
00000270: 4696 55bc 9f0b 163d 9f61 c73d 39f5 15bc
00000280: dee9 493e 2a42 4a3d ec2b 04bf 2880 3fbd
00000290: a01d 3f3d 0561 06bd f859 2cbd 78ac d5bd
000002a0: 626e 573e f899 20bd 41b1 913d 37f7 53be
000002b0: a110 a03d 0ad6 4a3e 038e 663c 60ab 38bd
000002c0: e0fa f33c 45c8 54bc 7f17 573c 9670 8bbd
000002d0: 2ffb 503d 24f6 a43d 04b8 573e 496f 073e
000002e0: 9e51 ee3b 93d0 47bd d155 033d 22fc 70bd
000002f0: 6efd 48be 0205 aa3d 5c17 dc3d 2611 253d
00000300: c770 47bd 2a90 a8bc 34ed 30bd 41a6 f93d
00000310: a49c 4fbd 67d3 f4bd d929 abbe e434 e8bc
00000320: 5497 aebd dc7f 3f3d e966 85bc 668b 783c
00000330: f0f1 81bd 24f9 cd3c 0108 d8bd 5398 3d3c
00000340: fb34 273e 05be 643e bc89 e13c 2403 c5bc
00000350: bde0 51bd f0ce f3bc 191d 383d 1bf6 c03d
00000360: 4675 d1bd e5a2 363e 9956 9e3e 2168 0fbd
00000370: 6db3 27bd 2f19 253e 51a3 be3d 46a5 bd3d
00000380: 3906 0e3d e4b5 54be a41e 783f 22c6 823e
00000390: aa2f 0bbe f2ae 80be 6eca 8b3e 4d62 3c3e
000003a0: d85e cc3d bf7e 823d 7abb 6ebf f5c8 ac3e
000003b0: 2f81 583d f47b 00be 8f7f ccbe 08c4 7bbd
000003c0: 8397 843b c8c9 a53d d702 11be bcd5 e1bd
000003d0: 6ab2 f3bb b067 8cbd 172a 45bc 5fac c2bc
000003e0: 8443 e9bd f07e a53c 1548 f4bc 6d1a 2bbe
000003f0: c747 21bd d48a 143d 27b1 e93c bd5e c8bc

feature.0.bias f4 [128]
-0.11700521 0.13942565 -0.22833171 -0.054983456 -0.17284459 -0.08967027 -0.018020598 -0.08112322
-0.1471936 -0.17190306 -0.16440076 -0.14425458 0.015842132 -0.06988529 -0.047775958 -0.1753206
0.15381753 -0.173041 0.029483682 0.03169358 -0.011894306 -0.18428876 0.0377018 -0.03873878
-0.08980121 -0.04253342 -0.07714882 0.020137552 -0.13859408 -0.21783428 -0.043739863 -0.09557184
-0.13270463 -0.13807307 -2.2241607e-19 -0.0068429545 -0.022024782 -0.13015877 -0.05831595 -0.28040412
-0.20077528 -0.002627233 0.04619473 0.029928777 -0.023004878 -0.23770991 -0.10513405 -0.272644
-0.07616669 0.075372644 -0.05898022 -0.14120258 -0.123553954 0.006445388 -0.21563277 -0.024654187
-0.20963857 0.003020015 -0.19203615 0.22399387 0.0038662709 -0.06871224 -0.14518613 -0.102036536
-0.05392789 -0.06498701 -0.061893262 -0.01677586 -0.08106468 -0.06879884 -1.8839316e-12 0.044339847
-0.007477624 -0.09209047 -4.501271e-19 0.08465497 -0.11860108 -0.14806296 -0.16171867 -0.048450716
0.020977415 -0.040380724 0.11227639 0.13053204 -0.15268002 -0.11012306 0.105502695 -0.20951599
-0.07043928 -0.039841164 -0.023385933 -0.07551023 0.05348758 -0.09659456 -0.15639956 -0.16150059
0.11619996 -0.13478088 -0.101256125 -0.14893748 -0.11738319 0.019916952 -0.38279697 -0.08925195
-0.106268704 -0.008803255 -0.08406127 0.06913306 -0.019940754 -0.12054477 -0.053093657 -0.20898284
-0.057991575 -0.08399429 -0.06537979 -0.058596417 -0.09970631 -0.035466835 -0.0037628766 -0.1566937
-0.05964439 0.078448854 -0.06493129 -0.14307149 -0.18345308 -0.112525366 -0.029370854 -0.12885839
00000000: 6da0 efbd 99c5 0e3e cacf 69be 5536 61bd
00000010: 2cfe 30be 0ca5 b7bd ef9f 93bc ee23 a6bd
00000020: ebb9 16be 5b07 30be ac58 28be 79b7 13be
00000030: 5cc7 813c 0520 8fbd b9b0 43bd 3e87 33be
00000040: 5882 1d3e a931 31be c387 f13c 21d1 013d
00000050: 56e0 42bc 31b6 3cbe 346d 1a3d 8eac 1ebd
00000060: b2e9 b7bd 8637 2ebd 3300 9ebd 82f7 a43c
00000070: 9beb 0dbe f30f 5fbe 9228 33bd 2bbb c3bd
00000080: b9e3 07be 0763 0dbe 914a 83a0 dd3a e0bb
00000090: 516d b4bc 5748 05be b5dc 6ebd 2191 8fbe
000000a0: 0998 4dbe a82d 2cbb af36 3d3d 322d f53c
000000b0: ba74 bcbc 3a6a 73be 8550 d7bd ff97 8bbe
000000c0: 48fd 9bbd f95c 9a3d 3e95 71bd 6997 10be
000000d0: db09 fdbd d533 d33b d6ce 5cbe 94f7 c9bc
000000e0: 7eab 56be 72eb 453b 20a5 44be a65e 653e
000000f0: 4361 7d3b 01b9 8cbd acab 14be 88f8 d0bd
00000100: 7ee3 5cbd e917 85bd ca83 7dbd 876d 89bc
00000110: 3d05 a6bd 68e6 8cbd e591 04ac b39d 353d
00000120: db06 f5bb ee99 bcbd a4da 04a1 965f ad3d
00000130: 1fe5 f2bd d19d 17be 9499 25be 4274 46bd
00000140: d4d8 ab3c 4266 25bd 2af1 e53d 31aa 053e
00000150: 2758 1cbe 3388 e1bd cc11 d83d 5c8b 56be
00000160: 7842 90bd 7d30 23bd db93 bfbc 1ca5 9abd
00000170: cb15 5b3d 5ed3 c5bd 3527 20be 6960 25be
00000180: 3ffa ed3d 0004 0abe 5f5f cfbd 1183 18be
00000190: 9966 f0bd e028 a33c f7fd c3be bac9 b6bd
000001a0: 68a3 d9bd 873b 10bc 5128 acbd a295 8d3d
000001b0: cb5a a3bc 2de0 f6bd bc78 59bd 99ff 55be
000001c0: 9388 6dbd 3305 acbd d7e5 85bd cc02 70bd
000001d0: d232 ccbd ac45 11bd 989a 76bb 5074 20be
000001e0: ad4d 74bd cba9 a03d b2fa 84bd 5581 12be
000001f0: 20db 3bbe b373 e6bd 259b f0bc 74f3 03be

feature.2.weight f4 [128, 128]
0.24165969 -0.058039185 0.27424946 0.08742604 0.09465882 0.14231434 0.041667663 0.10504716
0.09489729 0.041205466 0.04831817 0.09327698 -0.021450276 0.043131825 0.12933698 0.15823433
0.0755407 0.1971942 -0.019248828 0.017176898 0.028888592 0.25028777 0.16246508 -0.054213952
0.08450296 0.16002749 0.06814585 0.034872796 0.058861803 0.10145786 0.07484226 0.11284292
-0.09220081 0.060801957 2.682223e-39 0.23578766 0.068066135 0.042113956 0.1537685 0.18047892
0.07934043 0.0821285 -0.122522466 0.023412762 0.01776387 0.1498114 0.13395032 0.16647924
0.061955586 -0.09941508 0.1749956 -0.035108533 0.06377085 0.12120698 0.11626233 0.054190297
0.028392725 0.13284202 0.121478595 -0.117008716 -0.05500291 0.17570715 0.03805905 0.21644941
0.1285221 0.123266846 -0.017261215 0.23653051 0.029861012 0.08044228 -4.53766e-40 0.17857382
0.15510014 0.04887663 1.801535e-39 0.09275346 0.10103753 0.12480975 0.024938108 0.1707961
0.11025292 0.2331429 0.06902054 -0.0029132832 0.018325014 -0.073964894 0.05150992 0.24341117
0.021289954 3.6938896e-26 -0.02857095 0.16179472 0.024631117 0.066032626 0.27702582 -0.013656874
0.07202365 0.17665927 -0.004285214 0.078801654 0.13662224 0.18187802 0.19404845 0.08502465
0.23078461 -0.1339054 0.18444149 0.0389096 7.578851e-20 -0.002695503 0.148781 0.2505276
0.07258863 0.2915951 0.10598128 0.020685222 0.23644178 0.05515231 0.04441516 0.12564848
0.23227794 0.119425006 0.099584185 0.07587837 0.0896169 0.22205535 0.04248535 0.13630885
2.99551e-40 -7.15133e-40 -5.7354e-41 9.43026e-40 1.58094e-40 -6.58008e-40 6.05493e-40 -1.80798e-40
-7.99118e-40 2.96149e-40 7.64763e-40 2.11187e-40 -2.1618e-41 -6.96164e-40 3.16808e-40 -5.6871e-40
-6.09837e-40 1.61078e-40 -3.1911e-40 6.46071e-40 -8.41356e-40 9.54713e-40 7.59425e-40 -7.64115e-40
5.41181e-40 -4.14829e-40 2.4612e-40 7.06285e-40 6.93413e-40 1.0157e-40 -6.9225e-40 -7.95269e-40
-4.57349e-40 -3.13559e-40 -4.15502e-40 4.08578e-40 -1.40482e-40 -1.237688e-39 2.73609e-40 -8.42786e-40
6.69725e-40 9.13058e-40 8.21763e-40 -5.0014e-40 -3.75482e-40 9.90759e-40 8.90941e-40 7.90998e-40
6.43741e-40 3.87266e-40 3.07954e-40 -8.29408e-40 7.13213e-40 2.0978e-40 -6.48472e-40 7.68427e-40
5.92186e-40 -6.47376e-40 -9.19989e-40 8.8926e-41 -5.44626e-40 5.42356e-40 1.402043e-39 6.84749e-40
8.54035e-40 2.53107e-40 3.57225e-40 8.2537e-40 -1.7234e-40 3.13145e-40 2.487208e-39 5.90178e-40
1.49974e-40 -6.80277e-40 -2.06986e-40 -1.78192e-40 1.68072e-40 -8.02549e-40 -8.10288e-40 2.49693e-40
-8.9425e-41 7.14773e-40 -1.32184e-40 5.95986e-40 8.53482e-40 -9.54806e-40 4.81619e-40 -1.52341e-40
-4.54458e-40 2.318321e-39 8.34269e-40 1.40106e-40 6.04411e-40 7.30086e-40 -8.33833e-40 -8.01292e-40
-2.11373e-40 -7.39743e-40 -8.06344e-40 -5.86815e-40 -6.43695e-40 7.5122e-40 8.20654e-40 -9.25003e-40
9.27319e-40 6.89998e-40 3.54821e-40 -2.1209e-40 2.945564e-39 1.09818e-40 -6.17858e-40 1.165383e-39
-7.19878e-40 -1.36442e-40 5.5469e-41 3.7364e-41 9.14314e-40 5.66245e-40 -7.7383e-41 -9.50007e-40
-1.58282e-40 -5.36745e-40 -7.30421e-40 -2.000414e-39 -3.33054e-40 1.042572e-39 6.76788e-40 -2.0173e-41
00000000: a375 773e 7fba 6dbd 6d6a 8c3e 6c0c b33d
00000010: 7cdc c13d daba 113e b6ab 2a3d f722 d73d
00000020: 8359 c23d 10c7 283d 46e9 453d 0008 bf3d
00000030: 7db8 afbc ffaa 303d ea70 043e 2e08 223e
00000040: 15b5 9a3d 47ed 493e b8af 9dbc 91b6 8c3c
00000050: c5a7 ec3c b825 803e 3f5d 263e 730f 5ebd
00000060: e30f ad3d 3fde 233e 0d90 8b3d c7d6 0e3d
00000070: 1319 713d 23c9 cf3d e646 993d 301a e73d
00000080: c7d3 bcbd 790b 793d f234 1d00 5272 713e
00000090: 4266 8b3d af7f 2c3d 7d75 1d3e 77cf 383e
000000a0: 3c7d a23d fd32 a83d 0fed fabd 1fcc bf3c
000000b0: 8985 913c 2968 193e 462a 093e 8979 2a3e
000000c0: 24c5 7d3d 229a cbbd 0c32 333e f7cd 0fbd
000000d0: 4b9a 823d 5d3b f83d f21a ee3d a5f6 5d3d
000000e0: dc97 e83c bd07 083e c5c9 f83d 44a2 efbd
000000f0: bb4a 61bd 93ec 333e cee3 1b3d eaa4 5d3e
00000100: 4c9b 033e 5473 fc3d 6467 8dbc 0e35 723e
00000110: 159f f43c ecbe a43d eaf0 0480 0edc 363e
00000120: 92d2 1e3e dc32 483d f29d 1300 87f5 bd3d
00000130: c4ec ce3d 419c ff3d 014b cc3c 2ce5 2e3e
00000140: 48cc e13d 03bd 6e3e a45a 8d3d c8ec 3ebb
00000150: 571e 963c e87a 97bd 11fc 523d c740 793e
00000160: 4568 ae3c 9de9 3615 a00d eabc 84ad 253e
00000170: 32c7 c93c 1d3c 873d 54d6 8d3e 15c1 5fbc
00000180: 2381 933d 2be6 343e fb6a 8cbb c362 a13d
00000190: b3e6 0b3e 3b3e 3a3e a3b4 463e 6721 ae3d
000001a0: cd52 6c3e 7f1e 09be 3bde 3c3e ac5f 1f3d
000001b0: 58f3 b21f 09a7 30bb 0c5a 183e 2745 803e
000001c0: 59a9 943d f44b 953e b70c d93d 0e74 a93c
000001d0: cb1d 723e 63e7 613d acec 353d ffa9 003e
000001e0: 45da 6d3e 1995 f43d cbf2 cb3d 1e66 9b3d
000001f0: 1189 b73d 7a62 633e 1e05 2e3d 8c94 0b3e
00000200: 0743 0300 80c9 0780 e19f 0080 c644 0a00
00000210: b4b8 0100 422a 0780 de97 0600 fef7 0180
00000220: 9eb3 0880 8b39 0300 d953 0800 b44c 0200
00000230: 433c 0080 9f94 0780 2273 0300 5531 0680
00000240: faa3 0680 05c1 0100 8d79 0380 fc08 0700
00000250: 5c29 0980 5a65 0a00 f844 0800 0b52 0880
00000260: 98e4 0500 6084 0480 15ae 0200 d6b0 0700
00000270: f48c 0700 231b 0100 b689 0780 e3a8 0880
00000280: e7fa 0480 136a 0380 4086 0480 f372 0400
00000290: 9b87 0180 2c7a 0d80 b6fa 0200 582d 0980
000002a0: ec4a 0700 3cf1 0900 bef2 0800 3072 0580
000002b0: b116 0480 d5c9 0a00 95b3 0900 fb9c 0800
000002c0: 7d02 0700 8a37 0400 735a 0300 0d08 0980
000002d0: 26c4 0700 c848 0200 ad0f 0780 105e 0800
000002e0: c672 0600 9f0c 0780 8e04 0a80 e4f7 0000
000002f0: 32ee 0580 dee7 0500 5344 0f00 cd74 0700
00000300: b44c 0900 8fc1 0200 cce3 0300 ccfc 0800
00000310: 6ae0 0180 ec68 0300 5315 1b00 2d6d 0600
00000320: 11a2 0100 5668 0780 fe40 0280 baf0 0180
00000330: 84d4 0100 2ebd 0880 c1d2 0880 0bb8 0200
00000340: 48f9 0080 7fc8 0700 7a70 0180 5e7d 0600
00000350: 294b 0900 9c65 0a80 8f3e 0500 aaa8 0180
00000360: d8f2 0480 893e 1900 9a15 0900 8f86 0100
00000370: da94 0600 2ff3 0700 6314 0980 adb9 0880
00000380: 394d 0280 1a0e 0880 c2c7 0880 cd63 0680
00000390: 5c02 0780 192e 0800 a6ef 0800 8812 0a80
000003a0: fd18 0a00 6f83 0700 19dd 0300 384f 0280
000003b0: 0913 2000 2132 0100 56ba 0680 9db0 0c00
000003c0: bad6 0780 587c 0180 a09a 0000 2868 0000
000003d0: bcf4 0900 762a 0600 b6d7 0080 3c58 0a80
000003e0: 3ab9 0180 3ad8 0580 1ef4 0780 57c8 1580
000003f0: 6ba0 0380 445a 0b00 9c5e 0700 3c38 0080

feature.2.bias f4 [128]
-0.4585457 -1.0145422e-12 -0.22518915 -0.044195984 0.1681061 -0.016685214 -0.07688859 0.3283141
-0.07926756 0.019690208 -0.58101046 -0.04752954 -0.23421066 0.05257404 -0.085031494 0.03445804
-0.1608414 0.1833938 0.32316184 0.06566578 -0.00036479783 -0.16440271 -3.3163843e-15 -0.0005975697
-0.014507224 -0.4701672 -0.017210666 -0.033926748 -0.049182247 -6.3878683e-06 -0.040563837 -0.07712645
0.26970837 -0.16533884 0.14112842 0.00043791143 -0.100050084 -0.27749303 -0.4785344 -6.251154e-10
-0.3797899 0.1587136 0.3850682 0.11257852 0.17249104 -0.07656693 -1.9885436e-13 -1.0863721e-34
-0.012314416 -0.14922369 -0.23926766 -0.14119712 -0.0005168989 -0.26191846 -0.2475862 0.013669249
0.10948364 -0.01879811 0.118749864 -0.13543613 -1.416638e-12 0.05245049 -0.5002168 0.12923758
-0.108549275 -3.3139559e-12 -0.057563107 -1.6564646e-06 -0.019577904 0.054799333 0.25900942 0.07980352
-0.4553588 -1.3355896e-28 -5.099076e-09 0.03863181 -0.11752923 0.30012742 -0.14550567 0.057146236
-0.0577365 -1.7020663e-16 0.20984921 -0.10974656 -0.07923625 -0.1641123 -0.31458172 -0.018306611
-0.36502692 -0.14152302 0.4656587 -0.25516465 -0.103080645 0.0065815677 -0.19919461 0.48125598
0.23187877 0.26263988 0.12880985 0.2776997 -0.23801 0.10781014 -0.036946483 0.28857103
0.034952927 -0.020093955 -0.24988668 -0.067252964 0.0051084594 0.4033616 0.012475157 0.052425627
-0.29004425 -4.8806277e-17 -0.033411454 -0.21301869 0.0030275949 -0.09361386 0.17219257 0.05694757
0.40624747 0.35742798 0.21482047 -0.38509402 -1.0114554e-07 -0.040494848 -0.058459263 -0.41452748
00000000: 81c6 eabe bcc8 8eab fc97 66be d906 35bd
00000010: 0124 2c3e 6eaf 88bc c477 9dbd c918 a83e
00000020: 0857 a2bd 5c4d a13c 1abd 14bf 56ae 42bd
00000030: ebd4 6fbe e057 573d fe24 aebd e023 0d3d
00000040: 9cb3 24be 96cb 3b3e 7875 a53e c87b 863d
00000050: 5642 bfb9 2f59 28be 7ef8 6ea7 39a6 1cba
00000060: b5af 6dbc c1b9 f0be 62fd 8cbc c6f6 0abd
00000070: 5373 49bd 5f57 d6b6 4426 26bd 79f4 9dbd
00000080: 3717 8a3e 964e 29be f883 103e 7a97 e539
00000090: 0fe7 ccbd 9113 8ebe 7602 f5be 96d4 2bb0
000000a0: d273 c2be d185 223e a927 c53e 918f e63d
000000b0: 7ea1 303e 1fcf 9cbd dee3 5faa 5467 1087
000000c0: 67c2 49bc 18ce 18be 9502 75be fa95 10be
000000d0: 7f80 07ba 2d1a 86be 3d87 7dbe fcf4 5f3c
000000e0: f538 e03d 7efe 99bc 2133 f33d c5af 0abe
000000f0: c35f c7ab 53d6 563d 350e 00bf db56 043e
00000100: 154f debd ec32 69ac 4bc7 6bbd b153 deb5
00000110: d761 a0bc 4475 603d e29c 843e 0770 a33d
00000120: ca24 e9be 5c4e 2991 f233 afb1 643c 1e3d
00000130: 2ab3 f0bd 4daa 993e 70ff 14be 2c12 6a3d
00000140: 1c7d 6cbd 213c 44a5 b6e2 563e cec2 e0bd
00000150: 9d46 a2bd 0e0d 28be db10 a1be bff7 95bc
00000160: cfe4 babe 69eb 10be d16a ee3e f1a4 82be
00000170: f21b d3bd 31aa d73b acf9 4bbe 2f67 f63e
00000180: a171 6d3e bc78 863e bbe6 033e a82e 8e3e
00000190: e5b8 73be 90cb dc3d 3255 17bd 95bf 933e
000001a0: cd2a 0f3d 149c a4bc 4be2 7fbe ecbb 89bd
000001b0: dd64 a73b 6985 ce3e 9a64 4c3c 41bc 563d
000001c0: ae80 94be 4814 61a4 73da 08bd 9221 5abe
000001d0: 9d6a 463b a0b8 bfbd 4053 303e db41 693d
000001e0: abff cf3e cd00 b73e e6f9 5b3e 0b2b c5be
000001f0: 5935 d9b3 eddd 25bd fb72 6fbd f23c d4be

advantage.0.weight f4 [64, 128]
-1.5603711e-06 1.71727e-39 -6.050477e-17 -7.2924894e-07 -1.2590484e-05 -4.5247626e-07 -5.718285e-10 0.0012836904
-1.506447e-07 -1.1504229e-11 -0.0002743544 2.2400329e-07 -1.480387e-08 -6.746979e-11 -2.4914222e-12 -5.7893894e-09
-3.3305902e-08 -1.9880794e-10 -7.901009e-08 -4.0099696e-16 1.630475e-39 -2.405485e-10 -1.859076e-39 6.8906e-41
-6.7123227e-07 -5.558226e-06 1.785792e-39 5.423e-42 0.00013202794 -1.298966e-39 -4.5895776e-10 -4.4061418e-11
-3.7436241e-06 -2.7457174e-08 -1.2335177e-15 -1.389444e-12 -4.177535e-07 -5.9830217e-07 -1.0224264e-06 1.743672e-39
-1.194421e-07 -3.2942283e-26 -1.0184351e-29 -2.7595823e-05 -2.313845e-07 -6.644387e-10 1.82107e-39 -2.852224e-39
-1.174256e-10 -7.228675e-11 -1.0423639e-09 -8.46252e-15 -1.793331e-39 -1.2092143e-07 5.404946e-11 -7.65093e-09
-1.2647825e-18 -4.196347e-06 -2.5598778e-08 2.2511803e-28 -2.47329e-40 -0.0005555144 -3.506294e-07 -5.9397307e-11
1.38322e-39 2.51976e-39 -3.389958e-07 1.429148e-39 -4.647126e-06 -1.5754742e-05 -2.862352e-14 2.4684972e-12
-4.987947e-07 8.11299e-40 5.82074e-40 -2.766884e-07 -6.98963e-07 -2.2813282e-21 -4.792416e-10 -7.3669066e-12
-7.79187e-08 1.346234e-39 -1.863793e-11 -5.5898507e-08 1.5515603e-06 -7.9998035e-06 -1.5836982e-06 -4.482595e-05
-2.741879e-06 -1.1944095e-06 -7.816119e-10 -3.0806154e-06 -2.2502542e-12 -7.48695e-12 -4.7531173e-10 -2.63269e-06
-1.5186288e-17 -5.7414165e-13 -8.356192e-14 -1.13744534e-07 -1.4026107e-11 -1.6775001e-14 -1.6803409e-12 7.420773e-10
2.6889434e-28 6.64983e-40 -6.439921e-09 -4.1601385e-07 -3.757351e-27 -8.663535e-11 -6.4553286e-11 -2.6603455e-12
-1.41944305e-08 1.029401e-39 -1.003648e-39 -7.087488e-10 -1.5470502e-09 2.815943e-39 -6.582697e-06 -4.396931e-09
-3.2792423e-06 -0.0002700202 6.2635097e-10 -8.973741e-06 2.572167e-39 -7.1258575e-07 -6.3912425e-10 -1.2378647e-06
0.25960612 -3.56534e-40 0.136059 0.20229006 -0.08654929 -0.052614488 0.07437037 0.010488527
0.2001452 0.14837158 0.2818821 -0.1941761 -0.06692813 -0.03301259 -0.11427867 -0.28103292
0.15415144 -0.2612907 -0.2703033 0.011414748 8.711274e-07 0.16043402 -9.9851e-41 -2.4054607e-08
0.0033960757 0.29071894 0.00048089752 0.06438764 0.3650855 -3.6366414e-21 0.10914793 -0.39183503
-0.26503226 -0.61244804 -0.29546037 0.0742452 0.23188448 0.29779014 0.09244155 3.06542e-40
0.16627204 -0.26286915 -0.11667605 0.0009846711 -0.1463642 0.11194604 -4.63953e-40 -2.17877e-40
0.088252634 0.07491994 -0.0011045065 0.08773735 -7.784296e-14 0.039083496 -0.3872371 -0.045274407
0.04059261 -0.1770389 -0.018720955 0.06974528 -4.52317e-40 0.16842091 0.49132806 0.17595254
-0.08829112 -6.03611e-40 0.11453576 1.3124416e-30 0.57297164 -0.19984812 0.23361947 -0.18804803
0.16427866 -7.2803e-40 6.43743e-40 -0.15321188 -0.031257942 -0.19007578 -0.09698967 -0.031306796
-0.016679136 -1.50328e-40 -0.059494812 -0.019568158 0.042660937 0.40920746 0.0676049 0.12096981
-0.16182932 0.021654539 -0.209561 0.0012677882 0.028544387 -0.48479795 0.01478629 -0.011983286
-0.22002453 -0.21310543 -0.11844487 -0.31704342 0.2950507 0.05834113 0.1339911 -0.12716226
-0.060041446 -0.007240287 -0.327162 -0.009509621 -0.16915569 -0.3804175 -0.07126981 0.3131288
0.01844216 6.67766e-40 4.0243154e-05 0.13359377 0.14004408 -0.14635715 -0.07652091 -0.06837397
-0.23788919 0.04076861 -0.19733272 0.10343512 -5.666264e-23 -0.13888386 -0.0674537 0.11245401
00000000: f16d d1b5 0db3 1200 b683 8ba4 9bc1 43b5
00000010: b83b 53b7 ddeb f2b4 da2e 1db0 8141 a83a
00000020: e6c0 21b4 7162 4aad 39d7 8fb9 8e85 7034
00000030: 1c54 7eb2 1d5e 94ae 7951 2fac 02ec c6b1
00000040: 3a0c 0fb3 7697 5aaf 42ac a9b3 b528 e7a5
00000050: 1ac1 1100 313e 84af 593e 1480 15c0 0000
00000060: bb2e 34b5 cc80 bab6 1072 1300 1e0f 0000
00000070: fb70 0a39 fd24 0e80 9050 fcaf bfc8 41ae
00000080: f93a 7bb6 f7da ebb2 c5c4 b1a6 ff8b c3ab
00000090: 9b47 e0b4 039b 20b5 4e3a 89b5 a6fc 1200
000000a0: ff3f 00b4 4e1f 2395 2c90 4e8f 947d e7b7
000000b0: 7d72 78b4 b8a3 36b0 67d4 1300 d70e 1f80
000000c0: 5e1c 01af d3f5 9eae eb42 8fb0 7c72 18a8
000000d0: 1487 1380 a1d6 01b4 48b6 6d2e 2571 03b2
000000e0: 22a6 baa1 59ce 8cb6 4fe4 dbb2 7daf 8e11
000000f0: 74b1 0280 f19f 11ba 233e bcb4 b69d 82ae
00000100: db0f 0f00 1170 1b00 3aff b5b4 e28f 0f00
00000110: 82ee 9bb6 0d29 84b7 ace8 00a9 7eb4 2d2c
00000120: e9e4 05b5 92d5 0800 9656 0600 c48b 94b4
00000130: 5fa0 3bb5 4e5f 2c9d a1bb 03b0 9999 01ad
00000140: 4254 a7b3 c1a8 0e00 e3f0 a3ad 0f15 70b3
00000150: 353f d035 e536 06b7 758f d4b5 7f03 3cb8
00000160: 1f01 38b6 994f a0b5 0cd9 56b0 92bc 4eb6
00000170: fa58 1eac 3ab6 03ad 17a7 02b0 45ad 30b6
00000180: 9c11 8ca3 449b 21ab 2b2a bca9 b843 f4b3
00000190: f8bf 76ad 8518 97a8 a97c ecab 0cfb 4b30
000001a0: 9a6e aa11 b43d 0700 2546 ddb1 8258 dfb4
000001b0: 11d8 9493 5e83 beae 45f4 8dae 8634 3bac
000001c0: c4db 73b2 8d35 0b00 c3ed 0a80 c3d1 42b0
000001d0: fd9f d4b0 b4a9 1e00 f0e0 dcb6 d013 97b1
000001e0: f410 5cb6 7f91 8db9 882b 2c30 ed8d 16b7
000001f0: 2802 1c00 8548 3fb5 5fae 2fb0 b524 a6b5
00000200: 18eb 843e dfe1 0380 0d53 0b3e 2025 4f3e
00000210: c140 b1bd 4a82 57bd 7e4f 983d 12d8 2b3c
00000220: ddf2 4c3e b8ee 173e da52 903e 19d6 46be
00000230: 9e11 89bd 3638 07bd ef0a eabd 8ce3 8fbe
00000240: e0d9 1d3e e5c7 85be 3265 8abe ec04 3b3c
00000250: 6bd7 6935 d148 243e 5816 0180 a4a0 ceb2
00000260: b290 5e3b 1dd9 943e f920 fc39 abdd 833d
00000270: 7dec ba3e 7063 899d f388 df3d 9a9e c8be
00000280: 4fb2 87be 65c9 1cbf 9546 97be de0d 983d
00000290: 2073 6d3e f377 983e ff51 bd3d 8456 0300
000002a0: 3843 2a3e c996 86be daf3 eebd 1410 813a
000002b0: 7fe0 15be f743 e53d 500d 0580 5a5f 0280
000002c0: ccbd b43d a06f 993d 17c5 90ba a4af b33d
000002d0: 6949 afa9 0416 203d f143 c6be a871 39bd
000002e0: 7044 263d af49 35be b05c 99bc 9dd6 8e3d
000002f0: e0ec 0480 8876 2c3e 5a8f fb3e e72c 343e
00000300: fad1 b4bd 9f92 0680 b991 ea3d b1f4 d40d
00000310: 45ae 123f fca4 4cbe f139 6f3e aa8f 40be
00000320: aa38 283e 74ed 0780 7e02 0700 93e3 1cbe
00000330: 5408 00bd 3aa3 42be 85a2 c6bd 8e3b 00bd
00000340: afa2 88bc 0ea3 0180 d5b0 73bd 674d a0bc
00000350: 3cbd 2e3d a483 d13e 7074 8a3d 05bf f73d
00000360: 96b6 25be dc64 b13c 2997 56be ea2b a63a
00000370: ebd5 e93c 7037 f8be 3242 723c 8b55 44bc
00000380: 1c4e 61be 4f38 5abe 3993 f2bd 8453 a2be
00000390: e310 973e 1cf7 6e3d f734 093e d336 02be
000003a0: 05ee 75bd ee3f edbb c781 a7be 3ece 1bbc
000003b0: 2637 2dbe 15c6 c2be e8f5 91bd 6b52 a03e
000003c0: 0314 973c 7645 0700 c2ca 2838 cecc 083e
000003d0: b767 0f3e a6de 15be ffb6 9cbd a707 8cbd
000003e0: 3999 73be fcfc 263d 9711 4abe cbd5 d33d
000003f0: 7a00 899a 9237 0ebe 2a25 8abd 4a4e e63d

advantage.0.bias f4 [64]
-0.0093357675 -0.183528 -0.037585225 -0.0013453157 0.23208115 -1.9240648e-14 -1.1080369e-13 -0.03071263
0.050401643 -8.986318e-09 0.017389255 -0.016312698 0.025962496 -2.0019908e-11 0.01698605 0.046917506
0.11029494 -7.7209604e-13 0.00023573574 0.13387842 -0.19443741 -0.06996498 0.092633404 0.12512888
0.07185244 -1.2998378e-11 -0.000484453 -0.35506487 0.0027828407 0.13265288 0.1935773 -3.5801324e-28
0.020962764 -0.28689608 -0.12455164 -0.013856403 -0.039708234 -7.06393e-14 0.00691699 -0.03469651
0.014325056 -2.9068106e-05 0.21336102 -1.8458603e-12 -0.081671335 0.061446197 -0.0053870524 -0.00012534481
-0.29476807 0.20805621 -0.1486197 -1.4637471e-14 0.11583175 0.060568746 -0.044269856 0.052870825
-0.27418607 -0.12320647 0.0291972 0.12958515 0.042557757 -5.3225893e-16 0.11766754 0.13467464
00000000: 0cf5 18bc c4ee 3bbe f7f2 19bd 4e55 b0ba
00000010: aea6 6d3e ea4d ada8 fa81 f9a9 0e99 fbbc
00000020: f471 4e3d 3f62 1ab2 e973 8e3c 35a2 85bc
00000030: 4daf d43c d318 b0ad 5426 8b3c 922c 403d
00000040: 50e2 e13d 6253 59ab d52f 7739 6d17 093e
00000050: 9a1a 47be cd49 8fbd 95b6 bd3d c921 003e
00000060: 5f27 933d 7eab 64ad 2efe fdb9 10cb b5be
00000070: 5260 363b 28d6 073e 2139 463e f8ea e291
00000080: 1aba ab3c 0be4 92be ee14 ffbd f705 63bc
00000090: 1aa5 22bd c910 9fa9 eba7 e23b ed1d 0ebd
000000a0: a4b3 6a3c 48d7 f3b7 507b 5a3e 10e4 01ac
000000b0: 4d43 a7bd 02af 7b3d df85 b0bb fe6e 03b9
000000c0: d7eb 96be b00c 553e c32f 18be b6d7 83a8
000000d0: 3239 ed3d ef16 783d 4f54 35bd 148f 583d
000000e0: 1e62 8cbe ac53 fcbd f72e ef3c f8b1 043e
000000f0: 0b51 2e3d c769 19a6 aefb f03d 26e8 093e

advantage.2.weight f4 [81, 64]
0.017929446 0.25949124 -0.018715432 0.002392558 -0.06603399 -0.00022491188 4.0106332e-07 0.19141488
0.070555724 -1.2343329e-14 0.12441003 -0.0019720916 0.10496629 -4.7632936e-15 0.10524847 0.074735515
-0.0027182768 -1.7779648e-08 0.10313649 0.038801923 0.18972437 0.11623943 -0.41332966 -0.098476395
0.15391508 -1.1479018e-05 1.1226838e-05 0.23698127 0.117085814 -0.01406188 0.015942438 1.0126065e-06
0.12583181 0.23232135 0.1107704 0.105977066 0.1499008 -0.00045768064 0.15548627 0.06185735
0.099523276 3.716803e-08 -0.029629055 -7.4946466e-10 0.079212524 -0.14845635 0.14507844 -0.002411579
0.27641457 -1.2325215 0.12624347 4.885493e-09 0.014777369 0.09332978 0.06477409 -1.113908
0.15025933 0.099822365 0.0075069168 0.043063127 -0.07271584 -8.566705e-24 -0.027448075 0.067880385
-9.9949e-08 0.10136805 0.002598602 7.801676e-06 0.026205894 -8.784074e-31 2.259836e-39 -0.117946066
-0.101496056 -1.38541e-39 0.01266894 1.4028995e-08 -0.16665749 4.5814068e-26 -0.024272338 0.001897157
-0.10028625 -5.95286e-40 -0.19975132 -0.03466581 -0.07954441 -0.108761035 -0.061136864 0.076431096
0.09482821 -4.3624e-40 6.5214255e-07 -0.3536465 0.102593504 -0.082183905 -0.07236722 4.8736e-40
0.0493516 -0.18881924 -0.1301843 0.016835803 0.0066540116 2.46735e-40 -0.076797895 0.00043782196
-0.14957719 -1.7945785e-13 0.064597644 -1.1545379e-21 -0.2694964 0.12498199 -0.0048374156 -9.566943e-28
-0.1424274 -0.0037623788 -0.010239332 -5.07929e-40 -0.0039102193 0.06269062 0.027454501 -0.055144396
-0.270947 -0.21082577 0.112054184 -0.11102184 -0.017679946 3.23633e-40 0.05273665 -0.033197805
-0.0022118266 -0.6177865 0.0018427202 -0.00049616914 -0.07035999 2.0992841e-14 1.6927342e-14 -0.38612744
0.06929335 2.0731057e-17 -0.95997614 9.255376e-08 -0.43984506 4.7631913e-19 -0.106835864 0.061532702
-0.22074956 1.3295644e-25 -0.63830173 0.10303676 -0.12151957 0.049070284 -0.7418475 -0.107622854
0.39296386 -5.665552e-09 3.7970653e-06 0.06993147 0.13689168 0.047017302 0.2824315 7.398526e-30
-0.22603843 0.035752557 -0.09201046 0.5394615 0.26239607 4.159763e-11 0.18287766 0.025483549
0.0942474 1.0848312e-13 0.105947286 -6.4892393e-14 -0.07190633 0.2850144 0.03568105 -1.1959674e-08
0.110321976 0.102271676 0.16635709 -6.488214e-25 -0.06354032 0.039895393 -0.0056799026 -0.9105233
0.13161471 0.12595153 0.17222421 0.10547906 0.10295998 5.345438e-21 0.31812483 0.096628785
0.0015213249 -0.13345675 -0.025418326 0.0006795641 0.0035244308 -2.682559e-19 4.1647e-25 -0.021076484
0.087722264 -5.928481e-16 -1.661858 -2.561395e-07 -0.06786038 2.6499877e-24 0.080034375 0.056166474
0.038085554 1.1146192e-19 -0.7393696 0.2940713 -1.1468253 -0.15362948 -0.020816026 -0.11201642
0.17880884 2.0822057e-09 -8.538817e-06 0.31235105 -0.029420765 -0.05387904 0.36135674 -4.1225e-40
-0.5675512 0.06430834 -0.28091648 0.045637716 0.019887477 -1.3609896e-18 0.23716842 0.0010712645
0.39774907 -1.3400814e-09 0.02798738 -4.1585518e-13 0.06410921 0.121366926 -0.016360901 1.1879031e-06
-0.16386278 0.18171923 0.03505653 1.1736011e-37 0.04515523 -0.063949846 0.030811772 -0.2176688
0.18179561 0.2369233 0.17735982 0.1581617 0.07620094 -3.36427e-40 0.2058759 0.07276885
00000000: c6e0 923c 09dc 843e 1b51 99bc 76cc 1c3b
00000010: d43c 87bd 53d6 6bb9 b951 d734 4302 443e
00000020: 857f 903d 8f5b 5ea8 b0ca fe3d 353e 01bb
00000030: 91f8 d63d a19d aba7 838c d73d ef0e 993d
00000040: 1e25 32bb dcb9 98b2 3939 d33d c4ee 1e3d
00000050: 1b47 423e f00e ee3d f29f d3be fead c9bd
00000060: ea9b 1d3e 0296 40b7 e75a 3c37 38ab 723e
00000070: b0ca ef3d cd63 66bc b799 823c e5e8 8735
00000080: 0eda 003e a6e5 6d3e 97db e23d 810a d93d
00000090: 987f 193e dbf4 efb9 cb37 1f3e 225e 7d3d
000000a0: dcd2 cb3d aea2 1f33 a2b8 f2bc e302 4eb0
000000b0: 2d3a a23d f104 18be 718f 143e 950b 1ebb
000000c0: 3686 8d3e 44c3 9dbf f845 013e 40dd a731
000000d0: c71c 723c af23 bf3d 47a8 843d 8a94 8ebf
000000e0: 95dd 193e ab6f cc3d 95fc f53b f662 303d
000000f0: 0bec 94bd 45b4 2599 c9da e0bc df04 8b3d
00000100: 8ba3 d6b3 0d9a cf3d 4f4d 2a3b f1e3 0237
00000110: bead d63c 9e87 8e8d 819b 1800 b58d f1bd
00000120: 2add cfbd f615 0f80 6391 4f3c 2c04 7132
00000130: 43a8 2abe 3bdc 6215 c8d6 c6bc 07aa f83a
00000140: e162 cdbd 6a7b 0680 9c8b 4cbe bdfd 0dbd
00000150: 2ee8 a2bd 1bbe debd a66a 7abd e887 9c3d
00000160: 4b35 c23d 0fc0 0480 e50e 2f35 2711 b5be
00000170: 8b1c d23d 0950 a8bd 4435 94bd 904e 0500
00000180: e724 4a3d d559 41be 084f 05be 3deb 893c
00000190: e509 da3b ccaf 0200 3748 9dbd 788b e539
000001a0: c32a 19be 340d 4aaa c54b 843d 0678 ae9c
000001b0: 6ffb 89be 8ff6 ff3d 2f83 9ebb 2298 9792
000001c0: 7dd8 11be 3e92 76bb dfc2 27bc e687 0580
000001d0: 4c21 80bb f163 803d 43e8 e03c 17df 61bd
000001e0: 91b9 8abe b6e2 57be aa7c e53d 6b5f e3bd
000001f0: 89d5 90bc 2886 0300 6302 583d 6cfa 07bd
00000200: 4bf4 10bb 4227 1ebf 6e87 f13a 5911 02ba
00000210: e618 90bd 3216 bd28 cb77 9828 7fb2 c5be
00000220: ace9 8d3d d335 bf23 ffc0 75bf f8c1 c633
00000230: 5f33 e1be a895 0c21 c3cc dabd b709 7c3d
00000240: 2c0c 62be 9497 2416 be67 23bf f004 d33d
00000250: 41df f8bd ecfd 483d b8e9 3dbf 5f69 dcbd
00000260: 8f32 c93e b9aa c2b1 16d1 7e36 3b38 8f3d
00000270: 552d 0c3e 3795 403d dd9a 903e 580f 160f
00000280: 9e76 67be 4671 123d fb6f bcbd 261a 0a3f
00000290: c758 863e c5f2 362e 4844 3b3e e0c2 d03c
000002a0: c804 c13d 4348 f429 e4fa d83d eb1f 92a9
000002b0: a043 93bd 68ed 913e 4b26 123d 3477 4db2
000002c0: 7df0 e13d d073 d13d 8359 2a3e edcc 4897
000002d0: 6d21 82bd 5a69 233d 7a1e babb 0e18 69bf
000002e0: 02c6 063e 70f9 003e 8b5b 303e 6805 d83d
000002f0: afdc d23d e7f1 c91d 42e1 a23e 50e5 c53d
00000300: 3167 c73a e3a8 08be 183a d0bc c624 323a
00000310: 23fa 663b af59 9ea0 27e4 0017 97a8 acbc
00000320: bba7 b33d 78e0 2aa6 c3b7 d4bf 8b83 89b4
00000330: 62fa 8abd 6a08 4d18 10e9 a33d d10e 663d
00000340: 99ff 1b3d 4c97 0320 5347 3dbf 8390 963e
00000350: 2ccb 92bf 0c51 1dbe 5f86 aabc dd68 e5bd
00000360: aa19 373e 8d16 0f31 f141 0fb7 7aec 9f3e
00000370: d103 f1bc 45b0 5cbd c003 b93e 2f7d 0480
00000380: 094b 11bf 17b4 833d 49d4 8fbe 9dee 3a3d
00000390: 10eb a23c bcd8 c8a1 47dc 723e ac69 8c3a
000003a0: c4a5 cb3e ec2d b8b0 ca45 e53c 0c1b eaaa
000003b0: b14b 833d 398f f83d 4c07 86bc 0a70 9f35
000003c0: a5cb 27be 9b14 3a3e 7097 0f3d 08be 1f02
000003d0: b1f4 383d 23f8 82bd f868 fc3c 92e4 5ebe
000003e0: a128 3a3e 069c 723e d09d 353e 24f5 213e
000003f0: 3d0f 9c3d d2a9 0380 22d1 523e d607 953d

advantage.2.bias f4 [81]
-0.18393695 0.19876038 -0.04664401 -0.16229454 -0.07104331 -0.07256969 -0.036002073 -0.24949919
-0.1120022 0.010302846 0.14223836 0.11647943 0.16586883 0.25961635 0.13531537 0.19397439
0.20934832 -0.14978626 0.21869132 0.22072132 0.3278595 0.13151099 0.16407253 0.12874946
-0.03557317 0.22898217 -0.014113278 -0.025966296 0.19968152 0.20308782 -0.07504561 -0.32124063
-0.06827417 0.19572301 0.15673459 -0.001759867 -0.14147379 0.19415681 -0.044089004 -0.22196057
0.15627643 -0.25349456 0.21014042 0.17528062 -0.1439476 -0.11623082 0.032220617 -0.19301763
-0.3822381 -0.2784339 -0.093890354 0.19220617 0.17267345 -0.38728082 -0.058026638 0.17530215
0.121567294 0.15769862 0.19741435 0.15921679 0.21989162 0.24129272 0.3015156 0.14370397
0.20817134 0.20028053 0.17105894 0.09692826 -0.112619326 0.09336123 0.13507178 0.22290245
0.06587614 -0.0045103254 -0.04301308 0.2488389 0.15589346 0.3340997 0.00839915 0.26234725
0.32558903
00000000: f859 3cbe d787 4b3e ca0d 3fbd 8a30 26be
00000010: 287f 91bd 6b9f 94bd e976 13bd b77c 7fbe
00000020: 6961 e5bd 45cd 283c efa6 113e c48c ee3d
00000030: 85d9 293e 6fec 843e 1d90 0a3e 39a1 463e
00000040: 685f 563e 9261 19be 9ef0 5f3e c504 623e
00000050: 33dd a73e d1aa 063e a102 283e e6d6 033e
00000060: 2cb5 11bd 4d7a 6a3e 613b 67bc 45b7 d4bc
00000070: 5079 4c3e 41f6 4f3e 83b1 99bd a779 a4be
00000080: 54d3 8bbd 9d6b 483e 087f 203e 56ab e6ba
00000090: 81de 10be 0bd1 463e ac96 34bd a249 63be
000000a0: ee06 203e 0aca 81be 0d2f 573e c37c 333e
000000b0: 0067 13be 6d0a eebd c4f9 033d 6aa6 45be
000000c0: b6b4 c3be e38e 8ebe 9649 c0bd b2d1 443e
000000d0: 4fd1 303e ac49 c6be 57ad 6dbd 6882 333e
000000e0: 46f8 f83d bf7b 213e fd26 4a3e ba09 233e
000000f0: 452b 613e 7015 773e 4160 9a3e 2227 133e
00000100: de2a 553e 5716 4d3e 132a 2f3e 5382 c63d
00000110: f6a4 e6bd 2c34 bf3d 4250 0a3e 8a40 643e
00000120: 12ea 863d 5acb 93bb 7c2e 30bd a0cf 7e3e
00000130: 89a2 1f3e 1e0f ab3e 979c 093c 6152 863e
00000140: 9bb3 a63e

value.0.weight f4 [64, 128]
-1.36286e-40 -2.51264e-40 -1.269185e-39 1.217863e-39 -1.423512e-39 -8.1416e-40 -6.21382e-40 1.349959e-39
2.11567e-40 -1.783398e-39 -1.80452e-39 1.964655e-39 -5.79738e-40 -1.61594e-39 -1.30524e-39 -1.1681e-41
1.009595e-39 2.197565e-39 2.674032e-39 -8.37681e-40 1.853352e-39 -1.997671e-39 1.776811e-39 1.137075e-39
1.270643e-39 1.316496e-39 1.445832e-39 -1.250267e-39 -2.258391e-39 -2.441844e-39 2.754233e-39 -2.48581e-39
-2.118828e-39 -6.73091e-40 -1.060549e-39 -6.5309e-41 -1.661933e-39 -1.325439e-39 2.099641e-39 -1.1745e-40
2.725e-41 1.82516e-39 7.00931e-40 -1.23443e-39 -1.419295e-39 -3.44392e-39 -3.119229e-39 -2.408489e-39
1.835705e-39 -1.711786e-39 1.074378e-39 -2.76951e-40 2.060743e-39 -2.274149e-39 -1.555269e-39 4.58035e-40
2.654945e-39 -2.812553e-39 1.358585e-39 -9.98438e-40 -8.21908e-40 8.9534e-40 2.65216e-39 -3.59136e-40
-2.898373e-39 -1.691306e-39 1.253742e-39 8.81319e-40 -1.277806e-39 2.824379e-39 -1.063707e-39 1.509343e-39
5.91459e-40 1.604902e-39 -2.508015e-39 -2.820648e-39 -2.48162e-39 6.2897e-40 1.428939e-39 2.002933e-39
-1.188803e-39 -3.371559e-39 -2.715781e-39 -4.26101e-40 -1.84224e-39 1.32458e-40 -1.845556e-39 -1.869964e-39
1.773485e-39 1.165644e-39 1.816292e-39 -1.931606e-39 -1.817763e-39 -1.444003e-39 2.312271e-39 1.499123e-39
1.724606e-39 -2.349312e-39 1.180413e-39 -1.04964e-40 -2.031813e-39 1.373774e-39 -2.710477e-39 2.445569e-39
7.86084e-40 1.997704e-39 -2.50071e-39 1.1237e-40 1.653117e-39 1.4853e-39 1.746838e-39 -9.84674e-40
8.14464e-40 -2.2289e-39 -3.09045e-40 1.601438e-39 -9.90669e-40 1.503236e-39 3.421396e-39 1.26463e-40
2.866537e-39 1.000655e-39 -2.636194e-39 -1.876637e-39 3.0115e-41 -1.810266e-39 1.049479e-39 -5.17797e-40
8.78808e-40 -5.44179e-40 -2.214074e-39 2.743228e-39 2.503386e-39 -2.644637e-39 1.32581e-39 -2.35048e-40
-9.56358e-40 9.1055e-40 2.522213e-39 2.170609e-39 -6.71813e-40 2.938145e-39 -1.674011e-39 -6.72116e-40
1.935293e-39 -9.19185e-40 1.794591e-39 2.49749e-40 2.1101e-39 -9.90401e-40 1.77255e-39 2.23658e-39
1.985116e-39 -2.420063e-39 2.517577e-39 2.016233e-39 3.3149e-40 9.7162e-41 1.754874e-39 -1.311443e-39
-1.119008e-39 1.16313e-39 -1.451182e-39 -2.765377e-39 -8.39472e-40 2.50613e-39 1.723072e-39 -1.60726e-39
1.514752e-39 -1.966086e-39 1.258467e-39 1.33256e-39 1.27689e-39 -1.238049e-39 -1.49328e-39 -2.082889e-39
9.18775e-40 -4.96135e-40 -1.229733e-39 2.718312e-39 1.581979e-39 1.328956e-39 1.456721e-39 -1.978768e-39
-1.649153e-39 -1.207774e-39 -7.47391e-40 1.701885e-39 -3.125694e-39 -1.267016e-39 1.867084e-39 -9.34127e-40
-2.610784e-39 2.352567e-39 1.64877e-39 2.74826e-39 2.162084e-39 1.38099e-39 2.091274e-39 1.15927e-40
2.35659e-40 6.08651e-40 3.413095e-39 -6.3996e-40 1.813752e-39 -1.392871e-39 -4.68715e-40 -1.46081e-40
-1.229432e-39 -1.234023e-39 2.87324e-40 1.985866e-39 9.50759e-40 1.900644e-39 2.578257e-39 1.068651e-39
-2.525646e-39 1.208242e-39 1.796257e-39 7.80261e-40 -2.09699e-40 2.727015e-39 1.838491e-39 2.283356e-39
1.26701e-40 2.480688e-39 1.90703e-39 2.491577e-39 -8.3153e-40 1.813837e-39 -1.11541e-39 3.16852e-40
1.896726e-39 -1.71849e-39 2.462879e-39 2.340747e-39 -2.379531e-39 2.414661e-39 1.651968e-39 7.6624e-41
2.450563e-39 1.807243e-39 -1.993559e-39 2.346207e-39 2.899417e-39 -2.698857e-39 -1.335495e-39 1.287582e-39
-5.83e-42 -2.79436e-39 -1.710901e-39 -2.020241e-39 7.79364e-40 -2.285474e-39 1.946532e-39 2.91634e-40
00000000: e97b 0180 6cbc 0280 f9d1 0d80 e842 0d00
00000010: 2c80 0f80 8cdd 0880 29c4 0680 23b3 0e00
00000020: c34d 0200 636b 1380 45a6 1380 a964 1500
00000030: 1350 0680 9598 1180 7a36 0e80 9020 0080
00000040: 57fe 0a00 ebed 1700 1d1e 1d00 1d1f 0980
00000050: 642e 1400 b2c0 1580 0759 1300 b461 0c00
00000060: 09d6 0d00 db55 0e00 64be 0f00 3c9d 0d80
00000070: 7a97 1880 de96 1a80 aefd 1d00 6d11 1b80
00000080: 6e12 1780 4e54 0780 618c 0b80 0eb6 0080
00000090: cb18 1280 c96e 0e80 f2dc 1600 6747 0180
000000a0: f64b 0000 cedf 1300 e9a1 0700 1771 0d80
000000b0: 6b74 0f80 3f80 2580 24f7 2180 e339 1a80
000000c0: 33fd 1300 c3a3 1280 eeb2 0b00 0704 0380
000000d0: 8370 1600 67c3 1880 75ef 1080 d1fc 0400
000000e0: e8e8 1c00 41a0 1e80 2fcb 0e00 3ddf 0a80
000000f0: 25f3 0880 d8bf 0900 25e1 1c00 20e9 0380
00000100: 7c8f 1f80 ac6a 1280 eca6 0d00 c298 0900
00000110: 01ea 0d80 38c1 1e00 2f95 0b80 6f6f 1000
00000120: bf70 0600 d079 1100 534f 1b80 d2b6 1e80
00000130: bf05 1b80 50d9 0600 4d8f 0f00 5dcf 1500
00000140: e6f1 0c80 89b6 2480 7e92 1d80 cca3 0480
00000150: 6a0f 1480 3d71 0100 a918 1480 b35c 1480
00000160: c14f 1300 57b1 0c00 15c7 1300 8808 1580
00000170: 2fcb 1380 4bb9 0f80 ac2d 1900 f252 1000
00000180: 80c7 1200 ed94 1980 83da 0c00 9924 0180
00000190: de1f 1680 86f5 0e00 b583 1d80 40a1 1a00
000001a0: 488f 0800 c9c0 1500 f63a 1b80 3e39 0100
000001b0: 3800 1200 692c 1000 7905 1300 dfb8 0a80
000001c0: 65de 0800 4445 1880 7e5d 0380 2870 1100
000001d0: 95c9 0a80 695e 1000 7641 2500 8760 0100
000001e0: bd36 1f00 6be5 0a00 a3b4 1c80 4d6f 1480
000001f0: f353 0000 49b6 1380 856d 0b00 68a3 0580
00000200: c291 0900 f3ec 0580 f01b 1880 01df 1d00
00000210: 6c42 1b00 2ccc 1c80 d26f 0e00 388f 0280
00000220: f069 0a80 3eea 0900 e776 1b00 c6a2 1700
00000230: be50 0780 5afe 1f00 763a 1280 9651 0780
00000240: cf12 1500 5002 0a80 978a 1300 33b8 0200
00000250: 1afa 1600 d6c8 0a80 264d 1300 ad5a 1800
00000260: b29d 1500 275a 1a80 fb69 1b00 70f4 1500
00000270: 0f9c 0300 d90e 0100 e01b 1300 c547 0e80
00000280: 572f 0c80 55aa 0c00 4ecd 0f80 bf1c 1e80
00000290: 1b24 0980 124a 1b00 39c3 1200 6380 1180
000002a0: 837e 1000 a668 1580 18b4 0d00 a382 0e00
000002b0: 73e7 0d00 2d7b 0d80 a842 1080 3fae 1680
000002c0: 2c01 0a00 0667 0580 ff63 0d80 8c99 1d00
000002d0: ea39 1100 9778 0e00 bfdc 0f00 008c 1580
000002e0: 2bf5 1180 c826 0d80 6c23 0880 2a88 1200
000002f0: 2a09 2280 edcb 0d80 ac54 1400 f72b 0a80
00000300: ce6d 1c80 009e 1900 1af4 1100 08ed 1d00
00000310: 038b 1700 a309 0f00 9fc5 1600 2843 0100
00000320: ec90 0200 aca0 0600 522a 2500 f3f7 0680
00000330: 01c0 1300 c22a 0f80 961a 0580 3797 0180
00000340: 2863 0d80 f46f 0d80 f120 0300 c99f 1500
00000350: 545a 0a00 39b2 1400 2213 1c00 f7a2 0b00
00000360: 7980 1b80 1628 0d00 3c8f 1300 0d7f 0800
00000370: 8e48 0280 cfb1 1d00 f704 1400 11dd 1800
00000380: 3161 0100 2603 1b00 06c4 1400 8121 1b00
00000390: f80d 0980 3dc0 1300 4f25 0c80 4173 0300
000003a0: 4da7 1400 73b6 1280 81d1 1a00 0d7d 1900
000003b0: 2ae9 1980 184b 1a00 04fd 1100 99d5 0000
000003c0: 2caf 1a00 dcad 1300 3bb5 1580 458c 1900
000003d0: 6592 1f00 5163 1d80 d18a 0e80 4105 0e00
000003e0: 4010 0080 8a6d 1e80 4ca1 1280 9cff 1580
000003f0: 8d7c 0800 f9e2 1880 2432 1500 f52c 0300

value.0.bias f4 [64]
-1.280987e-39 -2.09661e-40 1.687473e-39 1.989973e-39 -1.273668e-39 2.983188e-39 -9.50263e-40 1.556084e-39
8.62847e-40 1.938895e-39 5.722e-42 2.393464e-39 1.319252e-39 -6.3571e-40 -1.767989e-39 -4.52277e-40
-5.40666e-40 -6.58376e-40 -5.8644e-41 -1.676152e-39 1.557486e-39 -1.857888e-39 -1.416895e-39 2.884207e-39
-1.286476e-39 -1.472327e-39 -2.198166e-39 6.63078e-40 1.337268e-39 -8.68128e-40 -8.6771e-40 -1.028504e-39
1.128375e-39 1.58285e-40 -7.30737e-40 -8.89394e-40 -1.852832e-39 -2.179063e-39 3.210286e-39 -4.08906e-40
-1.625089e-39 -1.473834e-39 2.82924e-40 4.53232e-40 -1.987205e-39 -9.96309e-40 -3.065588e-39 -1.757189e-39
2.880518e-39 1.292102e-39 -1.48235e-40 -1.788888e-39 1.154872e-39 -1.424447e-39 -1.032274e-39 -2.513083e-39
-1.125566e-39 2.724215e-39 -1.235591e-39 -8.65397e-40 -1.816708e-39 1.283197e-39 -6.7165e-40 1.267166e-39
00000000: dff2 0d80 7348 0280 fd5f 1200 3cab 1500
00000010: 78de 0d80 ea7b 2000 f258 0a80 bbf1 1000
00000020: 4465 0900 da1c 1500 f30f 0000 0110 1a00
00000030: 8a5d 0e00 1aec 0680 6f40 1380 c4ec 0480
00000040: 28e3 0580 492b 0780 7aa3 0080 6e40 1280
00000050: a3f5 1000 093b 1480 ba6d 0f80 ff67 1f00
00000060: 2c02 0e80 4008 1080 98ef 1780 6438 0700
00000070: c28f 0e00 fd73 0980 d372 0980 0d33 0b80
00000080: 7349 0c00 3cb9 0100 fff4 0780 45af 0980
00000090: f12c 1480 57ba 1780 f9f4 2200 dd73 0480
000000a0: 16b2 1180 730c 1080 ad14 0300 6def 0400
000000b0: 85a3 1580 4ed9 0a80 9d61 2180 5422 1380
000000c0: b65d 1f00 db11 0e00 389d 0180 b17a 1380
000000d0: 5093 0c00 c782 0f80 8f3d 0b80 745d 1b80
000000e0: 9f41 0c80 01aa 1d00 5374 0d80 606c 0980
000000f0: 3ec8 1380 08f9 0d00 4950 0780 58cc 0d00

value.2.weight f4 [1, 64]
-1.684322e-39 -1.484833e-39 1.71108e-39 -6.76216e-40 -6.79244e-40 9.2024e-40 2.015183e-39 2.00846e-39
1.061e-39 1.092204e-39 2.41493e-40 6.49667e-40 -1.971617e-39 -1.47592e-40 -1.88439e-39 -1.29186e-40
-1.321912e-39 -1.99874e-40 -1.606477e-39 1.973261e-39 -2.075226e-39 2.00355e-39 2.003721e-39 -9.94373e-40
-1.829298e-39 -2.369831e-39 5.69356e-40 1.434718e-39 1.786677e-39 -1.48421e-39 -1.977004e-39 -1.940654e-39
-1.874525e-39 2.221057e-39 -1.142672e-39 1.935573e-39 -1.83492e-40 1.182374e-39 2.91344e-40 -1.112358e-39
3.377645e-39 -1.30943e-40 1.699112e-39 -1.366954e-39 2.54832e-40 2.228968e-39 1.076868e-39 1.069278e-39
-1.094773e-39 -2.273109e-39 2.497569e-39 2.198458e-39 1.257228e-39 9.47218e-40 2.010451e-39 -7.762e-40
-1.78104e-39 8.0627e-40 -1.783578e-39 -1.945773e-39 2.037666e-39 -8.00406e-40 -2.46785e-39 -1.559918e-39
00000000: 3457 1280 1c2b 1080 cba1 1200 045d 0780
00000010: 7565 0780 4105 0a00 83f1 1500 c5de 1500
00000020: a38d 0b00 9fe4 0b00 2fa1 0200 0213 0700
00000030: 1178 1580 6d9b 0180 ea84 1480 1e68 0180
00000040: f464 0e80 2b2d 0280 347e 1180 a67c 1500
00000050: e398 1680 15d1 1500 8fd1 1500 e8d3 0a80
00000060: 57eb 1380 20ce 1980 2233 0600 699f 0f00
00000070: 8774 1300 6029 1080 1587 1580 c121 1580
00000080: 6a69 1480 672f 1800 4e71 0c80 9713 1500
00000090: 80ff 0180 fadf 0c00 262c 0300 cd1c 0c80
000000a0: 80c7 2400 046d 0180 6f80 1200 83e2 0e80
000000b0: 5ec6 0200 7545 1800 dfb9 0b00 b6a4 0b00
000000c0: c8eb 0b80 81c0 1880 3532 1b00 68f0 1700
000000d0: a4b0 0d00 7550 0a00 52e4 1500 bb73 0880
000000e0: d164 1380 8dc7 0800 e46b 1380 0630 1580
000000f0: 2f30 1600 35b7 0880 5ddf 1a80 6bfc 1080
