pre-trained/dqn_dnn4000.pth (torch, 800169 bytes, 44 tensors)

feature.0.weight f4 [128, 81]
000000 cd 42 c2 3c aa b8 9b bd 46 fe 54 be 6a ca 99 bc
       0.023713494 -0.07603581 -0.20800123 -0.018773276
000010 a1 23 9c 3d 75 b4 86 bd 4c 5f c7 3d 9e 01 bf be
       0.07623983 -0.06577388 0.09734973 -0.3730592
000020 32 af 07 3e da f3 23 bd db a9 70 bd e3 b7 e7 3d
       0.13250425 -0.040027477 -0.058755737 0.113143705
000030 80 94 8f 3d fa 0d 49 3e 81 ea a9 bd ad 11 90 bd
       0.07010746 0.19634238 -0.08296681 -0.070346214
000040 e3 03 41 be d2 33 19 bb dc a2 e2 bd a3 29 a8 3b
       -0.18849139 -0.0023376835 -0.11066219 0.0051319166
000050 56 34 e9 3d 3f ed 3b 3e 05 6f 0c 3e e6 d5 0b be
       0.113869354 0.18352221 0.13714226 -0.13655815
000060 9e 6a 58 be 8c 8e a6 be 30 68 82 be 39 dc f9 bd
       -0.21134421 -0.3253063 -0.25470114 -0.12200207
000070 5d 79 f8 3c 76 7f a3 3d 59 cd 41 3e 99 c6 cd 3d
       0.030331308 0.079832956 0.1892599 0.10047645
000080 ed d6 c9 3c 2a 3e 39 bc 97 98 90 3e 19 b3 ab 3e
       0.024638617 -0.011306325 0.28241417 0.33535078
000090 a8 4d 4f bc 63 6d 98 3c 45 74 95 3c 49 5d 90 bb
       -0.012652792 0.018606847 0.018243918 -0.0044056517
0000a0 38 06 e9 3d ef db 64 3d 39 45 18 3e 90 19 13 be
       0.11378139 0.055873808 0.14870156 -0.1436522
0000b0 74 e9 ae be 22 02 de 3c 4a ea a7 bc ac 63 4c bc
       -0.34162486 0.027100626 -0.02049746 -0.0124749355
0000c0 dc 6f fc 3d b4 6b ba 3d 77 dd d4 3d 22 0a 8d bd
       0.12326023 0.09102574 0.103938036 -0.06886698
0000d0 f6 b0 03 be c9 8d 91 be 43 43 c1 bc ce e2 2b bc
       -0.12860474 -0.28428486 -0.023591643 -0.010491086
0000e0 c5 54 54 bd d7 a7 ac 3d 36 41 b1 bc e4 b1 90 3e
       -0.051838655 0.084304504 -0.02163754 0.2826072
0000f0 f0 a3 34 be 59 b7 dc 3d 6b 1f 45 3f 1a 43 83 bd
       -0.17640662 0.10777158 0.77001065 -0.06409283
000100 58 73 c3 3c 3a a2 2b bd 54 95 0a b8 f5 b7 47 bd
       0.023858711 -0.04190276 -3.3040837e-05 -0.04875942
000110 03 6c 21 be bd 9d b6 bc 4d 56 c6 bc ec 8a 20 be
       -0.1576386 -0.022292012 -0.024211073 -0.15677994
000120 58 57 86 3e c6 25 3d bd d1 0a 2e 3d f8 c2 88 3c
       0.26238513 -0.0461786 0.042490784 0.01669453
000130 56 8e 72 3d 93 2a 7d bd 62 fe 8f 3d 2c 5c 0f bd
       0.059217773 -0.06180818 0.070309415 -0.03500001
000140 a8 4d 11 be 88 d1 d4 3c cd bc f2 3d 8b 54 54 3d
       -0.1418978 0.025978819 0.11852417 0.05183844
000150 50 e5 a4 3d 9d fa ad 3d 3e fc 35 3d fa e3 37 3d
       0.080515504 0.08495066 0.04443001 0.04489515
000160 c9 5b 2c 3d bb 92 30 3e 39 a1 fc 3a bd 29 14 be
       0.04207972 0.17243473 0.0019274122 -0.14469047
000170 31 db 23 3e da 96 b1 3d c0 ae 50 3d 96 52 74 3d
       0.16001584 0.08671351 0.050947905 0.059649073
000180 e6 15 91 bd d3 79 b9 3d 95 d1 25 bd b6 5d 9f 3d
       -0.07084255 0.09056439 -0.040483076 0.07781546
000190 e4 3c 32 3e 2b a4 9c bc 74 0d 7c be d0 36 7c be
       0.1740604 -0.01912125 -0.24614507 -0.24630284
0001a0 b7 40 3a 3d c6 57 e6 39 c0 53 d3 3d a9 09 a5 3d
       0.045471873 0.00043934415 0.103187084 0.08058483
0001b0 bc a3 74 3e e4 d1 f0 3c f1 d1 2a bf 01 c7 0a bf
       0.23890585 0.029396959 -0.66726595 -0.54209906
0001c0 0b d7 10 bf 49 52 90 3e 14 1b e4 3d d4 7e 40 3e
       -0.5657813 0.2818778 0.11137977 0.18798381
0001d0 75 71 8e 3e 29 27 1a 3d 3c fc 29 bd 8e 7e 94 be
       0.27820936 0.037635002 -0.041500315 -0.29002804
0001e0 2d f0 fa be 84 6e ef be cf e4 28 3b 35 c2 65 3e
       -0.49011365 -0.46764004 0.0025771146 0.22437365
0001f0 c4 5a 36 3e 88 ee 0e 3e 03 f3 94 3e db 85 57 be
       0.17808062 0.1395818 0.29091653 -0.21047156
000200 7b e3 41 be 86 35 af be 36 88 13 bc fe 66 59 3b
       -0.18934433 -0.34220523 -0.009004643 0.003317296
000210 47 c3 0c 3d dd 3d bc 3c 28 90 d5 3d c2 72 e3 bd
       0.03436592 0.022978717 0.10427886 -0.11105873
000220 47 b5 c7 3c 8e 04 95 3d c1 77 38 3d 50 11 c1 bc
       0.024378432 0.07276259 0.04503608 -0.023567826
000230 b9 09 23 be 20 c2 3e bc 87 d6 27 bc ad 76 89 bd
       -0.15921678 -0.011642963 -0.010244018 -0.06712089
000240 60 c0 18 bd a8 e6 75 bb 4c f6 f2 3c b1 d7 bb 3c
       -0.037292838 -0.0037521515 0.02965846 0.022929998
000250 6c ab 65 bc 08 83 e1 bc 26 8d a4 bd 30 b8 5b 3d
       -0.014017921 -0.0275283 -0.080347344 0.05364245
000260 9f e6 b0 bc 83 73 92 bd 66 00 71 3c 87 52 57 3c
       -0.021594344 -0.07150938 0.014709568 0.013142235
000270 48 e8 68 bd d6 e7 67 bd cc 6f 68 3d 72 db 35 bd
       -0.056862146 -0.05661758 0.056747243 -0.044398732
000280 57 fa 05 3e 6a 68 a9 3d b7 90 fc be e4 6c 66 be
       0.13083778 0.082718685 -0.4932916 -0.22502476
000290 0d 40 81 bd bd 01 8a bd fd a2 04 be 5c 9c d5 bd
       -0.06311045 -0.06738613 -0.129528 -0.10430214
0002a0 c4 ee 00 3e 40 8c 32 be 3b 73 9b bd c5 76 df bd
       0.12591082 -0.17436314 -0.07590338 -0.10911325
0002b0 a6 32 20 3e 98 2e 88 3e 07 c5 e4 3d c1 55 48 be
       0.15644321 0.26598048 0.111703925 -0.19563963
0002c0 29 d3 35 bd fe f0 af 3d 9b bf 94 3d 4d 00 a1 bd
       -0.04439083 0.085908875 0.07263108 -0.078613855
0002d0 4a 0e 6e 3d 8b 18 1f 3d 4a 2c 42 3e 39 cf 1f 3e
       0.058119096 0.038841765 0.18962207 0.15606393
0002e0 b1 5a eb ba ae 41 2e 3c b9 ac b8 3d 31 51 86 bd
       -0.0017956105 0.010635776 0.09017319 -0.06558455
0002f0 3d 59 32 be 10 9f c9 3d 1e d7 6f 3d 11 60 ab 3c
       -0.17416854 0.09844792 0.05855476 0.020919831
000300 95 99 c5 bb 6c 7b a6 bd e7 ed 11 3c 93 4c 1a 3e
       -0.0060302713 -0.081290096 0.008906818 0.15068273
000310 26 39 9b 3d 66 1b ac bd b4 c9 0f be 5f 74 84 bd
       0.075792596 -0.08403663 -0.14041787 -0.064675085
000320 6a 4a 01 3e fe 0e 3d 3c 56 48 b0 bd 9d a7 b7 3d
       0.12626043 0.011539219 -0.08607547 0.089675166
000330 dc d9 30 be f9 44 ef 3c 6d 7d cc bc b6 73 45 ba
       -0.17270607 0.029207693 -0.024962151 -0.0007532196
000340 85 9b 05 3d 74 be 68 3e a6 ab 0c 3e 72 fb bb 3d
       0.032619018 0.22728902 0.13737354 0.09178819
000350 4f 93 3a 3d fb b1 e0 bd c3 0e 8b 3d 66 57 26 3d
       0.04555064 -0.10971447 0.06789925 0.040610693
000360 ee 7e ff bd d3 d7 9b 3e 0b 13 9a 3e 50 7e d0 3c
       -0.12475382 0.30438098 0.30092654 0.025450855
000370 67 d6 9f 3d 98 1f 47 3e a1 64 0e 3e 21 f2 1d 3e
       0.07804566 0.19445646 0.13905574 0.15424396
000380 81 13 e1 3d 3a 84 84 bc cf 9b 4b 3f 2a 04 b8 3e
       0.10990048 -0.016176332 0.7953462 0.35940677
000390 b4 f4 8b bd 4c 15 19 be 58 94 0c 3e 00 74 62 3e
       -0.06833783 -0.1494953 0.13728464 0.22114563
0003a0 6d 18 4d 3e 80 0b 16 3e c8 93 2f bf 36 a5 a9 3e
       0.20028849 0.14652824 -0.6858487 0.33133858
0003b0 42 de b0 3e 36 b1 20 bd a8 fb 6d be 7d 93 02 3e
       0.3454457 -0.0392315 -0.2324053 0.12751575
0003c0 f8 04 a9 3d 8f 8c 31 3c 5e ee e8 3c 91 75 6c bd
       0.08252901 0.010836734 0.028433975 -0.057729308
0003d0 d3 eb a0 bd b9 c1 ef 3c dd ff 4d 3d ec a4 e4 bd
       -0.0785748 0.029267179 0.05029284 -0.11164269
0003e0 0f c2 6a bd 46 5a 8c 3c bc 8c f7 bd 79 ea a3 bd
       -0.057313975 0.01713289 -0.1208739 -0.080037065
0003f0 5a 6b f9 bd db cf 6b bc 63 8e 66 bc 8d fd 50 3d
       -0.12178679 -0.014392818 -0.014072034 0.051023055

feature.0.bias f4 [128]
000000 ca 5d e2 bd b2 98 a8 3d 87 27 80 be 4d 7e c0 bd
       -0.11053045 0.08232249 -0.25030157 -0.0939909
000010 e7 fc 45 be de f7 8f bd 87 0b 1a bd e0 ac 17 bd
       -0.19334756 -0.07029699 -0.03760865 -0.0370301
000020 de 65 3c be 7e e4 1c be 5f 07 60 be 13 79 e0 bd
       -0.18398234 -0.15321538 -0.21877812 -0.10960593
000030 ae e9 16 3c 83 75 ca bd 87 5d 11 bd 53 2d 30 be
       0.009210987 -0.09885695 -0.035489585 -0.1720479
000040 f4 c5 2b 3e b1 3c 16 be eb e5 ff 3b 89 e8 e3 3c
       0.16774732 -0.1467159 0.007809391 0.027820842
000050 cc 42 c2 bc 73 80 45 be 3d 8c 99 3c c4 fb c7 bb
       -0.023713492 -0.1928728 0.018743629 -0.006103011
000060 15 7c e0 bd cf 0b 18 bd a2 57 28 bd 27 95 ba 3c
       -0.10961167 -0.037120637 -0.0410992 0.0227762
000070 af 74 17 be a0 ed 05 be 28 63 86 bd f1 02 83 bd
       -0.14790605 -0.13078928 -0.06561881 -0.063970454
000080 4e 3e fc bd 9f 8f 2a be be 72 96 b4 68 e9 6b 3b
       -0.12316571 -0.1665635 -2.8023163e-07 0.0035997275
000090 96 72 a3 bd 99 3f 1b be 40 cc e8 bd af aa 8f be
       -0.0798084 -0.1516098 -0.113670826 -0.2805991
0000a0 0c 63 29 be 8b 5f 3c bd d5 39 56 3d ee eb e6 3b
       -0.1654169 -0.045989554 0.052301247 0.007047168
0000b0 91 df b0 bd 4a 40 58 be 40 68 d1 bd 15 60 0a be
       -0.08636392 -0.21118274 -0.10224962 -0.13513215
0000c0 6f 90 14 be a5 9a 81 3d fc 29 ad bc 40 74 11 be
       -0.14508222 0.06328324 -0.021138184 -0.14204502
0000d0 b7 27 6d bd fb f3 9a bd ee ce 66 be 05 92 c4 bd
       -0.057899203 -0.07566067 -0.22539875 -0.095981635
0000e0 b8 4c 07 bd 65 f5 cf 3c f0 aa 26 be e4 55 4b 3e
       -0.03303215 0.025385568 -0.16276145 0.19856983
0000f0 d7 2d 9e 3d a5 e9 38 bd 26 a9 22 be 37 cc e5 bd
       0.07723587 -0.045144696 -0.15884838 -0.112205915
000100 cf 5a 80 bd c8 62 1a be 25 21 e4 bd 76 20 4d bd
       -0.0626732 -0.15076745 -0.11139134 -0.050079785
000110 39 06 af bd 8e 8a 11 3d 3b 3c 0c b8 d2 8f a4 3d
       -0.08546109 0.035532527 -3.3434695e-05 0.08035244
000120 83 de 49 bd 65 81 c5 bd 96 9d b8 b4 ef 89 9b 3c
       -0.04928447 -0.09643821 -3.438733e-07 0.01898667
000130 83 8a 18 be 9e b1 b6 bd 28 73 21 be ec 95 93 bd
       -0.14896588 -0.089205965 -0.15766585 -0.0720633
000140 2c 22 fc 3c 31 4b 4e bd 9c 30 d5 3d 3b 41 2a 3e
       0.030778013 -0.050364677 0.10409662 0.16626446
000150 35 05 df bd 7a f0 68 bd 53 65 01 3e c8 ea 7b be
       -0.10889665 -0.05686996 0.12636308 -0.2460128
000160 2c 14 9b bd f6 ec 35 be be fe 0f 3d 05 f2 dd bd
       -0.07572207 -0.17766175 0.03515505 -0.10837177
000170 07 81 82 3d a3 d2 9d bd 1e 8d 27 be dd 6d e7 bd
       0.06372266 -0.077061914 -0.16362426 -0.11300252
000180 31 91 0c 3e 59 eb d2 bd 92 ab cf bd 2f 75 e8 bd
       0.13727261 -0.10298795 -0.10140146 -0.11350476
000190 a2 93 34 be d9 f4 8b 3c ea 3a b5 be 7b c5 aa bd
       -0.17634442 0.017084526 -0.3539651 -0.08338448
0001a0 d4 95 27 be e5 eb b1 3c 47 2d ca bd e7 95 80 3c
       -0.16365749 0.021718929 -0.09871917 0.015696479
0001b0 10 f6 25 be 37 fe 28 be 34 62 0c bd 5b d4 7f be
       -0.16207147 -0.16503225 -0.03427334 -0.24983351
0001c0 b5 fb 36 3d fe 46 bb bd d5 7e 8c bd 8c da b5 bd
       0.04467364 -0.091444 -0.06860129 -0.08879575
0001d0 6b 06 bc bd 72 9a 43 bd 94 f0 1f bd a2 e6 1b be
       -0.09180912 -0.047754712 -0.039047793 -0.15224698
0001e0 e0 5b 4d bc 32 35 04 3e 1b 13 c5 bd e3 53 39 be
       -0.012534112 0.12910917 -0.09622785 -0.18098406
0001f0 a7 69 2e be 56 e9 ec bd 10 a0 e1 3c 83 db c5 bd
       -0.1703249 -0.11567943 0.027542144 -0.09661009

feature.2.weight f4 [128, 128]
000000 b5 88 67 3e 8a 98 a4 bd 1a 47 46 3e 89 47 0e 3e
       0.22610743 -0.08036907 0.1936306 0.13894476
000010 6a 71 9a 3d 06 26 45 3e d3 ef f1 3d 1f 7b 31 3c
       0.07541163 0.19252786 0.11813321 0.010832577
000020 d7 6e fb 3c 68 1e b9 3d 37 c3 68 3d d3 f9 cf 3d
       0.030692501 0.09039003 0.056826796 0.10155072
000030 25 fb 9d bc 0c 96 54 3d d7 fe 08 3e 1a a4 5b 3e
       -0.019284794 0.05190091 0.13378464 0.21449319
000040 2f fa aa 3d 11 97 27 3e 04 a4 e1 3c 6a 47 ea 3c
       0.083485 0.16366221 0.027544029 0.028598506
000050 18 1a af 3d 71 2c 54 3e 32 c9 a1 3d c3 50 97 bb
       0.08549899 0.20720078 0.07899703 -0.004617782
000060 82 96 7b 3d 3a 70 12 3e c0 d5 2e 3e d5 61 55 bc
       0.061422832 0.14300624 0.17073727 -0.013023813
000070 56 2e 51 3d ed 11 14 3e 3c 80 a6 3d 25 15 fc 3d
       0.05106958 0.14459963 0.081299275 0.123087205
000080 f8 eb 1f bd 04 8e d8 3c 98 77 11 80 6c 37 2d 3e
       -0.039043397 0.026434906 -1.604106e-39 0.16915673
000090 c1 a4 c6 3d 76 0f 24 3d e9 1d 76 3d 67 09 2d 3e
       0.09699393 0.040053807 0.06008712 0.16898118
0000a0 93 ae 82 3d 61 f3 12 3e d2 d0 c9 bd 78 f1 bd 3c
       0.06380954 0.14350654 -0.098542824 0.02318643
0000b0 96 0f 80 3d b3 d7 01 3e 60 1d 2c 3e f4 a6 08 3e
       0.06252973 0.12679939 0.1680808 0.13344938
0000c0 5f b2 52 3d 3d 3e 31 be 2c 68 0e 3e 8f 20 0e 3d
       0.05143964 -0.17308898 0.13906926 0.03469902
0000d0 f4 22 0f 3e 4b 34 09 3e e2 45 29 3e fd 99 8f 3d
       0.13978177 0.13398854 0.16530564 0.07011793
0000e0 3f 39 0b 3d 9e 2b f7 3d aa 94 2a 3e 67 fa a5 bd
       0.03399014 0.12068866 0.16658273 -0.08104401
0000f0 07 e3 96 bd c3 b1 1b 3e ac 2b 56 3d be 63 01 3e
       -0.07367521 0.1520453 0.052287742 0.12635705
000100 42 84 1b 3e d9 cd 01 3e 93 8c c1 3d 6a 4a 4e 3e
       0.15187171 0.12676181 0.094506405 0.20145574
000110 ff 9c a0 3d ad c2 9e 3d 46 b4 03 00 7d fe 17 3e
       0.07842445 0.07751975 3.40176e-40 0.14843173
000120 49 a1 3f 3e 71 42 e8 3d ab f8 02 00 f8 a9 51 3d
       0.18713869 0.11340798 2.72876e-40 0.051187485
000130 f7 4b 47 3d fb e5 22 3e c8 df 10 3e 61 37 e2 3d
       0.04865643 0.15908043 0.14147866 0.11045719
000140 c7 06 9c 3d b0 19 0f 3e 28 f8 92 3c 26 2a d2 bc
       0.0761848 0.13974643 0.017940596 -0.025654864
000150 86 51 cf 3b 7a f7 b8 bd a8 01 d7 3c d1 ac 13 3e
       0.006326857 -0.090315774 0.026245907 0.14421393
000160 b6 e4 af bb 90 f7 c9 36 77 53 d9 3b e2 da 0e 3e
       -0.0053678406 6.019087e-06 0.0066322642 0.13950685
000170 ec 49 b1 3d c0 a5 0a 3c 30 71 98 3e fb fb ec 3c
       0.086566776 0.008462369 0.29773855 0.028928747
000180 4c 1e 18 3d 28 44 da 3d 29 45 36 3b 33 a5 ed 3d
       0.03713827 0.10657531 0.0027812219 0.11603775
000190 57 c1 bb 3d d5 ff 5d 3e 9a 2c 74 3e 52 da 22 3d
       0.09167736 0.21679623 0.23845139 0.039758988
0001a0 04 01 58 3d b3 0b 8a bd 45 29 c6 3d 54 ed 1d 3d
       0.052735344 -0.06740513 0.0967584 0.03855641
0001b0 8e 1c 70 3a a5 31 04 bd 7d f4 df 3c b0 3c 56 3e
       0.00091595284 -0.032273907 0.02733826 0.20921588
0001c0 ad 32 47 3c 9c 44 37 3e 23 d4 d2 3d 76 7c fb bb
       0.012158078 0.17897266 0.10294368 -0.007674749
0001d0 2f 22 47 3e fb 2a d5 3c 75 21 01 3c 41 a7 9b 3d
       0.19446634 0.026021471 0.007881512 0.076002605
0001e0 94 22 11 3e 1a 5e c9 3d b0 02 c2 3d 16 5c 0a 3d
       0.14173347 0.098324016 0.09473169 0.033779226
0001f0 6a 85 78 3d a1 11 5a 3e 1e 88 9a 3d e2 3c cd 3d
       0.06067411 0.21295787 0.075454935 0.10021378
000200 21 f8 05 80 17 38 03 00 8f 42 01 00 1e ef 08 00
       -5.4819e-40 2.95628e-40 1.15712e-40 8.20463e-40
000210 f6 2b 07 00 9c 58 06 80 7a 0f f9 8b 2c ad 04 00
       6.58619e-40 -5.828e-40 -9.59346e-32 4.29464e-40
000220 be cd 00 00 6b 34 02 00 2f 6f 05 00 ff ec 00 00
       7.3806e-41 2.02475e-40 4.99063e-40 8.5018e-41
000230 c6 4b 04 80 24 ef 00 80 86 ee 5b 02 01 ad 05 00
       -3.94524e-40 -8.5787e-41 1.6158032e-37 5.2124e-40
000240 ed e0 02 00 f8 2c 07 80 19 f9 00 80 91 56 07 80
       2.64359e-40 -6.5898e-40 -8.936e-41 -6.73903e-40
000250 2d 25 01 80 6c 18 04 80 50 3a 06 80 dd dc 05 80
       -1.05172e-40 -3.76103e-40 -5.71932e-40 -5.38408e-40
000260 dc df 06 00 f4 3e 07 00 d0 03 01 00 b9 18 05 00
       6.31319e-40 6.65432e-40 9.3203e-41 4.68046e-40
000270 c4 41 04 00 7e 10 04 00 0b bf 00 00 e6 74 02 00
       3.90934e-40 3.73258e-40 6.8533e-41 2.25606e-40
000280 af d8 05 80 b9 e1 01 00 65 99 15 00 9a e0 03 00
       -5.36909e-40 1.7281e-40 1.983573e-39 3.56078e-40
000290 95 f9 07 80 0b ee 01 80 31 a4 02 80 d3 71 04 80
       -7.32382e-40 -1.77229e-40 -2.42572e-40 -4.08174e-40
0002a0 fb 4f 07 80 75 05 08 80 77 93 06 80 ca 3c 05 80
       -6.7154e-40 -7.36642e-40 -6.03913e-40 -4.80984e-40
0002b0 e8 0f 02 80 96 ac 07 00 c9 cb 05 00 1b d5 07 00
       -1.89377e-40 7.0476e-40 5.32282e-40 7.19296e-40
0002c0 af d0 09 00 e5 28 00 80 99 c8 04 80 38 f9 04 00
       9.01381e-40 -1.467e-41 -4.39303e-40 4.56745e-40
0002d0 0d 38 04 80 47 30 00 00 c4 28 00 00 c7 53 02 80
       -3.87449e-40 1.7319e-41 1.4624e-41 -2.13725e-40
0002e0 35 17 05 00 5f 8c 06 80 af 77 05 80 7f 05 b0 0f
       4.67503e-40 -6.01369e-40 -5.02112e-40 1.7357057e-29
0002f0 2f 8f ff 0f 12 8b 02 80 cb 00 09 00 d3 cb 05 80
       2.5200094e-29 -2.3356e-40 8.26804e-40 -5.32296e-40
000300 38 e7 03 00 ca a7 05 80 10 09 07 80 e7 70 05 80
       3.58452e-40 -5.19369e-40 -6.461e-40 -4.99679e-40
000310 47 72 05 00 2e 0d 02 80 43 c6 10 80 ae 3e 03 00
       5.00172e-40 -1.88399e-40 -1.540491e-39 2.97992e-40
000320 a9 a0 01 00 60 35 00 00 45 fd 0a 80 09 72 01 80
       1.4947e-40 1.9147e-41 -1.009211e-39 -1.32744e-40
000330 fe bb 00 00 82 f1 00 80 67 74 03 80 90 3f 04 80
       6.7439e-41 -8.6637e-41 -3.17264e-40 -3.90144e-40
000340 35 a8 02 00 24 4d 05 00 f5 fc 03 80 eb 7d 01 80
       2.44012e-40 4.8685e-40 -3.6625e-40 -1.37006e-40
000350 4b 0c 08 80 53 8d 04 80 03 2c 04 80 85 56 07 00
       -7.39094e-40 -4.1804e-40 -3.8313e-40 6.73886e-40
000360 4f 99 02 80 30 1f 10 00 ea 53 07 00 d1 a3 03 00
       -2.38668e-40 1.480556e-39 6.72951e-40 3.34273e-40
000370 de 20 02 80 40 8e 06 80 19 67 02 80 07 32 07 80
       -1.95462e-40 -6.02043e-40 -2.20655e-40 -6.60795e-40
000380 8c f0 02 00 9b 4c 03 80 df f7 02 80 0c 53 07 80
       2.69963e-40 -3.02987e-40 -2.7259e-40 -6.7264e-40
000390 df e1 07 00 2a d6 05 80 b0 02 06 00 25 f2 06 80
       7.23876e-40 -5.36005e-40 5.51977e-40 -6.37878e-40
0003a0 96 7e 08 80 8c b9 02 00 aa a1 03 00 81 18 06 80
       -7.80094e-40 2.50233e-40 3.335e-40 -5.59803e-40
0003b0 8a 70 10 80 8b 93 02 80 0b 59 00 80 bc 7a 00 00
       -1.50974e-39 -2.366e-40 -3.1943e-41 4.4029e-41
0003c0 c2 0d 03 80 dc 92 07 00 8d 51 07 80 60 14 08 80
       -2.80442e-40 6.95532e-40 -6.72103e-40 -7.41993e-40
0003d0 d0 80 06 80 10 9d 07 80 13 5f 06 00 19 17 02 80
       -5.97222e-40 -6.99192e-40 5.85119e-40 -1.91957e-40
0003e0 f7 f1 03 00 9a 72 00 00 f2 17 03 00 9b 7b 12 80
       3.62307e-40 4.1111e-41 2.84096e-40 -1.69738e-39
0003f0 fb 6f 07 80 0f 62 08 00 51 eb 06 80 fb d1 05 00
       -6.8302e-40 7.69861e-40 -6.35429e-40 5.34504e-40

feature.2.bias f4 [128]
000000 31 e8 c3 be 23 2e 66 b8 e5 3e 3e be f6 4b 15 bd
       -0.38263085 -5.487924e-05 -0.1857868 -0.036449395
000010 e9 98 4f 3e 91 71 e7 bb 29 96 5b bd a4 1d 60 3e
       0.20273174 -0.0070630987 -0.05361 0.21886307
000020 09 0f a8 bd 10 11 84 3d 9d 36 00 bf c7 87 d6 bc
       -0.08205993 0.06448567 -0.50083333 -0.02618779
000030 bd 10 36 be c9 7d 37 3d be 7f 8c bd e5 13 24 3d
       -0.17779823 0.044797692 -0.068603024 0.040058035
000040 dc b3 05 be ee 51 26 3e c8 2c 5e 3e 8c e3 96 3c
       -0.13056892 0.16242191 0.2169677 0.01841905
000050 61 fb 82 a9 03 21 27 be 3d 27 d9 b9 8a e6 8a bd
       -5.816767e-14 -0.16321187 -0.000414187 -0.06782253
000060 15 b7 46 3c 4a 4f c6 be a2 01 42 b7 bc 9a 6c bc
       0.012128611 -0.38732368 -1.1563681e-05 -0.014441188
000070 9c 00 bd 3c da 18 f1 bd bc 18 ff bc 1f 52 9c bc
       0.02307158 -0.11772318 -0.031139724 -0.019082127
000080 ee b0 89 3e 7a 42 cf bd 6e 5e 24 3e f9 2f f3 3c
       0.268928 -0.10120101 0.16051647 0.029685961
000090 37 79 f1 bd 2b 0d 86 be b7 65 d1 be 80 26 36 ba
       -0.11790698 -0.2618192 -0.40897915 -0.0006948486
0000a0 87 7b 9c be 36 64 15 3e 49 31 90 3e 7d ad e4 3d
       -0.30562994 0.14589009 0.28162602 0.11165903
0000b0 89 62 17 3e 15 c2 fc bc 36 12 43 b8 01 b4 00 af
       0.14783682 -0.030854264 -4.6508583e-05 -1.1705482e-10
0000c0 f7 2b a0 3b be 9b 28 be c0 4c 64 be e1 94 da bd
       0.0048880535 -0.16465661 -0.22294903 -0.10672928
0000d0 2a de 31 bd d5 21 7c be b3 b3 40 be fa 63 f5 3c
       -0.043424763 -0.24622281 -0.1881855 0.0299549
0000e0 d1 59 df 3d 63 bf 4b bd dc 7d 80 3d ff 53 2a be
       0.10905803 -0.049743067 0.06274006 -0.16633604
0000f0 94 79 ab b8 73 f3 55 3d 16 4d da be 0f 36 05 3e
       -8.176561e-05 0.052234124 -0.42636937 0.13008903
000100 91 9a e6 af b4 e1 cd ba f8 a2 00 bd b5 98 31 bc
       -4.1946582e-10 -0.0015707524 -0.03140542 -0.010839631
000110 a6 72 0a bb a3 2b 91 3d 5a bc 7d 3e f4 fb 87 3d
       -0.0021125465 0.07088401 0.24778882 0.06639853
000120 0a 0e ce be 5b 7e cd b1 59 a7 f5 bb af 0c 07 3d
       -0.40245086 -5.98065e-09 -0.007496756 0.03297108
000130 f6 54 ca bd cf 1b 87 3e 64 7f ea bd d2 bb 31 3d
       -0.09879486 0.26388404 -0.11450079 0.04339201
000140 15 3a 54 bd dd cb 50 b8 8b 94 1d 3e 80 c2 58 bd
       -0.051813204 -4.9780927e-05 0.15388696 -0.052919865
000150 6a ad bc bc 43 d4 b3 bd 65 16 67 be d7 ea eb bc
       -0.023031909 -0.0878072 -0.22567137 -0.028798504
000160 e2 a3 94 be e1 29 0a be b5 e2 cd 3e 00 38 6d be
       -0.29031283 -0.13492538 0.40212026 -0.23165894
000170 54 5e ab bd 0d 3c 07 3d df 68 54 be a7 a3 d3 3e
       -0.08367601 0.033016253 -0.2074313 0.41335794
000180 2e cc 3f 3e db 87 52 3e 2e 7a 03 3e 6c f9 8d 3e
       0.18730232 0.20559637 0.12839577 0.27729356
000190 e5 af 44 be 6b 56 9b 3d 46 9e b8 bb a2 6e 8b 3e
       -0.19207723 0.07584842 -0.005634102 0.27232844
0001a0 18 7c 0e 3d f6 ea 00 a3 0e 2f 44 be 00 57 5f bd
       0.034786314 -6.988649e-18 -0.19158575 -0.05452633
0001b0 1d 28 b4 3c 3e c8 ab 3e f7 28 1a bc 45 d6 57 3d
       0.021991784 0.3355121 -0.009409181 0.052694578
0001c0 f5 de 6d be 0e 30 09 b5 6f 50 f3 a3 4d 76 39 be
       -0.23229583 -5.1106406e-07 -2.6380178e-17 -0.18111534
0001d0 b3 90 15 3d 9c 36 9f 9b 8b c8 11 3e 8c dc 87 3d
       0.03651495 -2.6339634e-22 0.14236657 0.06633863
0001e0 4d 07 a7 3e 66 49 a4 3e 42 d8 55 3e a6 8b a0 be
       0.32622758 0.3208725 0.20883277 -0.31356543
0001f0 11 58 7a bb ee f8 2c bd fc 34 54 bd ce 8b cd be
       -0.0038199464 -0.042229585 -0.051808342 -0.40145725

advantage.0.weight f4 [64, 128]
000000 08 b2 10 00 3b ab 1f 00 66 41 06 00 ac 75 00 00
       1.533234e-39 2.908326e-39 5.74474e-40 4.2213e-41
000010 8b 1f 0a 80 53 56 06 00 ca 1e 0c 80 65 67 02 80
       -9.2967e-40 5.8198e-40 -1.113071e-39 -2.20762e-40
000020 e0 3c 00 00 1f e7 04 00 47 5e 06 00 6e 73 02 00
       2.1838e-41 4.50253e-40 5.84833e-40 2.2508e-40
000030 dc c2 03 80 42 3a 01 80 10 53 02 80 34 90 07 80
       -3.45409e-40 -1.12734e-40 -2.13468e-40 -6.94579e-40
000040 e4 f4 01 80 28 7d 07 80 dc 3d 07 00 d1 f1 07 00
       -1.79686e-40 -6.87746e-40 6.6504e-40 7.29596e-40
000050 73 c1 16 00 1b e9 03 00 ea dc 0a 80 83 63 0e 00
       2.089777e-39 3.59129e-40 -9.97604e-40 1.321395e-39
000060 e5 51 04 00 16 9f 1c 00 25 88 0b 80 a5 00 05 80
       3.9672e-40 2.628463e-39 -1.05903e-39 -4.59409e-40
000070 2f ab 05 80 89 41 0a 80 1f 7d 01 00 12 60 07 00
       -5.20587e-40 -9.41865e-40 1.3672e-40 6.77312e-40
000080 57 7c 0d 80 6d 8a 05 00 e2 95 02 00 f1 b9 03 00
       -1.238466e-39 5.08835e-40 2.37439e-40 3.4221e-40
000090 46 ac 12 00 78 f0 01 80 0f 13 08 00 df ab 08 00
       1.714839e-39 -1.781e-40 7.41521e-40 7.9634e-40
0000a0 93 c6 17 00 26 55 03 80 3d e3 04 80 61 8d 01 80
       2.183451e-39 -3.06052e-40 -4.4886e-40 -1.42553e-40
0000b0 7e 50 03 00 6b 32 04 80 06 9d 0a 00 ef 55 03 80
       3.04382e-40 -3.85429e-40 9.74684e-40 -3.06334e-40
0000c0 64 ed 06 80 ac a7 04 80 e2 70 06 00 e3 8e 01 00
       -6.36173e-40 -4.27491e-40 5.91508e-40 1.43094e-40
0000d0 41 0b 13 80 76 c7 04 80 eb 19 06 00 fc 0f 02 00
       -1.748912e-39 -4.38895e-40 5.6031e-40 1.89405e-40
0000e0 a8 26 07 80 07 fa 0e 00 65 b8 04 00 f9 7e 07 80
       -6.56716e-40 1.37539e-39 4.3349e-40 -6.88398e-40
0000f0 af 7c 0d 80 00 eb 02 00 1a 9c 07 00 20 92 03 00
       -1.23859e-39 2.67973e-40 6.98847e-40 3.27926e-40
000100 1f 1e 0e 00 2b ca 1d 80 ff c4 06 80 5d 60 0c 80
       1.296502e-39 -2.735754e-39 -6.21682e-40 -1.136595e-39
000110 c0 35 02 80 af 72 03 80 f6 23 07 00 9f 18 05 80
       -2.02953e-40 -3.16647e-40 6.55749e-40 -4.6801e-40
000120 d9 6f 03 80 aa 83 11 00 78 96 12 00 d4 82 09 80
       -3.1563e-40 1.608436e-39 1.707017e-39 -8.73452e-40
000130 49 0d 05 00 3e fa 00 00 45 04 02 00 d0 37 01 80
       4.63943e-40 8.977e-41 1.85203e-40 -1.11857e-40
000140 11 a5 0c 00 cd 7b 02 80 f6 bd 02 00 ce 03 11 00
       1.16124e-39 -2.28082e-40 2.51816e-40 1.562568e-39
000150 45 27 04 00 66 28 01 80 19 9c 01 80 52 60 16 80
       3.81429e-40 -1.06328e-40 -1.47833e-40 -2.054934e-39
000160 6e 0c 07 80 f3 57 05 00 44 b4 01 80 78 92 08 00
       -6.47307e-40 4.90728e-40 -1.56503e-40 7.87227e-40
000170 23 68 01 80 11 a4 0f 00 68 a8 0c 00 f9 10 0b 80
       -1.29193e-40 1.436388e-39 1.162439e-39 -1.016279e-39
000180 0a 21 01 80 cf c5 02 80 43 28 07 00 4a 8b 17 00
       -1.03688e-40 -2.54631e-40 6.57292e-40 2.162184e-39
000190 c7 95 07 00 e2 57 07 00 28 56 07 80 b6 13 00 00
       6.96578e-40 6.74375e-40 -6.73756e-40 7.071e-42
0001a0 9f 60 06 80 68 ba 08 80 26 b1 15 00 9d 9e 14 00
       -5.85674e-40 -8.01554e-40 1.992094e-39 1.89361e-39
0001b0 00 45 03 80 18 e0 00 00 3d a2 03 80 b0 42 18 00
       -3.00259e-40 8.039e-41 -3.33707e-40 2.227975e-39
0001c0 40 da 01 00 ba bd 09 80 db 07 11 80 59 77 06 00
       1.70129e-40 -8.9458e-40 -1.564021e-39 5.93827e-40
0001d0 18 2a 07 80 a0 7d 12 80 5f 72 03 00 93 26 03 80
       -6.57949e-40 -1.698105e-39 3.16535e-40 -2.89344e-40
0001e0 07 77 1f 80 e6 60 0c 00 d1 be 06 80 4e 2d 07 00
       -2.8896e-39 1.136787e-39 -6.19465e-40 6.59101e-40
0001f0 6d 28 14 80 d1 5a 01 00 14 b5 10 00 89 a2 07 80
       -1.851212e-39 1.24414e-40 1.534327e-39 -7.01155e-40
000200 0b ff 62 3e 55 75 05 80 8a 08 4c ba 58 28 69 3d
       0.22167604 -5.01268e-40 -0.0007783255 0.05692324
000210 d4 d9 24 be 2d af da bd 10 e0 b9 3b 89 d9 cf bd
       -0.1609872 -0.106779434 0.0056724623 -0.101489134
000220 c3 71 a0 3e d8 1a 13 3e bf d4 44 3e 6d 1a 4d be
       0.31336793 0.14365709 0.19221781 -0.20029612
000230 60 f9 99 bc de 29 4d bd c3 58 d7 bd 46 9d 21 be
       -0.01879567 -0.050088756 -0.10514977 -0.15782651
000240 e0 36 51 3e 9c 78 30 be 17 dd 58 be 24 0a ae 3d
       0.2043109 -0.17233509 -0.21178089 0.08498028
000250 e1 d4 eb a7 fb 27 32 3e 07 20 83 b3 16 3f 18 bd
       -6.5456406e-15 0.17398064 -6.1059886e-08 -0.03716954
000260 55 8c 15 3d e6 35 61 3e 7f 78 31 1f 54 68 78 bd
       0.036510784 0.21993217 3.758088e-20 -0.06064637
000270 43 af 9b 3e 63 2c 1c bd 3f c4 6e 3d 6a 57 82 be
       0.30407152 -0.038128268 0.058292624 -0.25457317
000280 97 5e 82 be 20 29 b8 be ee 33 77 be 3f 8d 3a 3b
       -0.2546279 -0.35968876 -0.24140903 0.0028465537
000290 76 f3 41 3e 5b c0 15 3e 0b 1e f5 3d ee d4 a6 a8
       0.18940529 0.14624159 0.11968621 -1.8522046e-14
0002a0 3e 33 c3 3d 7e 5d 3e 3a 04 e4 2e bd e7 ae 38 bd
       0.09531258 0.0007261856 -0.04269792 -0.045088675
0002b0 b6 01 e0 3c 34 3c 62 3d 1c c6 7f 12 96 d4 b8 00
       0.027344566 0.055233195 8.0708e-28 1.6973993e-38
0002c0 0f 8a b1 3d 40 52 ee 3d fa 97 7d bc 9b 6f 23 3e
       0.08668911 0.11636782 -0.015478129 0.15960543
0002d0 a3 ef 36 b9 4c 88 81 3e 27 df 65 be 77 a3 e1 bc
       -0.00017446144 0.252993 -0.22448407 -0.027543766
0002e0 6a 8a 3a bd 0c 43 11 bd bc 43 af bc 38 0d a6 bc
       -0.04554216 -0.03546433 -0.021394603 -0.020269975
0002f0 2c a3 77 20 9b 6b d2 3d bc a2 c4 3e aa 12 27 3e
       2.0975703e-19 0.1027443 0.38405406 0.16315714
000300 e0 e1 02 00 1a 48 d5 af e6 f0 e9 3d 40 63 15 b5
       2.647e-40 -3.8795706e-10 0.11422901 -5.5651253e-07
000310 99 da d1 3e 57 5b e3 bd 55 56 d5 3d 6c 40 ae bd
       0.4098709 -0.11101406 0.10416857 -0.08508381
000320 e2 21 37 3e 4f b9 03 00 13 02 12 af da 9e 42 3d
       0.17884019 3.41983e-40 -1.327936e-10 0.047514774
000330 e3 20 f0 bc 06 f5 e4 3c 59 81 73 bc 6e 57 ce 3b
       -0.029312557 0.027948868 -0.014862382 0.0062970435
000340 09 15 bf bc cb 9c 46 aa 61 b2 a6 bc 0b 03 91 bd
       -0.02332546 -1.7640331e-13 -0.02034873 -0.070806585
000350 83 33 47 bb 4e df 95 3e f7 72 ef 3a cb f3 0e 3e
       -0.0030395694 0.2927193 0.0018268515 0.13960187
000360 33 d8 39 3c 00 c0 67 3d 82 19 8a bd 99 60 39 3e
       0.01134305 0.05657959 -0.067431465 0.18103255
000370 62 88 ed 3c dd 53 b6 be 76 1a 12 3e 4c 22 79 bd
       0.028995696 -0.35610858 0.14267907 -0.060823724
000380 20 b1 6f bd 5a d8 88 bc 7c cc 4e be ce f7 a4 be
       -0.05851853 -0.016704727 -0.20195192 -0.3222031
000390 e3 65 9d 3e 9b f6 6a bc e0 56 03 3d 23 5f 3f be
       0.30741796 -0.014341022 0.032065272 -0.18688636
0003a0 ed bb f2 3b e1 37 05 00 29 93 4d be b4 a2 7e bd
       0.0074076564 4.79223e-40 -0.20075668 -0.062166885
0003b0 f5 19 b8 bd cb ed 60 be f3 76 91 3d 95 6b 55 3e
       -0.08989326 -0.21965711 0.07102766 0.2084182
0003c0 22 94 01 3e 93 c0 03 00 f9 0f 01 00 e4 74 60 3e
       0.12654164 3.44589e-40 9.7565e-41 0.2191959
0003d0 ad 8f 8c 3d cb 7d a5 8c 34 24 8d 3d bd 5b 1b 3c
       0.068633415 -2.5497984e-31 0.06891671 0.009482321
0003e0 a3 82 87 be 99 7a 22 3d 3a d1 12 be a1 e2 3a 3d
       -0.26466855 0.0396677 -0.14337626 0.045626286
0003f0 a8 5d 08 b5 31 27 2d 3d 6f 21 f8 3c 52 d1 56 3e
       -5.0800236e-07 0.042273704 0.03028938 0.20978287

advantage.0.bias f4 [64]
000000 a1 95 fb 92 71 30 38 be 37 2d 03 a2 49 5f 65 bd
       -1.5877213e-27 -0.17987229 -1.7777747e-18 -0.055999074
000010 1e 90 12 3e 1b 57 80 b7 98 c5 c9 b7 27 d2 88 bd
       0.14312789 -1.529935e-05 -2.4053079e-05 -0.066807084
000020 2d 2d 5d 3b 78 8f b0 ba b7 9b 77 3d c8 d3 69 ab
       0.003374885 -0.0013470491 0.060451236 -8.3072134e-13
000030 57 3b 67 3d 30 6c c7 b8 34 b3 8b 3c 53 3a c2 3b
       0.056453075 -9.509211e-05 0.017053224 0.005927363
000040 ae 3b 2f 3e 65 0c 17 b8 c8 b3 84 bc e4 ba b1 3d
       0.1711261 -3.601275e-05 -0.016199008 0.08678225
000050 fa 93 41 be 68 cf b3 bd 53 61 60 3d a0 98 cb 3d
       -0.18904105 -0.08779794 0.054780316 0.0994122
000060 9d ac 06 3e 06 55 04 b9 13 d5 11 bd 31 f6 bc be
       0.13151784 -0.00012620175 -0.035603594 -0.3690658
000070 db f0 49 3d a2 6c ef 3d 0e 15 11 3e b2 34 ec b0
       0.049301963 0.11690642 0.14168188 -1.7186237e-09
000080 58 0a ac 3d 09 24 2b be 24 8b 15 be f1 1c 9a 3b
       0.084004104 -0.16712965 -0.14603859 0.004703157
000090 b2 b3 b0 bd 26 d2 0f b8 a2 ee 4c 3c e1 dd 67 a5
       -0.08628024 -3.4289573e-05 0.012508066 -2.0111232e-16
0000a0 6d a3 db 3c 33 40 a8 bc 39 3c 21 3e d9 97 5d b8
       0.026811326 -0.020538425 0.1574563 -5.2831925e-05
0000b0 db f5 74 bd af e5 b3 3d d8 ee 41 b9 9f a5 2f bd
       -0.05980478 0.08784043 -0.0001849489 -0.042882558
0000c0 c0 5f 74 be 19 26 12 3e 82 d1 05 be 54 a6 9b b7
       -0.2386465 0.14272346 -0.13068202 -1.8554892e-05
0000d0 5f d4 cb 3d 79 34 36 3c 00 2f 28 a9 94 3b 66 3d
       0.09952616 0.011120909 -3.734426e-14 0.056209162
0000e0 fd 41 7d be da 55 fc bd 02 b8 36 3d 01 87 c4 3d
       -0.24732204 -0.123210624 0.044609077 0.095960625
0000f0 61 a3 2d bd ea 33 86 b6 b3 08 f5 3d e6 12 de 3d
       -0.04239214 -3.999555e-06 0.1196455 0.10843448

advantage.2.weight f4 [81, 64]
000000 69 d0 07 80 8e 66 e1 3d ad c9 c5 b8 fa e1 27 3d
       -7.17612e-40 0.11005889 -9.431257e-05 0.040986992
000010 2c 3f 36 bc 52 a4 18 bc dd d8 a1 3a 76 49 3b 3d
       -0.01112346 -0.009316521 0.0012347955 0.045724355
000020 99 8b d5 3d 9f 51 91 b7 31 aa e0 3d 8b 32 29 3b
       0.10427017 -1.7323355e-05 0.109699614 0.002581748
000030 78 eb b6 3d b8 25 07 b7 9c 90 c6 3d 38 f5 c9 3d
       0.08931631 -8.055409e-06 0.09695551 0.09861225
000040 29 65 01 bc c9 4f c6 b8 ce 85 d7 3d 8e 67 8c 3d
       -0.007897654 -9.456237e-05 0.10523568 0.06855689
000050 cd cd 0f 3e ca a9 d3 3d a8 6e c6 be 7f a6 ca bd
       0.1404335 0.10335119 -0.387563 -0.09895038
000060 d8 99 1a 3d 09 81 8d bb 80 72 07 3c 15 13 73 3e
       0.037744373 -0.0043183607 0.008267045 0.23737748
000070 40 33 f3 3d 3b 15 aa 3c a3 59 02 3d 3c 51 94 38
       0.118750095 0.020762077 0.031823765 7.072321e-05
000080 f5 eb bc 3d 46 82 02 3e 7c 60 bf 3d 12 13 78 3d
       0.09224693 0.12745008 0.09344575 0.060565062
000090 5b 14 de 3d 0c f0 76 bc 29 fc 0c 3e 39 3d a1 b9
       0.10843726 -0.01507188 0.13768066 -0.00030753927
0000a0 b0 06 d7 3d f1 2b b2 3b 20 8f 81 3c 65 a8 c4 b9
       0.104993224 0.005437367 0.015815318 -0.00037509497
0000b0 02 fa 07 3e 11 19 54 3d 15 3b 1d 3e 66 fe 30 bd
       0.13278964 0.051781718 0.1535457 -0.043211363
0000c0 4b f1 50 3e dd 1d 87 bf 00 e0 e3 3d 07 bd 28 3a
       0.20404546 -1.0555989 0.11126709 0.00064368587
0000d0 04 3b 7e bc d8 77 bb 3d fd ae 4e b5 34 fc 7b bf
       -0.015517 0.09153718 -7.699562e-07 -0.98431706
0000e0 e1 2e 24 3e 63 9b 0c 3e d1 9b 04 3e 66 7d 91 3d
       0.16033508 0.1373115 0.12950064 0.07103996
0000f0 0d 86 02 be 0e d1 c3 b2 56 1d 04 bd 89 f1 ac 3d
       -0.12746449 -2.2796055e-08 -0.03225454 0.08444507
000100 e8 6e 0c 80 3b 62 ac bc d4 35 01 80 ef 5e 11 3d
       -1.141812e-39 -0.021042934 -1.11145e-40 0.035490926
000110 92 3f 68 3d 06 5e 4a b1 fa f6 14 ae 6d 72 ea bd
       0.05670125 -2.9448315e-09 -3.3870663e-11 -0.11447606
000120 ab 76 1a bd 0b 13 69 2d 43 99 6e 3d 0e 75 07 80
       -0.037710827 1.3248745e-11 0.05825163 -6.8484e-40
000130 e5 67 9a bd c6 40 89 32 7f 8d b5 bd 67 5c 3c bc
       -0.075393476 1.5978355e-08 -0.08864879 -0.01149664
000140 51 88 16 bb fd 50 e8 9d a5 95 36 be fa c6 95 bc
       -0.0022969435 -6.149363e-21 -0.17830522 -0.018283356
000150 a8 9e 7d bd 4c 7b c1 bd 9b 6c 43 be 3e 54 df bd
       -0.061918885 -0.09447345 -0.19084398 -0.1090474
000160 99 e8 9b bc 27 86 b2 1f 25 dd 6c 3b 90 ff 93 be
       -0.01903181 7.560787e-20 0.0036142555 -0.28905916
000170 62 c8 25 3b 17 ed 1d bd 7e 36 08 bd fc 78 9d 9e
       0.002529644 -0.038556185 -0.033255093 -1.667306e-20
000180 b0 5c 87 bd b0 c8 53 be 64 8b b3 bc 05 2c f7 3b
       -0.066094756 -0.20682025 -0.021917053 0.0075430893
000190 0b aa c1 bc 4b 62 5e 21 34 a2 61 bb 6f 85 07 80
       -0.023640653 7.5346615e-19 -0.0034428956 -6.90715e-40
0001a0 c5 08 fa bd b4 a0 ed b9 f1 4d 83 3d 05 34 cc b4
       -0.12208704 -0.00045323896 0.064113505 -3.803581e-07
0001b0 4e e6 5b be db 20 96 3d d1 9e 8f bd 0f 58 f8 39
       -0.21474573 0.073304854 -0.07012714 0.00047367855
0001c0 10 02 a8 bd 4a 2b 1e bd cc 4b 2c be ee cb 42 1d
       -0.082035184 -0.038615502 -0.16825789 2.5781115e-21
0001d0 24 cd 8c 3b b3 55 49 bc bc 56 15 13 11 b2 d3 bd
       0.0042969156 -0.012288499 1.8849207e-27 -0.10336698
0001e0 8c 34 15 be 06 e8 46 be 90 4f f2 3c 36 22 3c bd
       -0.14570826 -0.19424447 0.029578954 -0.045931064
0001f0 f1 5d 9c bd e1 58 2b 25 d8 1f 4b 3e ab 4b 5e 3c
       -0.076351054 1.4861999e-16 0.19836366 0.013567845
000200 89 69 09 80 3f bb 1b bf dc d4 02 00 72 10 ff bc
       -8.64378e-40 -0.6083259 2.6003e-40 -0.031135771
000210 6e ce 99 bd b3 4b 6c 36 72 61 70 37 25 cc c7 be
       -0.075100765 3.5210803e-06 1.4327803e-05 -0.39022937
000220 26 25 03 bc 92 3c 9b 36 c6 63 5e bf d7 89 aa 22
       -0.008004462 4.6264113e-06 -0.8687099 4.6224536e-18
000230 04 55 8d be c3 b4 8a 34 79 46 c9 bd 2e c1 1e 3d
       -0.27603924 2.5836025e-07 -0.09827895 0.03875845
000240 11 3f 64 be 29 ce a0 32 ce 8f 95 be dd 58 d7 3d
       -0.22289683 1.8720202e-08 -0.29211277 0.10514996
000250 e5 e8 ad bd f8 dc 66 bd 62 95 fe be d3 e4 e6 bd
       -0.08491687 -0.056363076 -0.49723345 -0.112741135
000260 e4 da d6 3e 9f f4 c1 b8 9f 5d 87 3b 04 6e 08 3e
       0.41963875 -9.2485214e-05 0.0041310336 0.13323218
000270 54 79 a4 3d 38 aa 21 bd 2f d2 b7 3e 40 dd 9c 30
       0.08030954 -0.039468974 0.35902545 1.1413377e-09
000280 41 f3 5a be 2b 13 d5 3c 22 07 cf bd 15 4e 8b 3e
       -0.21381857 0.026010117 -0.10108782 0.2720801
000290 77 00 9d 3d 51 48 46 39 8c 60 22 3e 57 24 60 18
       0.07666104 0.00018909691 0.15857142 2.8969668e-24
0002a0 4d 4f 2e 3e c5 34 e5 38 fb 2f 86 3d 67 0b d4 b7
       0.17022438 0.000109294 0.0655212 -2.5277679e-05
0002b0 37 12 85 bc de d4 12 3e 21 58 97 3c 0e 67 96 bb
       -0.016244037 0.14339015 0.01847464 -0.004589922
0002c0 13 74 c1 3c c6 18 9c bd 6a cd f5 3c 59 05 2d b2
       0.023614919 -0.07621913 0.030005176 -1.0071141e-08
0002d0 27 21 ab bd a6 c9 08 3d b6 cc 37 09 a4 b3 22 bf
       -0.08355933 0.033395432 2.2124078e-33 -0.6355536
0002e0 da 0c 9d 3d df 8d 24 3e 3d a0 52 3e 75 bb b8 3d
       0.07668467 0.16069745 0.20568939 0.090201296
0002f0 28 0b 63 3c ac aa 1f 33 ae 4d a0 3e 89 da ed 3d
       0.01385764 3.7175298e-08 0.31309265 0.11613948
000300 01 7d 0f 80 19 3f 80 3d 14 90 00 80 ab b9 d5 3c
       -1.422375e-39 0.06262035 -5.1685e-41 0.02608951
000310 f1 c5 22 bc c9 91 9e b4 5d 0a 1d 33 ef 0e 62 3d
       -0.009934888 -2.9535866e-07 3.6563836e-08 0.055190023
000320 64 f0 53 bd 14 93 fe b6 40 84 ac bf 57 46 08 80
       -0.051742926 -7.586912e-06 -1.347786 -7.59917e-40
000330 0e 4f a0 bd 3e d7 9e 32 58 a0 bb 3d dd f2 a8 bd
       -0.078275785 1.8491502e-08 0.091614425 -0.082494475
000340 72 3c 23 be 04 75 ae 34 e6 96 4c bf 5a 51 9d 3e
       -0.15941027 3.2495166e-07 -0.7991775 0.3072613
000350 12 49 7f bf 19 a9 65 be b6 96 7b 3d 9c da 5c bc
       -0.9972087 -0.22427787 0.061423026 -0.013479855
000360 2a 86 4d 3e 8a 2d 81 3a 69 c7 02 bc f5 82 57 3e
       0.20070711 0.0009855491 -0.007982113 0.2104605
000370 18 ce a4 3b d6 6b ae bd d2 28 cd 3e c8 3a e9 ab
       0.005029451 -0.08516662 0.40070206 -1.6571961e-12
000380 04 64 0d bf fc 05 04 3d 61 e8 da be 4f 9d 4c 3e
       -0.55230737 0.03223227 -0.42755416 0.19981883
000390 45 a1 9b 3c e6 49 17 b5 97 65 83 3e c1 6e ad 04
       0.018997798 -5.635942e-07 0.25663444 4.0773816e-36
0003a0 ef a5 c5 3e cf c3 35 bb 99 af ae 3d ca 44 a0 b7
       0.3860316 -0.002773512 0.08529586 -1.9105519e-05
0003b0 87 2f 61 3d cb c4 45 3e 48 ff e7 bc 68 af 4d 3c
       0.054976966 0.19313352 -0.02831997 0.012554027
0003c0 f9 97 a3 bd 0a 1a c1 3d c9 93 e9 ba 19 b7 99 2e
       -0.07987971 0.09428795 -0.0017820533 6.990159e-11
0003d0 9c a7 d1 3c 27 75 49 bc bc 2a 0a 09 78 dc 92 be
       0.025592618 -0.012295998 1.663124e-33 -0.2868383
0003e0 37 2a 18 3e 10 1d 43 3e 47 6c 1b 3e 96 43 8e 3d
       0.14859854 0.19054055 0.15178023 0.06946485
0003f0 b5 c5 52 3d f2 82 9a 2c b4 1c e5 3d ae 99 98 3d
       0.05145808 4.391481e-12 0.11187115 0.07451187

advantage.2.bias f4 [81]
000000 0c 64 76 bd c4 e9 f4 3d ad 34 5d bb c9 c9 eb bd
       -0.060154006 0.1195865 -0.003375332 -0.11513097
000010 36 59 90 bd e1 7c 3b 3c 24 6b 49 3d 89 30 a4 bd
       -0.07048266 0.011443348 0.049174443 -0.0801707
000020 5a d2 82 bd 9a 3d 30 3e 50 bb 42 3e 9d 21 29 3e
       -0.063877776 0.17210999 0.19016767 0.16516729
000030 54 6c f4 3d ba c4 13 3e 1e 6f 2c 3e 7f 82 04 3e
       0.119347245 0.14430514 0.16839263 0.12940405
000040 f3 19 13 3e 66 61 32 be 16 8c 2a 3e 23 24 34 3e
       0.14365368 -0.17419967 0.16655001 0.1759191
000050 ca a3 30 3e 4f 14 5d 3e 1b 43 21 3e 83 af 31 3e
       0.1724998 0.21589778 0.15748255 0.17352109
000060 2c 4d 74 3c f2 f6 0b 3e c1 2e 04 3c 60 e8 6a bd
       0.014910977 0.13668421 0.008067788 -0.057350516
000070 88 76 2b 3e 3e a3 e9 3d 9b ea 12 bd e6 67 80 be
       0.16744435 0.11408089 -0.03586827 -0.25079268
000080 7d cb 7d bd 68 1d 20 3e 66 b1 1d 3e c2 ad 4f bc
       -0.06196164 0.15636218 0.15399703 -0.012675704
000090 e3 18 dc bd 8e 9d f2 3d 45 fe 61 bd 36 bb 9c be
       -0.10746934 0.118464574 -0.05517413 -0.3061158
0000a0 d5 68 98 3d fd 62 a0 be 8f 53 43 3e 6f c5 f1 3d
       0.0744187 -0.31325522 0.19074844 0.118052356
0000b0 22 8f 06 be cf bb e6 bd ff 2d 19 3e 15 b1 02 be
       -0.13140538 -0.112662904 0.14958952 -0.12762864
0000c0 07 3d 86 be 12 c5 07 3d b4 d5 9e bd b2 02 49 3e
       -0.26218435 0.033146925 -0.077556044 0.19629934
0000d0 09 ce 0a 3e 2a 10 cf be 93 a0 ce 3c b3 c6 28 3e
       0.13555159 -0.4044202 0.025223052 0.16482048
0000e0 b3 48 66 3e b5 00 32 3e 36 2e 2d 3e 98 2e 3b 3e
       0.2248867 0.17383082 0.1691216 0.18279493
0000f0 a5 26 cf 3d dc 1c fa 3d 28 dc 63 3e a4 23 87 3d
       0.10114793 0.12212536 0.22251952 0.06598595
000100 2f b3 80 3d 79 aa 18 3e cd 20 ec 3d 55 15 bd 3d
       0.062841766 0.1490878 0.11529694 0.092325844
000110 0d 41 6e be f2 fa 98 3d bd bc 11 3e c4 51 ff 3d
       -0.23267002 0.07469739 0.14232154 0.124667674
000120 ad 51 6a 3d a5 b4 1f bd 99 e1 4d 3d 6b 30 18 3e
       0.0572068 -0.038990635 0.050263975 0.1486222
000130 a7 7f 58 3d fa 3e 96 3e 5b 33 89 3d cb 64 78 3e
       0.052856114 0.29344922 0.066992484 0.242572
000140 51 c2 8f 3e
       0.2807794

value.0.weight f4 [64, 128]
000000 ce 75 01 80 83 7f 10 80 2c ee 15 80 20 5a 09 00
       -1.34096e-40 -1.51511e-39 -2.013985e-39 8.5885e-40
000010 c6 86 10 80 8f 34 13 00 d1 77 0f 80 91 66 0d 00
       -1.517716e-39 1.763729e-39 -1.420514e-39 1.230655e-39
000020 89 20 02 00 f8 90 04 80 b3 38 0d 00 5c 12 17 80
       1.95342e-40 -4.19347e-40 1.214201e-39 -2.118803e-39
000030 65 2e 15 00 13 89 10 00 e6 8e 06 00 65 9a 09 80
       1.945189e-39 1.518541e-39 6.02275e-40 -8.81906e-40
000040 24 92 04 80 5c 9f 1b 80 1d 73 03 00 16 76 0c 80
       -4.19767e-40 -2.536726e-39 3.16801e-40 -1.144387e-39
000050 6a 70 05 80 1f 08 06 80 05 f5 06 00 f3 97 1a 00
       -4.99504e-40 -5.53926e-40 6.3891e-40 2.442232e-39
000060 58 60 05 80 68 c9 10 80 b9 09 0d 80 d3 9e 1f 00
       -4.93739e-40 -1.541619e-39 -1.197349e-39 2.903876e-39
000070 d8 8f 17 00 53 93 03 80 95 17 0f 80 81 5e 00 00
       2.163818e-39 -3.28356e-40 -1.385992e-39 3.3902e-41
000080 26 48 01 00 2a 5e 1d 00 0e eb 19 00 cd 68 1a 80
       1.17717e-40 2.697009e-39 2.380209e-39 -2.425318e-39
000090 9b af 1a 80 03 a8 0e 00 70 2a 14 80 f5 4e 09 80
       -2.450718e-39 1.345968e-39 -1.851934e-39 -8.54844e-40
0000a0 12 72 1a 00 68 89 15 00 3d ad 1c 80 01 53 1b 80
       2.428644e-39 1.977837e-39 -2.63354e-39 -2.509335e-39
0000b0 18 50 0b 80 8a 86 05 80 3d 70 13 80 87 9e 06 80
       -1.038923e-39 -5.07441e-40 -1.785138e-39 -6.07882e-40
0000c0 dd 46 04 80 de 20 1b 00 31 95 0e 00 c8 55 18 00
       -3.92763e-40 2.491349e-39 1.339217e-39 2.234824e-39
0000d0 7c 6e 10 00 dc 52 1c 80 22 9d 0b 80 03 c2 20 80
       1.509002e-39 -2.601118e-39 -1.066559e-39 -3.008334e-39
0000e0 c2 ee 16 80 47 1b 13 00 5e f7 03 00 52 a3 13 80
       -2.106031e-39 1.75466e-39 3.64245e-40 -1.803463e-39
0000f0 e6 90 07 80 f0 1c 17 00 55 39 00 00 63 33 1c 00
       -6.94828e-40 2.122597e-39 2.0567e-41 2.589828e-39
000100 ca 06 1b 80 2b aa 18 00 6e de 0d 80 b3 6d 13 80
       -2.481994e-39 2.265097e-39 -1.273654e-39 -1.784227e-39
000110 62 d8 14 00 7c 62 0e 80 79 79 05 00 c2 17 11 80
       1.914333e-39 -1.321026e-39 5.02754e-40 -1.569726e-39
000120 ab b3 13 80 8e 7a 0b 00 8f 4b 1b 00 00 fd 24 00
       -1.809327e-39 1.054155e-39 2.506664e-39 3.396837e-39
000130 85 10 0d 80 13 b4 05 00 81 b2 08 00 d2 01 0a 80
       -1.199788e-39 5.23776e-40 7.98719e-40 -9.19008e-40
000140 e3 2c 15 80 ed 5f 13 80 9d 07 0a 00 e8 e4 0e 80
       -1.944648e-39 -1.779286e-39 9.21086e-40 -1.367813e-39
000150 3c dd 0a 00 08 97 06 00 e0 84 12 80 0f df 07 80
       9.97719e-40 6.05193e-40 -1.700705e-39 -7.22867e-40
000160 bd fd 17 80 3b c8 00 80 4e 33 07 00 4f f2 03 00
       -2.20324e-39 -7.1829e-41 6.61253e-40 3.6243e-40
000170 63 32 07 80 69 59 0b 80 ff 18 12 00 ee 37 10 00
       -6.60924e-40 -1.042265e-39 1.662006e-39 1.489432e-39
000180 66 58 0f 80 7b e0 01 00 10 b1 0b 00 8d 72 19 00
       -1.409244e-39 1.72364e-40 1.073709e-39 2.33698e-39
000190 e1 6b 09 80 e8 30 0e 00 80 96 07 00 5f 73 15 00
       -8.65219e-40 1.303241e-39 6.96838e-40 1.969933e-39
0001a0 f3 ae 12 00 c7 2a 09 00 04 da 1f 00 5e 8b 0e 00
       1.715799e-39 8.41865e-40 2.92511e-39 1.335692e-39
0001b0 33 a7 05 80 47 46 11 00 d1 8b 04 00 7c 4b 13 00
       -5.19157e-40 1.586414e-39 4.17499e-40 1.771953e-39
0001c0 e0 ee 10 00 eb 9f 15 00 20 b8 17 00 e6 03 00 00
       1.55506e-39 1.985913e-39 2.178268e-39 1.398e-42
0001d0 d5 0d 13 80 c9 07 0e 00 d9 1e 14 00 7a 03 0b 00
       -1.749836e-39 1.28849e-39 1.847776e-39 1.011438e-39
0001e0 ab 6f 06 00 dd 38 10 80 84 f4 1b 00 0f cb 07 80
       5.91072e-40 -1.489767e-39 2.567274e-39 -7.15692e-40
0001f0 e0 0b 18 80 9c bb 06 80 89 69 0b 00 af 09 13 80
       -2.208312e-39 -6.18315e-40 1.04805e-39 -1.748348e-39
000200 30 ad 20 00 b6 a3 04 00 1b 18 17 80 ea af 06 80
       3.000864e-39 4.2607e-40 -2.120864e-39 -6.14119e-40
000210 f6 49 07 80 34 cd 0d 80 49 2d 0a 00 4a 0a 15 00
       -6.6938e-40 -1.267474e-39 9.346e-40 1.932236e-39
000220 45 d7 0d 80 e1 6b 05 80 75 a2 15 00 e6 78 08 00
       -1.271086e-39 -4.97877e-40 1.986824e-39 7.78054e-40
000230 35 42 1c 00 36 06 11 80 05 9e 0f 80 fb 10 11 80
       2.595145e-39 -1.563431e-39 -1.434219e-39 -1.567295e-39
000240 2d 4f 19 80 59 a6 12 00 ce 20 12 80 2f df 14 80
       -2.32429e-39 1.712713e-39 -1.664807e-39 -1.916773e-39
000250 e7 50 14 80 3e 36 19 80 f2 e0 06 00 5a 22 1f 80
       -1.865732e-39 -2.315346e-39 6.31708e-40 -2.859223e-39
000260 81 c4 11 80 56 bc 0b 00 5e a0 0a 00 2d 1f 08 80
       -1.631696e-39 1.077753e-39 9.75884e-40 -7.45868e-40
000270 82 b7 0a 00 a8 51 0b 80 f0 bc 08 80 01 5d 16 80
       9.84185e-40 -1.039483e-39 -8.02462e-40 -2.053744e-39
000280 88 74 0f 80 5c 55 0a 80 20 d4 20 00 ec 99 0f 00
       -1.419336e-39 -9.48976e-40 3.014832e-39 1.432749e-39
000290 8a 22 02 00 1c 8d 14 80 da 0d 11 00 65 ca 15 00
       1.96061e-40 -1.88733e-39 1.566172e-39 2.001151e-39
0002a0 1e 07 0f 00 0d 00 09 80 53 a2 11 80 17 1e 10 00
       1.380086e-39 -8.26538e-40 -1.619434e-39 1.480162e-39
0002b0 93 e8 12 00 71 92 09 80 ed 16 0e 00 7e 38 0c 80
       1.736471e-39 -8.79053e-40 1.293921e-39 -1.122292e-39
0002c0 bb 2a 17 00 5e 3b 1b 00 55 0c 01 80 2a 67 12 00
       2.127545e-39 2.500855e-39 -9.626e-41 1.690047e-39
0002d0 6d 68 08 00 a8 57 03 00 51 f6 06 80 3f 45 04 80
       7.72145e-40 3.06952e-40 -6.39375e-40 -3.92183e-40
0002e0 60 94 14 00 a2 f2 13 80 8d a2 0c 00 b7 06 12 80
       1.889937e-39 -1.831915e-39 1.160338e-39 -1.655448e-39
0002f0 16 91 13 80 78 32 0d 80 0e 0a 0a 00 c1 ac 13 00
       -1.796921e-39 -1.211966e-39 9.21962e-40 1.806847e-39
000300 4d 5e 17 00 2e a5 0c 00 39 94 05 00 f1 f8 01 00
       2.146045e-39 1.161281e-39 5.1235e-40 1.81139e-40
000310 38 07 0a 00 c4 f6 03 00 59 64 1a 00 94 74 06 80
       9.20945e-40 3.6403e-40 2.423721e-39 -5.92833e-40
000320 6d 69 19 80 b8 2e 05 00 81 d6 22 00 0b cb 09 00
       -2.333707e-39 4.75937e-40 3.199356e-39 8.99358e-40
000330 1b 57 11 80 17 9a 13 00 9c b8 03 80 fe 65 12 00
       -1.592451e-39 1.800151e-39 -3.41732e-40 1.689627e-39
000340 dc ee 08 80 55 2c 14 00 50 c7 04 80 44 1d 04 00
       -8.2037e-40 1.852613e-39 -4.38842e-40 3.7784e-40
000350 7a 68 10 00 4b 06 0e 00 d2 54 00 00 9a 32 0e 80
       1.506847e-39 1.287954e-39 3.0428e-41 -1.30385e-39
000360 82 97 01 00 c9 b3 01 00 c2 c0 01 80 f6 f5 0e 00
       1.46186e-40 1.5633e-40 -1.60984e-40 1.373931e-39
000370 d8 fe 12 00 8e fd 19 80 ec 79 20 00 9e 25 0b 00
       1.74446e-39 -2.386846e-39 2.982473e-39 1.023685e-39
000380 21 18 10 00 ab 9f 14 80 0a f6 0e 00 8f f9 1a 80
       1.478024e-39 -1.893988e-39 1.373959e-39 -2.477248e-39
000390 95 aa 0d 00 6e 59 07 00 d0 e7 02 00 23 a7 10 00
       1.255055e-39 6.7493e-40 2.6683e-40 1.529325e-39
0003a0 90 12 04 80 ae 1c 13 80 bc 66 04 00 4a d5 00 80
       -3.74001e-40 -1.755163e-39 4.04196e-40 -7.6514e-41
0003b0 15 57 17 00 ae 8c 00 80 dd 1a 15 00 f7 9d 00 00
       2.143456e-39 -5.0466e-41 1.938182e-39 5.6667e-41
0003c0 d7 7b 01 80 47 d6 16 00 e7 c0 14 00 74 d5 13 00
       -1.36261e-40 2.097249e-39 1.90591e-39 1.821447e-39
0003d0 7f 88 0f 80 e1 61 0f 80 ec 95 16 80 9c d0 0d 00
       -1.426498e-39 -1.412645e-39 -2.074163e-39 1.268696e-39
0003e0 3d 7c 0c 00 a5 f8 16 00 cf 85 1c 00 e6 e9 0e 80
       1.146594e-39 2.109578e-39 2.619395e-39 -1.369604e-39
0003f0 03 a2 14 00 fd 41 12 80 5a 6b 08 00 e5 ac 06 80
       1.894829e-39 -1.676711e-39 7.73194e-40 -6.13036e-40

value.0.bias f4 [64]
000000 5d 83 0d 80 dc 9b 0d 00 d9 4a 01 80 fe 45 0f 00
       -1.240986e-39 1.249773e-39 -1.18686e-40 1.402641e-39
000010 e1 55 20 00 b9 f1 19 00 84 c9 10 80 2d 08 0c 80
       2.969543e-39 2.382601e-39 -1.541658e-39 -1.104959e-39
000020 18 51 24 00 ff b2 08 00 75 e0 17 00 0b 18 10 00
       3.335169e-39 7.98896e-40 2.192736e-39 1.477993e-39
000030 16 6b 14 00 74 d8 18 00 c7 bb 04 00 dd 48 16 00
       1.875125e-39 2.2817e-39 4.34704e-40 2.04652e-39
000040 44 02 0a 80 fc 38 04 00 23 b6 1a 80 1f 53 0e 00
       -9.19168e-40 3.87784e-40 -2.453061e-39 1.315515e-39
000050 27 87 12 00 4a 15 0b 00 00 19 04 80 44 01 16 00
       1.701522e-39 1.017828e-39 -3.7631e-40 2.020835e-39
000060 9f b3 16 80 27 c7 19 80 5a ed 10 00 e8 8d 12 00
       -2.084817e-39 -2.36733e-39 1.554514e-39 1.703945e-39
000070 f2 c9 0e 00 e2 60 06 00 3f d2 06 80 ac 09 08 80
       1.358141e-39 5.85768e-40 -6.26435e-40 -7.38154e-40
000080 70 59 0b 00 f0 f8 12 00 fd a4 10 80 22 3f 10 80
       1.042275e-39 1.742341e-39 -1.528555e-39 -1.492016e-39
000090 a4 da 1c 00 00 a5 03 80 11 4f 0b 80 97 04 0f 00
       2.649827e-39 -3.34697e-40 -1.038554e-39 1.379179e-39
0000a0 44 b7 02 80 0e b5 20 00 e7 e4 0f 80 77 15 13 00
       -2.49414e-40 3.003686e-39 -1.459647e-39 1.752575e-39
0000b0 c9 e1 0e 80 1c 28 0f 00 fa da 04 80 90 5a 0e 80
       -1.366693e-39 1.391921e-39 -4.45896e-40 -1.318185e-39
0000c0 a2 fc 02 00 f4 99 20 80 35 ae 00 00 12 64 1c 80
       2.74299e-40 -2.993964e-39 6.2494e-41 -2.607292e-39
0000d0 de fd 24 80 11 72 1d 00 b5 c0 00 00 69 60 01 00
       -3.397148e-39 2.704149e-39 6.913e-41 1.26421e-40
0000e0 1a c6 05 00 0f 8a 0f 80 17 34 16 00 aa 2b 0f 00
       5.30243e-40 -1.427059e-39 2.039067e-39 1.393196e-39
0000f0 d4 52 0d 00 ec 77 11 80 13 0e 0e 80 af 37 03 00
       1.223575e-39 -1.604223e-39 -1.290746e-39 2.95482e-40
